Lorenz63Dim/L63E3P2/results/nets/net_mytrainedmodelSignatureKernel.pth (torch, 6606 bytes, 11 tensors)

net.gru.weight_ih_l0 f4 [24, 1]
000000 b8 29 33 be cb 08 88 be 10 5f 12 be ef 58 69 bf
       -0.17496383 -0.26569209 -0.14294076 -0.91151327
000010 3c 31 99 bf d2 e0 ff 3e cf 43 3f be 7e c4 95 bd
       -1.196815 0.49976212 -0.1867821 -0.073128685
000020 eb 6a 03 3e fc 79 13 3f da f9 2c 3f 85 8f f7 3e
       0.12833755 0.5760801 0.67568743 0.48351684
000030 fb 9f 99 be 70 0b 8f 3e 60 64 fa bd ed 06 9e 3d
       -0.30004868 0.27938414 -0.12226176 0.07716165
000040 32 f0 05 3e c6 8b 17 be f9 39 76 bd 54 f4 ff bd
       0.13079908 -0.14799413 -0.06011388 -0.12497774
000050 43 27 f2 3e 8b f1 05 3e e5 86 8d be 3f 25 c6 bd
       0.4729558 0.13080423 -0.2764198 -0.09675073

net.gru.weight_hh_l0 f4 [24, 8]
000000 5d 89 f8 be 3c f5 4a 3f 45 b0 6c be 39 3f cf 3e
       -0.485423 0.7928045 -0.23114116 0.40477923
000010 23 01 8a bd 75 32 c1 bd d2 17 c6 be 4f 62 4d 3f
       -0.06738498 -0.09433452 -0.38690048 0.8022813
000020 8a 4e c2 bd c9 ca 61 3f b3 63 17 40 34 d8 07 40
       -0.094876364 0.8820005 2.3654602 2.122571
000030 ca 6c 31 3e ed f5 97 bf 17 0e ac 3f 0e de e5 3f
       0.17326656 -1.1871926 1.34418 1.7958391
000040 0d e2 0e bf 54 a5 b3 3e 54 4b b9 bf 74 3a ce 3e
       -0.55813676 0.35087073 -1.4476113 0.4027897
000050 21 99 80 3e 61 f5 7a 3e 4e c0 e9 be a4 88 b1 b9
       0.25116828 0.24507667 -0.4565453 -0.00033861876
000060 6e 24 04 3f ed 62 3a bf 8c 01 80 bf d0 f4 d8 bd
       0.5161809 -0.728072 -1.0000472 -0.10593569
000070 61 3d 05 bf a1 71 6b bd b2 d5 41 3e 38 ad ee bc
       -0.5204678 -0.05748141 0.18929175 -0.029135332
000080 d1 f7 db 3d e5 0e 7c 3f 54 20 3c 3f b9 7c 4c 3e
       0.107406266 0.9846023 0.7348683 0.19969453
000090 c3 90 25 3f a2 c3 08 bf 2d 08 18 3f 65 57 89 bf
       0.64674014 -0.5342351 0.59387475 -1.0729796
0000a0 c3 6c aa bd c1 34 1d 3f ac 5c 00 3f 0a 78 ba be
       -0.08321526 0.6140862 0.50141406 -0.36419708
0000b0 3e 06 35 bf 4d d9 3b 3f 07 da e6 be 4b c7 3e 3e
       -0.7071265 0.7337845 -0.45088217 0.18630712
0000c0 bc 00 ff be 38 8f d0 3e 3a 71 7e 3e 00 a2 e3 3d
       -0.49805248 0.40734267 0.2484788 0.111148834
0000d0 78 08 88 3f a8 b3 d0 3d 1f 69 a7 be 10 7d 6e be
       1.0627584 0.10190517 -0.3269739 -0.23289895
0000e0 8a 61 0e 3e 2c 98 1a 3f 2a 84 05 bf f4 45 1b bd
       0.13904396 0.60388446 -0.5215479 -0.03790851
0000f0 19 a5 8d be 9b a4 a7 be c9 51 84 bd 5f 38 b2 3f
       -0.27665022 -0.32742772 -0.06460912 1.3923453
000100 d6 5d d7 be ab eb da bd 4d 91 8a 3d 8c 8d 98 3e
       -0.4206378 -0.10689481 0.06765995 0.29795492
000110 99 f1 8e 3e d0 6f 8f 3e b9 db ff 3e fe 97 91 be
       0.279187 0.28014994 0.49972323 -0.28436273
000120 c3 d3 50 3f eb 9a 32 bf 7d b7 25 bf fa 6f 3f bd
       0.8157312 -0.69767636 -0.64733106 -0.04673765
000130 67 8a fd 3e b4 c4 2b 3e c6 e1 62 be 02 a0 89 3e
       0.49519655 0.16774255 -0.22156438 0.2687989
000140 71 a0 ef 3f d4 ea 5f bf 64 c6 98 bf 55 79 70 3d
       1.8720838 -0.87467694 -1.1935544 0.05870946
000150 cc 61 94 3e 4d c5 86 bf a8 80 3f 3f e0 32 9e 3f
       0.28980863 -1.0528961 0.7480569 1.2359276
000160 53 bc 24 3f bd 51 3c bf 84 b9 40 3e d9 9b 7a be
       0.6434986 -0.7356222 0.18820769 -0.24473514
000170 ff a8 3c bf b1 62 32 bf 53 bc 02 be 16 4c 88 3e
       -0.7369537 -0.6968184 -0.12767152 0.2662055
000180 35 78 a7 3f b9 20 b2 bf 7d a7 ae 3e 1b fc 0e bd
       1.3083559 -1.3916236 0.34112158 -0.034908395
000190 b7 6a 50 bf f1 ca 97 3e af c1 7e 3f 66 ba 94 3f
       -0.81412834 0.2964702 0.9951429 1.1619384
0001a0 48 0b 1c 3f 5f 02 26 bf ee 8e 4e bd 64 d6 7c bf
       0.60954714 -0.6484737 -0.050429277 -0.98764634
0001b0 39 5e d9 bd b0 32 90 3e a4 66 e7 3e d8 76 f9 3e
       -0.10613675 0.28163671 0.45195496 0.48723483
0001c0 77 d5 2f 3f 66 f8 c0 bf bb c7 d1 3d e9 45 d9 3e
       0.68685097 -1.5075805 0.10243174 0.4243615
0001d0 a9 e7 a2 3f 03 40 4d 3f 4b 76 3a 3f fb 5c ef bf
       1.2726947 0.801758 0.7283675 -1.870025
0001e0 19 99 1d 3e e0 16 80 3d ac de 52 3f fe 22 85 3e
       0.15390433 0.06254363 0.8237102 0.2600326
0001f0 1f 86 bf 3e 21 c2 62 bf d4 c6 2e 3f 6a 29 54 be
       0.37407014 -0.8857747 0.6827214 -0.20718923
000200 7c 67 1e 3f 1a b5 4d bf 9d 32 a0 3f af 9b 25 be
       0.61876655 -0.80354464 1.2515446 -0.1617267
000210 73 cd ac be b9 25 d8 bd ab 99 08 3f 8c 30 9a 3e
       -0.33750495 -0.1055407 0.5335948 0.30115163
000220 a9 05 35 bd 45 f6 37 3d c1 af 76 bf 78 27 1b 3f
       -0.04419485 0.044912595 -0.9636193 0.606071
000230 38 02 cb be 24 41 34 3f 8d 0f be be 98 d9 f3 bd
       -0.3965013 0.70411897 -0.3712124 -0.11906737
000240 75 ea 91 be 79 2e fc bc e8 ee bd bd bc 9d 77 3f
       -0.2849919 -0.030783879 -0.092740834 0.9672506
000250 b5 7e ef bc b5 75 1f bf 19 7c 05 3f cb 19 cc be
       -0.029235223 -0.6228898 0.52142483 -0.39863428
000260 75 6e d8 be fc bc 3c 3c 8e 62 75 3d d0 cb a4 bf
       -0.42271772 0.011519667 0.059908442 -1.2874699
000270 41 55 9d be 16 34 2a 3e 07 09 e2 3d 93 12 11 3f
       -0.30729106 0.16621432 0.11036878 0.56668967
000280 2c 67 10 3e b4 3a f4 3d c6 55 14 3e f2 14 26 3f
       0.14101857 0.11925259 0.14485845 0.6487571
000290 04 1e 18 3e 4c 1d 8f 3d 0e 97 17 3e 9c 0e 61 bf
       0.148552 0.0698801 0.14803717 -0.8791292
0002a0 3b cf 22 bf 42 e5 98 3e 6c 18 08 3d ea 4d 5e 3c
       -0.6359746 0.2986241 0.033226416 0.013568381
0002b0 60 98 a9 be d3 2b 63 3f 58 63 9c be fd 59 0a bf
       -0.33124065 0.88738745 -0.30544543 -0.5404356
0002c0 ee f0 f1 3e 92 9c 51 bf 5d 50 cd be 42 02 a6 bd
       0.47254127 -0.8187953 -0.40100375 -0.081058994
0002d0 40 e3 6c be ec 0b d3 3e eb f7 2d 3e b0 3e a9 3f
       -0.23133564 0.41220033 0.16989104 1.3222256
0002e0 6b 16 9d be c9 0e 1c bc a2 81 05 3d 51 dd c1 be
       -0.30681166 -0.009525009 0.03259433 -0.37864164
0002f0 2a 59 f9 3e 7d 6d 66 3f 9e 9b a8 3e 5f 32 cd 3d
       0.4870084 0.90010816 0.32931226 0.10019373

net.gru.bias_ih_l0 f4 [24]
000000 0a eb 3e 3f c0 f4 2e be cc 70 61 3f ab ec 43 be
       0.7457739 -0.17085552 0.8806274 -0.1913325
000010 ad 24 f2 3d 6a 22 28 3f eb f4 44 3c 1b 8b d9 be
       0.118234016 0.6567751 0.012021284 -0.42488942
000020 52 36 bd 3d 47 6b 04 bf 2c 3b 82 bf 60 85 11 bf
       0.092388764 -0.5172619 -1.0174308 -0.5684414
000030 64 91 84 bf f6 3f 45 bf ea 00 25 bf de 0e 9c be
       -1.035687 -0.7705072 -0.6445452 -0.30480093
000040 d6 fe 5f be c5 d3 4b be 41 21 d2 be 9f 7f 00 be
       -0.21874556 -0.19905002 -0.41040996 -0.12548684
000050 9f b2 5a 3d 7c 57 20 3f 06 e6 17 bf 52 a8 68 be
       0.053393003 0.6263349 -0.5933536 -0.22720459

net.gru.bias_hh_l0 f4 [24]
000000 02 91 0a 3f 4d 8a ef 3e 02 86 34 3f a6 4c 56 3e
       0.54127514 0.46785203 0.7051698 0.20927677
000010 92 d1 23 3d 8d 5b 07 3f 00 25 a1 3e 37 61 65 bd
       0.039994784 0.5287407 0.3147354 -0.056000914
000020 40 81 09 be 34 18 45 be 3f 2f 5b bf da ad 7d bf
       -0.13428211 -0.19247514 -0.85618967 -0.990934
000030 36 c1 9c bf b8 49 31 bf 69 84 35 bf 43 af ed bd
       -1.2246463 -0.6925311 -0.70905167 -0.11605694
000040 68 eb 4d bf ce 83 80 3e 4e ec 2a 3e e6 69 62 be
       -0.80437326 0.2510056 0.16691706 -0.2211071
000050 76 99 ab 3e 0b f7 f9 3e 19 b2 6b be 55 4f b6 3e
       0.3351552 0.4882129 -0.23017158 0.356074

net.fc_nn.fc_in.weight f4 [13, 9]
000000 fc b3 ff 3e 49 13 49 be 26 3e 2a bf c9 4c 57 bf
       0.49942005 -0.19636263 -0.6650108 -0.8410154
000010 49 f6 1a 3f f9 f1 08 3f ef 8f f3 be d2 50 2f 3f
       0.6053205 0.5349422 -0.4757075 0.68482697
000020 ec ad ec 3a a0 3b 8b be 26 bc 97 3c ba 16 cb bf
       0.0018057204 -0.27193928 0.018522333 -1.5866311
000030 69 0b 36 bd ab db b8 be 40 88 93 3f b6 38 f2 3d
       -0.044444475 -0.36105093 1.1525955 0.11827223
000040 1e 6f ae 3f 0b c3 0b 3f 6f 55 11 bf 9c 77 64 be
       1.362766 0.54594487 -0.56770986 -0.22311252
000050 03 6e 3e 3d a2 11 7b 3e bd 57 9c be 5f c3 2f be
       0.046491634 0.24518445 -0.3053569 -0.17164372
000060 e9 1a c4 be 63 4d 27 bf 91 b0 1d 3e b0 1b cc be
       -0.3830178 -0.6535246 0.15399386 -0.39864874
000070 f1 c6 5f be c9 aa e6 be 96 8b ae 3c aa 81 c7 be
       -0.21853234 -0.45052174 0.021306794 -0.38966113
000080 b0 af da be b6 c0 53 bd 16 a2 3a bf 7f cd c5 3e
       -0.42712164 -0.051697455 -0.72903574 0.38633344
000090 39 05 51 bf 4f 0c 2e bf 2a 3a fb be fc cf 80 3e
       -0.81648594 -0.6798753 -0.49067813 0.2515868
0000a0 94 d6 2e be 9c 78 d8 bc 88 c4 52 be 76 bd bd be
       -0.17074043 -0.026424699 -0.20582783 -0.3705861
0000b0 f8 60 eb 3e 00 2d 15 bf 9e 50 13 bf fc ef a3 ba
       0.4597242 -0.5827179 -0.5754489 -0.0012507434
0000c0 3e ab e7 3b 56 c4 ad be 53 2e e3 bd 44 9d da be
       0.007069974 -0.33938855 -0.1109282 -0.4269811
0000d0 75 3c f8 be de 6d 40 3d fe c7 a6 be fc 3a 3c 3f
       -0.48483625 0.046979778 -0.32574457 0.73527503
0000e0 2d e3 e8 3e 5c ef ea bd a4 dd e9 be cb b5 15 be
       0.4548582 -0.114714354 -0.4567691 -0.1462013
0000f0 87 ba 06 3f b3 c0 13 3e 04 a3 7d 3f ee 30 83 bd
       0.5262837 0.14428978 0.9907687 -0.06405817
000100 77 ce 6a bf e0 40 20 be af 0c 86 3e 9f 80 d8 be
       -0.9172129 -0.15649748 0.26181552 -0.4228563
000110 cd 5c f6 3d 4a e4 04 3f e0 c0 21 bf de 7e 6e be
       0.12029419 0.5191084 -0.6318493 -0.23290583
000120 06 07 88 be 1a 7d 2b 3e 47 ba 6d 3c 62 41 12 3e
       -0.26567858 0.16746941 0.014509744 0.14282754
000130 7b 64 a8 3e b9 b0 26 3f b6 dd c2 be 0c ea aa 3e
       0.3288916 0.6511341 -0.38059777 0.3338169
000140 36 a0 7d 3f e6 de cf be 51 7f 4f bf bf 11 88 3d
       0.9907259 -0.40599746 -0.81053644 0.0664401
000150 66 24 53 3e 06 a5 4c bf 60 77 52 3e 03 40 32 3f
       0.20619354 -0.79939306 0.2055335 0.69628924
000160 94 73 e2 be 08 aa 72 3d 52 1f 21 be 5d b0 02 be
       -0.44228804 0.059244186 -0.15734604 -0.1276259
000170 21 25 fa 3d 01 ea 12 3e cb 9a 91 bd f9 7a 8a 3d
       0.12214113 0.14347078 -0.071096025 0.067617364
000180 39 86 f0 3d 4f 85 78 bf d5 86 8b 3f 4e 3d 83 be
       0.11744351 -0.9707841 1.0900522 -0.2563271
000190 ff 02 1e 3f 82 fa 8e bf 9c 88 af 3d f0 8a 85 bb
       0.6172332 -1.1170199 0.08570978 -0.0040754005
0001a0 be 02 ed 3e 7c fb a0 bd b2 af 6d 3f 39 2b 6a be
       0.46291155 -0.07860467 0.92846215 -0.2286805
0001b0 73 91 ae 3e c2 0f ef be d8 c8 3c bf c0 ed a6 be
       0.34095344 -0.4669171 -0.73743963 -0.32603264
0001c0 b2 18 08 3f dd d0 4d 3d da 21 0a 3c 9e 71 ee 3f
       0.5316268 0.050248016 0.008430922 1.8628423
0001d0 9a 19 43 3e
       0.19052735

net.fc_nn.fc_in.bias f4 [13]
000000 9d 3e 2f 3e f9 1e 59 be fd 78 62 3e 2b fb 2b 3f
       0.17113729 -0.21203221 0.22116466 0.67180127
000010 47 f9 26 3f fc b7 00 3f 72 99 28 bd 3c c6 de 3e
       0.6522412 0.5028074 -0.04116196 0.43510616
000020 c3 cb a8 3e a2 69 a7 bb 74 d4 15 bf 77 dd 3f 3f
       0.32967958 -0.005109028 -0.585273 0.74947304
000030 98 0f d6 be
       -0.41808772

net.fc_nn.fc_hidden.0.weight f4 [9, 13]
000000 5d 37 dc be df 40 03 3e c5 45 e1 3e 8e 2f 68 3f
       -0.4301099 0.12817715 0.43998542 0.9069756
000010 ba d1 fb 3e 90 f3 aa 3e ea 0f 99 be 92 3a 5f 3e
       0.49183446 0.33388948 -0.29894954 0.21799687
000020 3e d0 3b bf 75 e7 2e 3f c2 f3 0a c0 fd 99 c5 bd
       -0.7336463 0.68321925 -2.1711278 -0.096485116
000030 cd 65 17 bf 6a 1a 51 3f 64 b1 b0 bf 59 ad 5d ba
       -0.5913971 0.8168093 -1.3804135 -0.0008456312
000040 a4 64 21 3f 47 69 60 3c 3d e5 5f 3e df 13 a3 3e
       0.6304419 0.013696975 0.21864791 0.31851098
000050 f0 fd 30 3f bf 25 79 3e d6 04 ff be af 4a 9b bf
       0.6913748 0.24330805 -0.49808377 -1.2132167
000060 2c 14 83 bf a8 00 13 3f 28 00 d3 be 4a f3 b3 3e
       -1.0240531 0.57422876 -0.41211057 0.35146552
000070 ab 94 12 3f 8a 21 0f 3f 73 f3 04 3f 01 0c 48 3e
       0.572581 0.5591055 0.51933974 0.19535829
000080 bd 42 b0 be fc d3 ba 3e 71 21 c9 be f5 ba 4c 3f
       -0.34425917 0.36489856 -0.39283326 0.79972774
000090 82 c4 6d bf ec 39 00 3e be 8c 32 bf 69 16 c3 3e
       -0.9287797 0.12522095 -0.69746006 0.38103035
0000a0 37 ed 6f 3f 11 d5 80 be d8 63 70 be 51 9b ac 3e
       0.93721336 -0.25162557 -0.23475587 0.33712247
0000b0 0c af 33 be 5d 9e 8c 3e 75 c2 3d be c8 7d af 3e
       -0.17547244 0.27464572 -0.1853121 0.3427565
0000c0 11 58 32 bf 48 5c d8 3f df 35 5b 3f aa 99 ce 3f
       -0.6966563 1.6903162 0.85629076 1.6140645
0000d0 8e 89 01 bf 85 e1 e7 3e e9 f8 8b 3e ba 2a f0 3e
       -0.50600517 0.45289245 0.2733834 0.46907598
0000e0 ec e6 d7 3e ce cf d9 3e bf 89 f8 be 47 ac ad 3e
       0.42168367 0.42541355 -0.48542592 0.339205
0000f0 05 4a ee be bb a1 19 3f 75 9e d3 bf 2e 3c 6e be
       -0.46540847 0.60012406 -1.6532732 -0.23265144
000100 5b e7 4a bf d1 04 5f 3f f5 09 31 3f 85 f5 a1 be
       -0.7925927 0.87116724 0.6915582 -0.3163263
000110 cf a3 57 be cc 42 0e 3e 89 22 9e 3c b2 68 7d 3f
       -0.21058582 0.13892668 0.019303577 0.9898788
000120 74 06 71 be 12 6c b9 3b fb 5f 45 bf 77 3c bf 3f
       -0.23537618 0.005658635 -0.7709958 1.4940327
000130 98 64 25 3f 5b 44 af 3f 1a 05 cb be 08 a4 20 3f
       0.6460662 1.3692735 -0.3965233 0.6275029
000140 da d6 fb 3e 46 1b 10 3f 90 00 d6 3e d7 70 f2 3e
       0.49187356 0.56291616 0.41797304 0.47351715
000150 dd 79 7f bf 18 8e f7 3e 7c 74 31 bf f8 d1 b6 3f
       -0.99795324 0.48350596 -0.69318366 1.4282827
000160 bc 69 2c c0 e6 d3 64 be a9 cd 36 bf ec 52 ac be
       -2.6939535 -0.22346458 -0.7140756 -0.33657014
000170 e6 38 1d 3e 45 eb 01 3f c2 a3 24 3f 99 4a 91 3e
       0.15353736 0.5074962 0.64312375 0.28377226
000180 1d 0a e2 3e 85 a4 f8 be 69 71 bd 3e c6 8d 66 bc
       0.4414834 -0.48563018 0.37000588 -0.014071887
000190 73 06 3f 3f 01 45 a5 bf c4 93 97 3d 0e fd 96 bf
       0.74619216 -1.2911683 0.07401231 -1.1795976
0001a0 f0 41 eb 3e 06 96 d8 3e e4 2d 20 bf 11 b7 ea be
       0.45948744 0.4230196 -0.62570024 -0.45842794
0001b0 b8 14 71 3c a9 5b 84 be 2d d2 ef 3e b4 f5 83 bf
       0.014714412 -0.2585118 0.4684004 -1.0309358
0001c0 3c 37 b2 3e 3d 6c 86 bf 7c 19 11 40 6a 26 7f 3e
       0.34807765 -1.0501782 2.2671804 0.24916998
0001d0 c5 30 65 3f
       0.8952754

net.fc_nn.fc_hidden.0.bias f4 [9]
000000 a2 da 4c 3e 4c aa 03 bf 07 e9 be 3e 8b 83 08 3f
       0.20005277 -0.5143173 0.3728716 0.5332572
000010 44 a3 78 3e 1f e9 e8 3d 5c d0 02 be 2c 45 41 3e
       0.24281031 0.11372589 -0.12774795 0.18874043
000020 ed 7a 95 3e
       0.29195347

net.fc_nn.fc_hidden.1.weight f4 [5, 9]
000000 1a 1d 92 bf be 94 a0 bf d1 ed a0 be 36 62 6d 3f
       -1.1415131 -1.2545393 -0.3143144 0.92727983
000010 61 55 93 be d4 46 4c 3f 6d b2 97 bd 98 1d 86 bf
       -0.28776076 0.79795575 -0.07407079 -1.0477781
000020 9e 90 25 3f 5e 6f 83 3f 1b 6e 1e bf 18 67 54 3f
       0.64673793 1.0268362 -0.6188676 0.8296981
000030 80 3f a1 be 9c ab 1f 3f ad 0d e6 3d fa 39 8e 3f
       -0.3149376 0.6237123 0.11233077 1.1111443
000040 8f 3b 87 3e 83 23 86 be bd 93 ee 3e 8a 21 d4 3e
       0.26412627 -0.26198968 0.4659709 0.41431838
000050 34 38 39 3f b6 c7 6d 3e 22 64 3a 3f df 56 3e be
       0.72351384 0.23220715 0.7280904 -0.18587826
000060 c7 42 5b 3f 1f 72 3e 3f 01 4c 66 be 80 95 ba bf
       0.8564877 0.74392885 -0.2248993 -1.4576874
000070 1f 4c c6 bf f6 5a 5d bf 72 5c c7 3e 5d f1 42 be
       -1.549198 -0.8646692 0.38937718 -0.19037385
000080 e7 4c 0d 3f 5a 57 16 bf f4 18 9c bf 94 77 5d 3f
       0.5519547 -0.5872704 -1.2195115 0.86510587
000090 da 4e 43 3f 8b 7f 5b 3f a0 e4 23 3f 7a c5 0b be
       0.7629219 0.8574149 0.6402073 -0.1364955
0000a0 6c 7e e3 3e 41 0f 03 3d f6 85 7e 3f c4 bb a8 3e
       0.4443239 0.03199697 0.9942316 0.32955754
0000b0 a6 e3 d1 be
       -0.40993994

net.fc_nn.fc_hidden.1.bias f4 [5]
000000 5c 96 47 3d 32 cf 65 3e cc b2 a6 3d b4 48 8b 3e
       0.04872738 0.2244232 0.081395715 0.27203906
000010 5f 1b 4c 3e
       0.19932316

net.fc_nn.fc_out.weight f4 [1, 5]
000000 8e 2a 84 3f fe cd 3a bf 61 47 76 bf 5d d8 cd 3f
       1.0325487 -0.7297057 -0.96202666 1.6081654
000010 e5 a6 20 bf
       -0.6275466
