Lorenz63Dim/L63E3P2/results/nets/net_mytrainedmodelEnergyScore.pth (torch, 6554 bytes, 11 tensors)

net.gru.weight_ih_l0 f4 [24, 1]
00000000: c5e7 6b3f 4d99 303f 9db6 4abd 79d6 25be
00000010: b094 48be 1a23 babe 3c55 23be 8552 a63e
00000020: 4d80 42bd 362d d8be 22e7 fc3d 66ae 683d
00000030: b5ae f9bd a531 5dbf 2e60 7a3c ac7e b9bd
00000040: 4c2a 843e 5a61 90be 8be0 99be 621a 9dbc
00000050: 3e9c df3e 84de 77be 4483 9bbe 738f 49be
0.9215053 0.6898392 -0.04949056 -0.16195096 -0.1958797 -0.36354905 -0.15950483 0.32484832
-0.04748564 -0.42221993 0.123487726 0.056806944 -0.12191526 -0.86403877 0.01528172 -0.09057364
0.2581352 -0.28199273 -0.30054125 -0.01917762 0.4367389 -0.24205977 -0.30373585 -0.19683628

net.gru.weight_hh_l0 f4 [24, 8]
00000000: d84e 45bf ae0c ff3e 28a7 99be d0dd 313f
00000010: f7e0 973d 9c1e a3be e62f 91be 0c44 773e
00000020: a1d1 2bbf cce0 fabd 5ce8 d03e cccf 70bf
00000030: 81eb 183e 2d5a 38bf fc0e 2b3f d78a c03e
00000040: 0c57 8ebf f049 e5be ab5b 9bbd 827d 533d
00000050: 1b75 6d3e d09d 0840 4245 473e 9c01 1cbe
00000060: d046 32bf 1fb8 e0be 6ec2 863e 91ac 86bf
00000070: 8f88 863f 5d7c 3ebf 9a95 7bbe b67e 33be
00000080: a803 1ebe 3cbe 52bf dfeb ecbd 046b 88be
00000090: e844 0e3e fd8a fb3e e842 4e3e 395c 44bf
000000a0: 9075 7c3e 4467 64bf 2157 87bf ec4a acbf
000000b0: c730 a5bf 19b4 0e40 12e7 be3e 24ac 9abe
000000c0: 07ed 1b40 3eb4 31be e4b3 833f 7c2e 55bf
000000d0: b66b 3140 c8ab 67bd e22a afbf 4f0d a13f
000000e0: 7a89 b6be 8657 4b3e 2485 3bbe 16e7 32bc
000000f0: 2911 8e3e 3b9f 85be 2120 4bbf 85c1 c2bf
00000100: f4a3 de3f af57 d03e 19d3 b2bf fdb2 9c3f
00000110: e561 01c0 7600 f3bd 8778 31bf 0893 37be
00000120: 9065 3ebe 7796 d0be ccaa 993f ca90 5ebf
00000130: 0150 11c0 0e64 ed3f 51e3 7abf 518d 4bbf
00000140: 8d22 7abf 8af7 c2be a38e 903e 57e1 87be
00000150: a143 ff3f 47e4 2440 803e 123f 27f5 5f3f
00000160: f8db 0abf 40d7 22bf 0cb5 953d b0f0 153f
00000170: 065e d7be 8cd9 613e 033a 383f 2594 0abf
00000180: 4718 94be 58df 893e 91b6 f03e 9e2d a63e
00000190: 0f17 45be 5d04 68be a5d6 9e3e 7d3a 323f
000001a0: f8e2 cabf 7ddf b8bf 5874 11bf e48e b7bc
000001b0: 68fd 9b3e bcb7 ba3f ed73 37bf 5f6b 633f
000001c0: 7b96 bc3e 30dc 6cbe 85b0 1cbf 7762 b33d
000001d0: 29ce 653f 43e7 a73e 85ab c73e 756d 173e
000001e0: 9276 5cbf 2ad2 3e3f 5073 edbe 4894 063f
000001f0: 7b31 1dbe f766 54bf 4cd5 b9be 752c 4abf
00000200: 3626 2a3f 1e9d 8e3d fe72 ddbe 0800 6c3e
00000210: f4a8 89bf 16ed 123d e374 1dbd a170 04bf
00000220: b28d cf3b 5667 c6be eb7c d43c a187 c43f
00000230: 6dbe 7dbd fd66 b53d def7 48be 5d40 bc3e
00000240: 5a22 04bf 19a9 02bf 556f 53be 81fa febe
00000250: 2ecf 023f 19aa d43f b4d3 92bd 4901 4cbf
00000260: 6dd0 a83f 32c0 293f ff94 8abf 3324 1940
00000270: b6a7 78bf 6f4e 023f 2322 e03e c997 b93e
00000280: f929 713f 2dbb 3f3f c62e a13e c5a4 4a3f
00000290: 9080 e3bb fcea 58bf 03ab 1c3e 3447 a13e
000002a0: d303 613f 22d6 be3e e991 92be a745 acbf
000002b0: cb35 8d3f 439d 81be d4e2 023e a15b 9d3e
000002c0: 22e0 af3f 7256 b33e 61e8 4abf 54fc d03e
000002d0: b96f 17bf efb0 4abf 861f 1dbe 4d6f 3dbf
000002e0: 11bb e63f 8c28 8d3f 9814 5dbe 2bf2 3f3f
000002f0: b260 f13e bcbe 573d 9e66 553e c87f 643f
-0.7707343 0.4981436 -0.30010343 0.69479084 0.074159555 -0.3185929 -0.28356856 0.24147052
-0.67116743 -0.12249908 0.40802276 -0.9406707 0.14933588 -0.720126 0.6681974 0.37605926
-1.1120315 -0.44782972 -0.07585844 0.051633365 0.23189203 2.134632 0.19460014 -0.15234989
-0.696393 -0.43890473 0.26320213 -1.0521413 1.0510424 -0.74408513 -0.24568787 -0.17528805
-0.15431082 -0.82321525 -0.11568426 -0.26644146 0.13893473 0.49129477 0.2014271 -0.7670322
0.24654222 -0.8922007 -1.0573465 -1.3460364 -1.2905511 2.2297423 0.37285668 -0.30209458
2.436342 -0.17353913 1.0289273 -0.83274055 2.7721992 -0.056560308 -1.3684962 1.2582186
-0.3565176 0.19857606 -0.18312508 -0.010919353 0.27747467 -0.26098046 -0.793459 -1.5215307
1.7393785 0.40691897 -1.3970672 1.2242123 -2.0216 -0.11865322 -0.69324535 -0.17927182
-0.1859343 -0.40739796 1.2005248 -0.8693968 -2.270508 1.8546159 -0.9800311 -0.79512507
-0.9770897 -0.38079482 0.28233823 -0.26539108 1.9942514 2.576433 0.5712662 0.8748345
-0.54241896 -0.63609695 0.073099226 0.58570385 -0.42063922 0.22055644 0.7196352 -0.541323
-0.28924772 0.2692821 0.47014287 0.32456678 -0.19247077 -0.22657914 0.31023136 0.69620496
-1.5850515 -1.4443203 -0.5681815 -0.022407003 0.3046677 1.4587321 -0.71661264 0.8883571
0.36833557 -0.2313087 -0.6120685 0.08759015 0.897677 0.32793626 0.38998047 0.14787848
-0.86118424 0.74539435 -0.4637704 0.5257001 -0.15350907 -0.8296961 -0.36295545 -0.78974086
0.66464555 0.069635615 -0.43251795 0.23046887 -1.0754685 0.035870634 -0.03844155 -0.5173436
0.00633403 -0.38750714 0.025938472 1.5353891 -0.061949182 0.08857534 -0.19625804 0.36767855
-0.51614916 -0.5103927 -0.20647939 -0.49800494 0.5109738 1.661441 -0.071692854 -0.7968946
1.3188607 0.6630889 -1.082672 2.3928344 -0.97130907 0.5090093 0.43776044 0.36248615
0.9420467 0.7489498 0.31480998 0.7915767 -0.006942816 -0.8473356 0.15299611 0.31499636
0.8789646 0.37272745 -0.28626946 -1.3458756 1.1032041 -0.25315294 0.1278184 0.3073397
1.3740275 0.3502689 -0.7926083 0.4081751 -0.5915485 -0.7917623 -0.15344056 -0.73997957
1.8025838 1.1027999 -0.21589887 0.74978894 0.47144085 0.052672133 0.20839927 0.8925748

net.gru.bias_ih_l0 f4 [24]
00000000: bd29 eebe e146 4cbe 120b 923e 6b64 5b3f
00000010: 1702 903e c171 3abe 79f2 653f 16af e03e
00000020: abd1 45bf 3f29 963e e8d4 aa3e 663c 513f
00000030: fc30 e53d 2739 8cbe 65ec d53d 3db6 84be
00000040: f1c0 85b9 a53a 793f 005e 6f3f ee13 70be
00000050: dbdb 56be c6e6 993f 901a 2ebf cb0a 1dbf
-0.4651622 -0.19948913 0.2852407 0.857001 0.28126594 -0.18207456 0.8982311 0.4388358
-0.7727305 0.29328343 0.3336556 0.81732786 0.11190984 -0.27387354 0.10445479 -0.25920287
-0.0002551149 0.9735511 0.9350281 -0.23445103 -0.20982306 1.2023551 -0.6800928 -0.61344594

net.gru.bias_hh_l0 f4 [24]
00000000: 9b65 0fbf 8212 ae3d 6cf7 4d3f e30c 893f
00000010: 2682 403e 86df 06be 38e7 163f 1134 5e3e
00000020: e686 7fbf d391 703d 2612 aebe 5675 b33e
00000030: 31a2 33be e03c 20bf e174 18be 512b 40bf
00000040: 2c86 b3bd 6ec8 293f ca13 9f3f 3998 fe3d
00000050: 312b 33bf 4a9a 203f 3e14 39bf 49f3 8cbf
-0.5601441 0.08499624 0.8045566 1.0707058 0.18799648 -0.13171205 0.5894656 0.2169955
-0.99815214 0.05873282 -0.3399822 0.35050458 -0.1754234 -0.6259289 -0.14888336 -0.75066096
-0.08765826 0.66321456 1.2427914 0.12431378 -0.6998778 0.62735426 -0.7229651 -1.1011745

net.fc_nn.fc_in.weight f4 [13, 9]
00000000: 4d23 6ebf 9a48 4dbe 3370 193f 2780 47be
00000010: 222f d03e dabc 8cbe 0b5e c0be d123 473e
00000020: 7aaa 72bd 2c99 8dbf 64ad a5bd b51c 803e
00000030: 682d 98bd b38d 0d3f 2dee 1c3f cf7a efbe
00000040: e20d 90be 20a3 a3bc 56c6 923f be7e 14bf
00000050: 1a28 2c3e 4452 1abf e159 c8be f9ba 1f3f
00000060: 5b06 40be 86d9 33bf 3c65 3e3e 8bc3 73bf
00000070: 4c87 60bd 2bff 7c3e f895 73be 127c d43e
00000080: ba20 b23c 8e34 fbbe 3726 503e 6e83 91bd
00000090: ad06 febe 104d 32be 1b4c 99be 6713 1f3f
000000a0: ac78 90bf 72a6 693e 5e5e 9e3f e89f bcbe
000000b0: 8a6e 29c0 a9c2 8b3f 59f5 d9be 02d8 903e
000000c0: ef78 06bf f29c 84be 965f 263f cca9 9e3e
000000d0: 228b 12bf 3776 aabd 496b 75bf 4641 b2bd
000000e0: 6077 b4bd 97da 8fbe ea3c 153f 2811 0bbd
000000f0: a0ca 513e e9a1 0d3f 3eac 8b40 3c50 71be
00000100: 9104 11be c012 c63e b38e d2be 4b8e d03e
00000110: 9efd 87bc 3883 83bf 075c 07bf 8eb0 8cbe
00000120: b4ac f0bd a78d b7be 1f7c c73e 2f84 07bf
00000130: 4e04 4b3e 10e8 83be 0092 05bf 6d44 e8be
00000140: 1f0d 43be b727 3f3f 1d53 ebbd 56a6 0e3f
00000150: 0aa9 fcbe 8463 78be 5f55 b23e 11ad 54be
00000160: 8832 0dbe 22eb d13e 3b01 9ebf 3638 bf3d
00000170: d269 8d3a caa5 4f3c 6e00 183f 5c6c 86be
00000180: a7d9 35bf 894e 0f3e 76cb b43e a667 433e
00000190: ac4e ae3e 2c99 d83e d994 493d a237 e43e
000001a0: d948 78be d48f 26bf c241 50bf cfb2 bb3e
000001b0: bcaa 32be a4b2 983d d418 b83c cbe2 c13e
000001c0: cbc7 593f f699 203e 3a4f c33e 18cf 9b3f
000001d0: 26db 02c0
-0.93022615 -0.20047227 0.5993683 -0.1948248 0.4066096 -0.27487832 -0.3757175 0.19447257
-0.05924461 -1.1062369 -0.08089712 0.25021902 -0.074305356 0.5529434 0.6130093 -0.46773383
-0.28135592 -0.019975245 1.1466777 -0.58005893 0.16812173 -0.6028178 -0.39131072 0.6239467
-0.18752424 -0.7025379 0.18593305 -0.9522025 -0.05481653 0.24706714 -0.23787677 0.41500908
0.02174412 -0.49063534 0.20327078 -0.07105146 -0.49614468 -0.1741221 -0.29940876 0.6213898
-1.1286826 0.228174 1.2372549 -0.3684075 -2.6473718 1.091878 -0.42569998 0.282898
-0.5252828 -0.2590099 0.649896 0.3098892 -0.5724355 -0.08323329 -0.9586683 -0.08703856
-0.088118315 -0.28096458 0.5829607 -0.03395191 0.20487452 0.5532518 4.3647757 -0.23565763
-0.14161898 0.3868618 -0.41124496 0.4073356 -0.016600426 -1.027442 -0.528748 -0.2747845
-0.117516905 -0.3585026 0.38961884 -0.5293607 0.19825861 -0.25762987 -0.52175903 -0.45364705
-0.19047974 0.74669975 -0.11490462 0.5572256 -0.49347717 -0.24256712 0.34830758 -0.20769145
-0.13788807 0.40999705 -1.2344126 0.09336893 0.0010788983 0.012673805 0.59375656 -0.26254547
-0.71035236 0.13994803 0.35311478 0.19082507 0.34044397 0.4230436 0.049214218 0.44573694
-0.24246539 -0.65063214 -0.8135034 0.36659858 -0.17447942 0.07455948 0.022472776 0.37868342
0.85070485 0.15683731 0.38146383 1.2172575 -2.0446258

net.fc_nn.fc_in.bias f4 [13]
00000000: 0bb5 763e 9c03 373e f0a2 e33e 0594 9a3e
00000010: 73da 1dbf ae77 f23e 856a af3e d7a0 723e
00000020: 7c15 d33d 2f38 dc3d fcd7 db3e 543f 163f
00000030: 4657 fe3c
0.240925 0.1787247 0.4446025 0.30191055 -0.6166145 0.47356933 0.34260955 0.23694168
0.10306832 0.10752904 0.4293822 0.5869038 0.031047475

net.fc_nn.fc_hidden.0.weight f4 [9, 13]
00000000: 1c91 44bf edb1 75bf dee0 083f be92 26bf
00000010: 8efd 55bf b508 c13e e7de d23f 874c 113e
00000020: 871c 61be d8cc 063f 7cce 85bf 2bf7 b83e
00000030: 1394 99bf 3eb6 0abf 47bd 4abf 2ef8 153f
00000040: 8117 11bf 61aa a53f cfe9 2c3f 764e 3a3f
00000050: d916 8ebe b1df f63c 3128 983e 8dd6 20bf
00000060: c418 e03c 8ad0 a5bf 635a 1dbf 100e f7be
00000070: e8bd c23e 9379 61bd 62f5 5d3f 1a7e 273f
00000080: 4745 833f ebac 2ebe 1892 283d e9a4 e63e
00000090: e1a4 0ebf a855 893d d9b9 d9bf ba46 42bf
000000a0: 0b7f 5fbf b8ac b73e 4180 c0be ec88 82bf
000000b0: 92b2 173f a866 bb3f a186 733e b9fd a5be
000000c0: b402 903d e5d4 3fbf ba62 8f3e fa34 88bf
000000d0: 494c 0abd 28d5 113d cd3f 463f 066a 4ebe
000000e0: 9ed3 b2bf 4982 023f 7db9 d2bf 4743 2c3f
000000f0: 38ac 153f 7e9b c53e 615d e0bb 96f8 b23e
00000100: 4083 b7bf 4ca7 023f 129d 4a3d dc44 fa3e
00000110: bd7c 9f3d c081 08c0 c32c 833e ae07 cfbe
00000120: 1cf0 f63e 8c36 283f 92c2 b83c c8d7 0d3f
00000130: ce4f 4c3f 5acd 1cc0 ad49 113f 4951 c53e
00000140: 45a5 17bc 0af9 f83e 282b ebbf dc8a cebe
00000150: 86f3 ecbf 74c0 2a3f 9dd1 ba3e 7dde 9bbe
00000160: ed13 5a3f 03a6 203f 35b5 f83f af41 3ebe
00000170: 5737 83be dfc6 0c3f 17a1 98bd ca1b 5abf
00000180: 9b4a 3a3f 1d64 003e ee9a fa3e 7c06 593f
00000190: 2bde 423e a2f6 3dbf 33d9 063f ff2a 5dbf
000001a0: 2d21 b23e 10bb 413f 27e0 24bd 0526 a43c
000001b0: bf05 a7bf 0d06 003d d1ed 80c0 21fe ac3e
000001c0: 3ab2 db3e 3fba 1f3e e0c7 903e 11e6 943e
000001d0: 27f2 0340
-0.7678392 -0.9597462 0.5346812 -0.6506766 -0.8359002 0.37701955 1.6474274 0.14189349
-0.21983539 0.52656317 -1.0453639 0.36126074 -1.1998314 -0.5418433 -0.79195064 0.5858182
-0.5667649 1.294262 0.67544264 0.7277597 -0.27751806 0.030135961 0.29718164 -0.6282738
0.02735556 -1.2954266 -0.61466044 -0.48252916 0.38035512 -0.055047583 0.8670255 0.6542679
1.0255517 -0.1705815 0.04115495 0.4504769 -0.55720335 0.06705791 -1.7009841 -0.7588917
-0.8730323 0.3587396 -0.3759785 -1.0198035 0.5925685 1.4640703 0.23781826 -0.32420138
0.070317656 -0.74934226 0.2800501 -1.0641167 -0.033764157 0.035603672 0.774411 -0.20157632
-1.397083 0.5098005 -1.6462857 0.6729016 0.5846591 0.38595194 -0.006847069 0.3495528
-1.4336929 0.51036525 0.0494662 0.4888066 0.07787464 -2.1329193 0.25620088 -0.40435547
0.48230064 0.6570823 0.022553716 0.5540738 0.7980927 -2.4500337 0.56753045 0.38538578
-0.009255712 0.48627502 -1.8372545 -0.40340316 -1.8511817 0.6669991 0.36488047 -0.30443183
0.85186654 0.62753314 1.94303 -0.18579744 -0.25628158 0.54990953 -0.074526004 -0.8519865
0.7277009 0.1253819 0.48946327 0.8477552 0.19030063 -0.74204457 0.5267517 -0.8639373
0.34790936 0.7567606 -0.04025283 0.02003766 -1.3048629 0.03125577 -4.0290303 0.33787635
0.42909414 0.15598391 0.28277493 0.29081777 2.0616548

net.fc_nn.fc_hidden.0.bias f4 [9]
00000000: 94d3 a03e 58a2 e73e ecb6 b93c d70b a63e
00000010: 15d6 da3e 6ba1 fe3e d258 513e 77cb 5b3e
00000020: 605e a03d
0.3141142 0.45241046 0.022670232 0.32430908 0.42741457 0.49732527 0.20444039 0.21464334
0.078305006

net.fc_nn.fc_hidden.1.weight f4 [5, 9]
00000000: f13b 35bf 7d4c d4bd 5415 e8bd d50c cdbe
00000010: 0aaa 9f3e 930d ba3e e6ba d23e 4eee 1e3f
00000020: 9fc5 4d3f 61f0 613f b0cf 6f3f 7406 303f
00000030: 7a4a 473f acbf ed3d e621 813d 2c36 3dbf
00000040: 69a9 3f3f 37b1 2abf 80f8 a93e 242c 463f
00000050: 552a d93e 5d79 8b3e 8abd 563e f2b1 653e
00000060: 7d7f 36bf fda2 3f3f cf06 7cbf 18b9 653f
00000070: 5e73 5d3e b898 3d3f 5228 403f 0f24 9b3d
00000080: e31a 80bd 562c 8bbe dfe1 a83e c4bc 98be
00000090: e8d3 3ebf fa41 53bf 936e 48bf 7ec7 23be
000000a0: 0acf 483f 5521 423f 3c21 263f f0d0 d03e
000000b0: 2edc 6c3e
-0.7079459 -0.103661515 -0.11332193 -0.40048853 0.31184417 0.3633848 0.41158217 0.62082374
0.8037967 0.88257414 0.9367628 0.68759847 0.7784802 0.11608824 0.06305294 -0.73910785
0.74867874 -0.6667666 0.33197403 0.77411103 0.4241511 0.2724103 0.20970741 0.22431162
-0.7128828 0.74858075 -0.9844789 0.89735556 0.2162604 0.74061155 0.75061524 0.07575237
-0.06255128 -0.27182263 0.32984826 -0.29831517 -0.74542093 -0.8252255 -0.7829372 -0.15994069
0.78440917 0.7583211 0.6489446 0.40784407 0.23130867

net.fc_nn.fc_hidden.1.bias f4 [5]
00000000: fad6 ba3f 7cf8 47be fb8f f2bd 0fd0 d93d
00000010: b5fe 473f
1.4596856 -0.19528383 -0.11843868 0.10635387 0.7812303

net.fc_nn.fc_out.weight f4 [1, 5]
00000000: 2a99 3fbf ee1c 593f 4173 4a3f 810f 613f
00000010: 842b 55bf
-0.74843085 0.8480977 0.79082114 0.8791428 -0.83269525
