Lorenz96Dim/L96E3P20/results/nets/net_mytrainedmodelSignatureKernel.pth (torch, 45902 bytes, 12 tensors)

net.gru.weight_ih_l0 f4 [96, 8]
-0.002599143 0.0118655795 -0.055386614 0.22409901 0.22573155 0.015747048 0.033796184 0.018767709
-0.037923817 -0.087465644 -0.12529002 -0.15767695 -0.27858862 -0.1415838 0.003214058 -0.044513877
0.0031907056 -0.13342287 -0.018552825 0.11822556 -0.072891735 -0.08663962 0.2031712 0.24358149
-0.2724376 -0.2919782 -0.16983333 -0.26198888 -0.17749189 -0.21137786 -0.1783422 -0.11688014
0.082995035 -0.12703156 0.14558746 0.26292798 -0.01670647 0.087886475 0.19110923 0.1836576
0.2278612 0.108520724 0.28838232 0.08333514 -0.08206038 0.1361432 -0.061956868 0.24203481
-0.09153311 -0.00023193039 0.08931771 -0.1296624 0.017620558 0.10663816 -0.055382404 -0.0060308026
0.0921945 0.008945036 0.05917966 0.032493427 -0.1885213 -0.14536963 -0.04858431 -0.0680862
0.17046952 0.21353765 -0.12574995 -0.15223117 -0.0011530456 -0.05010944 0.024885269 -0.09906686
-0.0028399841 -0.46111184 -0.3076568 0.07148577 -0.017943688 -0.056144368 -0.1515964 -0.121936485
-0.10184167 -0.22984168 0.0028892297 -0.091728926 -0.08313034 -0.17679957 0.046157375 -0.16415963
-0.0018000496 -0.047812987 0.03732035 -0.051001772 -0.008107575 -0.16087337 0.08178821 -0.19688472
-0.01189644 -0.1995749 -0.031762403 0.0551293 0.040299963 0.08471676 -0.058453817 -0.056376226
0.1974526 0.31059533 -0.14580444 0.12299764 0.009977796 0.052879017 -0.028693298 -0.12884487
-0.06776499 0.2748446 0.07167142 0.040664922 -0.07052228 0.2053457 0.18654022 0.1564725
0.09077984 0.15435943 0.013995911 -0.061109472 -0.03544374 -0.097635575 -0.035369866 0.05655436
0.04724366 0.06620191 -0.018812602 0.26119524 0.12699069 0.018860808 0.20817468 0.13229091
0.0031660006 0.025747618 0.21294013 0.2841173 0.0050051142 0.039031822 0.08600051 0.059077613
-0.10823381 0.03660995 -0.021101099 -0.11793319 -0.0023039775 0.16760537 -0.11550216 0.15924041
-0.06978739 -0.17924806 0.15304746 0.14585106 0.07690153 -0.01727006 0.0023403463 -0.11380551
0.09814733 0.1907866 -0.037412144 -0.054208457 -0.0066694054 0.10043954 -0.2837796 0.060079124
0.00690231 0.14572498 0.18835847 0.23556708 0.08731355 -0.049977943 -0.08130272 0.23779401
0.2288837 0.36927572 0.23166691 0.18008837 0.12174659 0.0644903 0.21340004 0.379299
0.24992175 0.32874036 0.27105495 0.063683234 0.03129301 0.09516993 0.11141836 0.065241486
-0.1225416 -0.14048482 -0.09581091 -0.09090692 0.2862251 0.10647079 0.0047471393 -0.14064331
0.011881338 -0.035952486 -0.01482361 -0.09883485 0.13780375 -0.11561765 -0.16786745 0.14766312
0.20368645 0.079859555 0.063279696 0.25589666 0.26799268 0.32738638 0.2320774 0.11525999
0.1173591 -0.11358334 -0.09147636 0.025063502 -0.1131273 -0.09432672 -0.04836378 0.06106682
0.16061836 -0.14394058 0.15742925 0.09669297 0.28132886 0.14106955 -0.073450916 -0.1295252
-0.0727473 -0.056681637 -0.09862076 0.031677205 0.1428812 -0.087703384 0.22301438 -0.063068636
0.1815547 0.103238896 -0.06218541 0.090616584 0.20368698 0.15555707 0.012566278 0.019534443
-0.17178531 -0.15864487 -0.20210578 -0.03670721 -0.15557268 -0.16968574 -0.17425115 -0.17802659
00000000: 6256 2abb d967 423c 13dd 62bd 367a 653e
00000010: 2c26 673e f4ff 803c de6d 0a3d bdbe 993c
00000020: 0156 1bbd 3021 b3bd 074c 00be 1176 21be
00000030: 2ba3 8ebe 58fb 10be f2a2 523b 2f54 36bd
00000040: 281b 513b 01a0 08be 18fc 97bc 3e20 f23d
00000050: 4348 95bd 1d70 b1bd 1c0c 503e 6d6d 793e
00000060: f17c 8bbe 2b7e 95be cae8 2dbe 6823 86be
00000070: 6fc0 35be 7073 58be 569f 36be db5e efbd
00000080: 4df9 a93d 9014 02be e114 153e 7f9e 863e
00000090: 02dc 88bc d3fd b33d 23b2 433e bd10 3c3e
000000a0: 7254 693e 1d40 de3d d9a6 933e 9dab aa3d
000000b0: 460f a8bd 1f69 0b3e 7cc6 7dbd f9d7 773e
000000c0: b675 bbbd 5732 73b9 34ec b63d 38c6 04be
000000d0: fd58 903c 1c65 da3d a9d8 62bd 0a9e c5bb
000000e0: 78d0 bc3d 338e 123c 5f66 723d d417 053d
000000f0: ba0b 41be c7db 14be 5700 47bd c770 8bbd
00000100: 908f 2e3e 9da9 5a3e 98c4 00be 7de2 1bbe
00000110: ca21 97ba 8e3f 4dbd 31dc cb3c 91e3 cabd
00000120: 071f 3abb da16 ecbe 3185 9dbe 2267 923d
00000130: a4fe 92bc a3f7 65bd 163c 1bbe d6b9 f9bd
00000140: 5e92 d0bd 9e5b 6bbe 3b59 3d3b 60dc bbbd
00000150: 3d40 aabd f20a 35be 840f 3d3d 7619 28be
00000160: a4ef ebba 8dd7 43bd 39dd 183d 3ce7 50bd
00000170: a2d5 04bc fdbb 24be 9480 a73d 269c 49be
00000180: 49e9 42bc 5d5d 4cbe 4b19 02bd 43cf 613d
00000190: 9311 253d fb7f ad3d 456d 6fbd c2ea 66bd
000001a0: 0431 4a3e 5a06 9f3e c24d 15be 30e6 fb3d
000001b0: e979 233c ab97 583d 350e ebbc e9ef 03be
000001c0: 5fc8 8abd 6eb8 8c3e 77c8 923d 4390 263d
000001d0: fc6d 90bd 2546 523e 6604 3f3e 543a 203e
000001e0: c8ea b93d 6610 1e3e 1b4f 653c ed4d 7abd
000001f0: 752d 11bd 29f5 c7bd fedf 10bd 8ba5 673d
00000200: 9182 413d de94 873d e31c 9abc 62bb 853e
00000210: d909 023e fb81 9a3c be2b 553e 4577 073e
00000220: ad7c 4f3b abec d23c fa0c 5a3e d377 913e
00000230: f101 a43b d5df 1f3d 0921 b03d 5efb 713d
00000240: b0a9 ddbd 51f4 153d 36dc acbc f586 f1bd
00000250: 54fe 16bb bea0 2b3e 658c ecbd eb0f 233e
00000260: b1ec 8ebd ce8c 37be 79b8 1c3e fb59 153e
00000270: 8d7e 9d3d f179 8dbc 7f60 193b dd12 e9bd
00000280: 7801 c93d 905d 433e 7a3d 19bd b009 5ebd
00000290: 078b dabb 3fb3 cd3d 8f4b 91be 8715 763d
000002a0: c62c e23b ee38 153e 0be1 403e 7f38 713e
000002b0: 72d1 b23d acb5 4cbd 0a82 a6bd 4680 733e
000002c0: 7d60 6a3e b511 bd3e 173a 6d3e 1669 383e
000002d0: 4756 f93d 7e13 843d 8a85 5a3e 7b33 c23e
000002e0: 7deb 7f3e a850 a83e b7c7 8a3e 5b6c 823d
000002f0: 192d 003d 74e8 c23d 4f2f e43d 549d 853d
00000300: 17f7 fabd 41db 0fbe 8338 c4bd 682d babd
00000310: 198c 923e 5c0d da3d e48d 9b3b cd04 10be
00000320: f2a9 423c ea42 13bd bade 72bc ed69 cabd
00000330: 6d1c 0d3e f2c8 ecbd 72e5 2bbe 0035 173e
00000340: 2e93 503e 688d a33d c998 813d e304 833e
00000350: 5636 893e 309f a73e b3a5 6d3e 6e0d ec3d
00000360: f859 f03d 629e e8bd f557 bbbd f951 cd3c
00000370: 49af e7bd 5e2e c1bd 1919 46bd 3421 7a3d
00000380: 2479 243e 2965 13be 2235 213e f706 c63d
00000390: 560a 903e 8974 103e 6f6d 96bd 41a2 04be
000003a0: 89fc 94bd 012b 68bd aef9 c9bd f5bf 013d
000003b0: 734f 123e d59d b3bd e25d 643e 212a 81bd
000003c0: 7ae9 393e ea6e d33d 21b6 7ebd 3095 b93d
000003d0: 5293 503e 5a4a 1f3e cae2 4d3c b206 a03c
000003e0: 7de8 2fbe cd73 22be d1f4 4ebe 4d5a 16bd
000003f0: 724e 1fbe 19c2 2dbe e56e 32be 9a4c 36be

net.gru.weight_hh_l0 f4 [96, 32]
0.16595826 -0.004860245 0.1715779 0.1194658 0.3218568 -0.31926358 -0.031304333 0.36504927
0.10775451 0.09020671 -0.17643732 0.17063566 0.025789723 0.05094686 0.005043062 -0.07281596
-0.19545873 -0.15055926 -0.33790034 -0.023198701 0.13373646 0.18348879 -0.0041711233 -0.039554738
0.23492993 0.10118956 -0.08048332 -0.21457028 0.27947304 -0.3010735 -0.013958881 0.16678187
0.07804698 0.103866294 -0.10414064 -0.28359064 -0.15693094 -0.08278348 0.07107465 -0.21104197
-0.27890405 -0.08917 -0.0022155105 -0.14631772 -0.24787584 -0.0050524673 -0.039543476 -0.0920472
0.4253456 0.28794727 -0.07449782 0.026989602 -0.2880211 -0.14039601 -0.32720777 0.09954408
0.0049428884 -0.009527982 0.044338137 0.11977342 -0.23582256 0.39311263 0.09094019 -0.21780412
0.08052086 0.28041145 0.18800057 0.24659057 0.1003584 0.0461827 0.1627742 -0.01770237
0.1308515 -0.07134362 -0.10003166 0.28513673 -0.14503211 0.16912018 0.30578578 -0.02516791
-0.15949352 -0.18469863 -0.21195455 -0.020436853 0.12151451 -0.07819553 0.069680445 -0.2699842
0.20156296 0.14260074 -0.16194107 -0.04822144 0.06853461 -0.033869617 0.1832211 0.14841314
-0.10511323 0.013805908 -0.060015548 0.15473053 -0.12419365 0.31950408 -0.26324594 0.015876446
-0.30341813 -0.21660393 0.18865313 -0.22705126 0.11052245 -0.1452146 -0.24490987 0.0643395
0.061305355 -0.044376917 -0.10907642 -0.27008486 -0.4546951 -0.0025576001 -0.39422932 -0.08852733
0.12794223 0.15252094 -0.008767549 -0.32791042 -0.22117355 0.15284315 -0.052804895 0.03375195
0.19455592 -0.00070394477 0.039852224 0.26844737 0.17000346 -0.05647028 0.0040625827 0.04846235
0.09203776 0.042255044 -0.0683235 0.23210147 0.0030571935 0.15083593 0.09424606 -0.09770461
-0.15296693 -0.015686344 0.13806145 0.055225987 -0.09613459 -0.048578322 0.18516448 0.029299192
0.10108908 -0.13434894 0.05636697 0.09565877 0.09796446 -0.17043366 0.15341887 0.037086394
0.103296526 0.11736159 -0.22316344 0.091008276 0.12525254 -0.0980154 0.09287656 -0.30785632
-0.060798865 0.089579634 0.025967956 0.23323849 -0.07149602 0.19357926 0.3768891 -0.14374566
0.20533878 -0.03508858 0.34779254 0.37227264 0.021854276 0.37786198 -0.06455602 0.2088073
-0.02235296 0.17633241 -0.07540912 0.38811883 -0.2548982 -0.07639062 0.19343506 0.35652435
0.024238743 0.18786192 -0.06849596 0.18746054 0.0283551 -0.2003528 0.17202567 -0.2834561
-0.011853108 0.42409074 -0.122767255 0.43651384 0.08488472 0.41918126 0.25182736 -0.13198908
0.07252937 -0.2855093 0.28490457 0.25527728 0.1195059 0.1711897 -0.00829195 0.22098845
-0.0437826 0.09657752 -0.40740716 -0.050609462 0.14973292 0.1634737 0.342095 0.20476806
0.17863646 0.30102777 -0.11056384 0.15015401 0.20593798 -0.2235297 0.2041589 -0.15390716
0.11110933 0.09173572 -0.123476624 0.382541 -0.25263137 0.3617158 0.09429123 -0.32272276
0.3335616 -0.1401787 0.10243907 0.015757293 0.15064663 0.35850167 0.019333255 0.011245457
-0.13335964 0.056945294 -0.2454873 0.1467607 0.11049177 0.101974666 0.16359216 0.31491166
00000000: f6f0 293e b142 9fbb 1eb2 2f3e 7caa f43d
00000010: 6aca a43e 8476 a3be f938 00bd bde7 ba3e
00000020: 66ae dc3d 4cbe b83d fcab 34be 1dbb 2e3e
00000030: f844 d33c a8ad 503d 4540 a53b 8920 95bd
00000040: 5526 48be 352c 1abe 4601 adbe 340b bebc
00000050: 36f2 083e 7ce4 3b3e ebad 88bb 2604 22bd
00000060: 7991 703e 793c cf3d 70d4 a4bd 50b8 5bbe
00000070: 1717 8f3e 4e26 9abe cab3 64bc dec8 2a3e
00000080: 18d7 9f3d dab7 d43d b047 d5bd cb32 91be
00000090: 81b2 20be 638a a9bd 968f 913d 631b 58be
000000a0: 83cc 8ebe c39e b6bd 1932 11bb 50d4 15be
000000b0: 2ad3 7dbe 2b8f a5bb 57f8 21bd 3e83 bcbd
000000c0: e6c6 d93e d36d 933e 5092 98bd 4c19 dd3c
000000d0: 8077 93be f9c3 0fbe c787 a7be c4dd cb3d
000000e0: f4f7 a13b 411b 1cbc e89b 353d c44b f53d
000000f0: 787b 71be 0f46 c93e da3e ba3d 0b08 5fbe
00000100: 1fe8 a43d 1792 8f3e 3983 403e 3d82 7c3e
00000110: b488 cd3d 122a 3d3d 48ae 263e 9004 91bc
00000120: f0fd 053e 9b1c 92bd 66dd ccbd 71fd 913e
00000130: 4c83 14be d72d 2d3e f48f 9c3e ef2c cebc
00000140: 4552 23be a321 3dbe 9d0a 59be 306b a7bc
00000150: 99dc f83d fa24 a0bd 9fb4 8e3d 5e3b 8abe
00000160: 8566 4e3e ee05 123e e1d3 25be d883 45bd
00000170: e05b 8c3d deba 0abd 509e 3b3e 9df9 173e
00000180: 9b45 d7bd 2d32 623c ddd2 75bd ae71 1e3e
00000190: 3e59 febd 0a96 a33e 2cc8 86be 520f 823c
000001a0: 9f59 9bbe 6ccd 5dbe 492e 413e 2080 68be
000001b0: 9859 e23d 23b3 14be a7c9 7abe 6ec4 833d
000001c0: 531b 7b3d 92c4 35bd 7563 dfbd 9048 8abe
000001d0: cccd e8be 699d 27bb 6dd8 c9be d14d b5bd
000001e0: 4a03 033e 732e 1c3e c4a5 0fbc e0e3 a7be
000001f0: 527b 62be ea82 1c3e f249 58bd 7c3f 0a3d
00000200: ab39 473e ef88 38ba 163c 233d ef71 893e
00000210: 6315 2e3e 614d 67bd 6a1f 853b 7580 463d
00000220: 4b7e bc3d a013 2d3d 31ed 8bbd 02ac 6d3e
00000230: 325b 483b bc74 1a3e 1404 c13d 5b19 c8bd
00000240: 5da3 1cbe a680 80bc fb5f 0d3e a534 623d
00000250: 36e2 c4bd 10fa 46bd c29b 3d3e dc04 f03c
00000260: cb07 cf3d c592 09be 0de1 663d bfe8 c33d
00000270: 97a1 c83d 2986 2ebe d619 1d3e e7e7 173d
00000280: 218d d33d 465b f03d f584 64be 8c62 ba3d
00000290: 3442 003e 4cbc c8bd 1136 be3d 589f 9dbe
000002a0: 3b08 79bd 8775 b73d c0ba d43c 12d6 6e3e
000002b0: 816c 92bd a439 463e 9cf7 c03e 1032 13be
000002c0: 5444 523e 0bb9 0fbd dd11 b23e 859a be3e
000002d0: bd07 b33c 2077 c13e f235 84bd 95d1 553e
000002e0: 8e1d b7bc 7c90 343e 1970 9abd 83b7 c63e
000002f0: 0482 82be af72 9cbd d713 463e 5c8a b63e
00000300: 5490 c63c e05e 403e 9c47 8cbd a8f5 3f3e
00000310: f448 e83c 4929 4dbe 7f27 303e 2821 91be
00000320: 8a33 42bc 6c22 d93e 666d fbbd be7e df3e
00000330: 0ad8 ad3d ed9e d63e 84ef 803e 2528 07be
00000340: 478a 943d 462e 92be 03df 913e b4b3 823e
00000350: 82bf f43d 5a4c 2f3e f6da 07bc cc4a 623e
00000360: 6255 33bd 6fca c53d ac97 d0be de4b 4fbd
00000370: 9653 193e a665 273e 1327 af3e b8ae 513e
00000380: 7aec 363e 5020 9a3e 4b6f e2bd f9c1 193e
00000390: 68e1 523e f8e4 64be 080f 513e d799 1dbe
000003a0: 4a8d e33d f0df bb3d 50e1 fcbd 6adc c33e
000003b0: e658 81be d032 b93e c31b c13d eb3b a5be
000003c0: 96c8 aa3e 018b 0fbe 93cb d13d 7015 813c
000003d0: 1c43 1a3e 888d b73e c660 9e3c de3e 383c
000003e0: 6e8f 08be 783f 693d 0661 7bbe 7048 163e
000003f0: 8249 e23d 18d8 d03d b484 273e 1a3c a13e

net.gru.bias_ih_l0 f4 [96]
0.1285342 0.064890705 0.27386588 0.033609554 0.02771668 0.29511937 0.39810064 0.07598292
-0.16222003 -0.07558939 -0.0059277005 -0.048625745 0.027502785 0.12750296 0.28968352 0.063157655
-0.122865655 0.033205904 0.2557002 -0.009021576 0.030896027 0.03869819 0.2739157 -0.11179596
-0.008880806 0.09019469 0.26095706 0.031528667 0.2979013 -0.07620133 -0.09128092 -0.15988114
-0.080002606 0.06187896 -0.04146229 -0.10072476 -0.076063044 -0.09424674 -0.0076386235 0.31978863
-0.06979382 -0.16912948 -0.06641373 0.04607981 0.120575204 0.3110059 -0.009125195 0.072963625
0.11377692 -0.21134293 0.08194361 -0.26449525 -0.21340527 -0.37652388 0.1429278 -0.33851442
-0.09663204 -0.09273957 0.061446663 -0.06218681 -0.17556559 0.035305385 -0.06707969 -0.023456588
0.0690362 0.21013597 -0.108826116 0.09172537 0.07724932 -0.11807084 0.3135677 -0.21483922
0.14390127 0.0641649 -0.06816267 0.0944426 -0.04761868 0.097693235 0.15348421 -0.2125455
0.09053674 0.03001207 -0.09691988 0.20836447 0.11338979 0.12646784 -0.13187177 -0.08642063
0.18630552 -0.1754956 -0.1916433 -0.063747026 0.4477981 0.115030326 0.17472924 0.16484274
00000000: 789e 033e 6be5 843d 2638 8c3e 2caa 093d
00000010: 170e e33c e319 973e d9d3 cb3e ef9c 9b3d
00000020: 021d 26be 9cce 9abd 283d c2bb ca2b 47bd
00000030: 854d e13c 2390 023e 6651 943e cd58 813d
00000040: fda0 fbbd ea02 083d 23eb 823e 3bcf 13bc
00000050: aa19 fd3c fe81 1e3d ae3e 8c3e 48f5 e4bd
00000060: cd80 11bc feb7 b83d 2a9c 853e 3424 013d
00000070: 8586 983e 710f 9cbd 7ef1 babd e2b7 23be
00000080: 68d8 a3bd cb74 7d3d 5dd4 29bd c848 cebd
00000090: f1c6 9bbd 6f04 c1bd 6b4d fabb 56bb a33e
000000a0: 10f0 8ebd 4730 2dbe ec03 88bd 2fbe 3c3d
000000b0: 22f0 f63d 2a3c 9f3e d881 15bc f46d 953d
000000c0: e003 e93d 486a 58be 0dd2 a73d ec6b 87be
000000d0: e986 5abe bdc7 c0be aa5b 123e c351 adbe
000000e0: 05e7 c5bd 3eee bdbd 7faf 7b3d 99b7 7ebd
000000f0: 77c7 33be 619c 103d 1461 89bd 0828 c0bc
00000100: da62 8d3d e22d 573e 3ae0 debd 83da bb3d
00000110: e434 9e3d 20cf f1bd f28b a03e d0fe 5bbe
00000120: db5a 133e e368 833d df98 8bbd 1f6b c13d
00000130: ce0b 43bd 6413 c83d f72a 1d3e 87a5 59be
00000140: 546b b93d dfdb f53c ee7d c6bd 7f5d 553e
00000150: e838 e83d c980 013e 6509 07be 4dfd b0bd
00000160: e0c6 3e3e 1eb5 33be 243e 44be cd8d 82bd
00000170: cb45 e53e 0595 eb3d 39ec 323e 89cc 283e

net.gru.bias_hh_l0 f4 [96]
0.08802396 -0.019006368 -0.02477022 -0.21779051 -0.07505974 0.37211293 0.4126516 0.032181088
-0.09831884 -0.23605047 -0.17292042 -0.072237216 0.06531641 0.098096475 0.16204065 0.1622429
-0.14263068 0.20737848 0.2566525 0.07783704 -0.14251107 -0.00758617 0.16870625 0.07116374
-0.10070553 -0.099361815 0.12041168 -0.097965814 0.2094443 -0.14122315 -0.2390997 0.06010443
0.092786536 -0.07680417 -0.101366036 -0.101956986 -0.13046016 0.031008357 -0.16526803 0.17397839
0.08971278 0.017207775 0.08637767 0.011191215 0.05976979 0.2199637 -0.1469414 0.07917631
-0.0066974983 -0.11451095 0.25021878 -0.2536473 -0.16509202 -0.3394379 0.14319961 -0.2936606
0.17544581 0.060157802 0.14546186 0.24112129 0.0028367236 0.0012123878 -0.0542182 -0.16389757
-0.07006213 0.30712923 -0.38735923 0.04097499 -0.15282765 0.06910683 0.23946185 -0.10402593
0.24616617 0.11134399 -0.117038526 0.10816226 0.039777573 0.20897447 0.1654712 -0.25207788
-0.10432497 0.039366685 -0.08860417 -0.0016951968 0.27540827 0.23057733 -0.06850995 0.1309389
0.18626542 -0.07831016 -0.030042667 0.105850846 0.3651731 0.1950478 -0.09069095 0.09345662
00000000: e845 b43d 3eb3 9bbc ebea cabc 7a04 5fbe
00000010: ecb8 99bd 9685 be3e 1247 d33e 51d0 033d
00000020: 635b c9bd 37b7 71be 0d12 31be 1bf1 93bd
00000030: 9cc4 853d cee6 c83d fced 253e 0123 263e
00000040: c70d 12be 065b 543e f567 833e 0769 9f3d
00000050: 6cee 11be 6895 f8bb 55c1 2c3e 4bbe 913d
00000060: b33e cebd 357e cbbd 669a f63d 4da2 c8bd
00000070: 9178 563e cd9c 10be 8dd6 74be 1030 763d
00000080: de06 be3d 814b 9dbd ff98 cfbd d3ce d0bd
00000090: 5997 05be 3d05 fe3c 063c 29be 6427 323e
000000a0: 56bb b73d 52f7 8c3c c7e6 b03d 5c5b 373c
000000b0: 2bd1 743d 2a3e 613e ce77 16be 3027 a23d
000000c0: b076 dbbb b884 eabd ad1c 803e 0fde 81be
000000d0: e20d 29be ceca adbe eba2 123e af5a 96be
000000e0: 11a8 333e 0768 763d f4f3 143e 80e8 763e
000000f0: 53e8 393b fce8 9e3a e713 5ebd c4d4 27be
00000100: bc7c 8fbd 0b40 9d3e f353 c6be 64d5 273d
00000110: da7e 1cbe e287 8d3d 7d35 753e 8c0b d5bd
00000120: fc12 7c3e 5108 e43d e5b1 efbd 2d84 dd3d
00000130: cfed 223d 67fd 553e 4871 293e 5a10 81be
00000140: 54a8 d5bd f63e 213d 1a76 b5bd 5e31 deba
00000150: 5002 8d3e 771c 6c3e f24e 8cbd d914 063e
00000160: 5dbc 3e3e 1461 a0bd 0a1c f6bc 54c8 d83d
00000170: f8f7 ba3e 9cba 473e 2dbc b9bd 2f66 bf3d

net.fc_nn.fc_in.weight f4 [49, 33]
0.12823524 0.026731106 -0.09386838 -0.027624305 0.11364313 -0.21722913 -0.125668 -0.16316807
0.002974833 0.121225 -0.04604616 0.10463087 0.07269217 -0.12878011 -0.12209689 0.14315046
0.3460194 -0.006948296 0.22500376 0.12203191 0.13745232 0.104905576 0.24780741 0.01679504
0.11109311 -0.09828625 0.11261479 0.33598226 -0.18544194 0.16668555 0.16025384 0.15158214
0.35112938 0.17144662 0.10393951 0.2830352 -0.17737198 -0.0015465443 -0.23608172 -0.047657773
0.014183539 -0.15408021 0.14177749 -0.12602055 0.11750189 -0.014948045 -0.25182542 0.020677023
0.025041828 0.3629203 0.12710968 0.10532492 -0.08818346 0.12561597 -0.06503752 0.25342306
-0.22338356 -0.4219324 0.009938095 -0.03535209 0.3898518 -0.12709184 -0.008083882 0.16852528
0.04920357 0.15502799 -0.15450874 0.12898839 0.020360691 -0.030970678 0.04429201 0.11059224
0.16874504 -0.1917407 0.14919735 0.21127215 -0.13352999 0.13439195 -0.019995924 -0.05510737
0.12611392 -0.09115975 -0.05933062 0.12271283 -0.10123652 0.0022443482 0.010763971 0.0039542406
-0.2919671 -0.0092116315 0.04284146 0.11910985 -0.18749723 -0.011442328 -0.0050119148 -0.20804545
0.15334187 0.13324736 0.1374635 -0.04477533 -0.049828738 -0.028299002 -0.011943625 0.1331212
0.004924601 0.029315365 0.007655121 0.13820513 -0.011713792 -0.12928784 0.15170705 0.046377316
0.052607007 0.010428885 0.0077768452 0.060202025 -0.12220682 0.21749848 -0.09945281 0.12378396
0.052728154 0.047489025 0.12884164 0.13416733 -0.2366157 -0.087493375 -0.09145584 0.14079341
-0.03210338 -0.052094556 0.053491868 -0.18475863 -0.019685099 -0.04706008 0.2505712 -0.095634595
-0.09366592 0.11089941 0.04723871 0.16171038 0.1365897 -0.006435943 0.13452129 0.006859379
-0.0936456 0.08687094 0.17053533 0.1697358 -0.083232135 0.19121906 -0.03495456 -0.12690215
-0.42946157 -0.2264818 -0.34324288 -0.041046433 0.119368985 0.09671505 0.049566053 -0.035894748
-0.21113686 -0.11717635 -0.10963067 -0.12115263 0.5195271 -0.18512657 -0.31945273 0.02935692
0.03417631 0.03020608 -0.046883475 0.09181076 0.13036515 -0.23453526 -0.17054337 0.1268982
-0.053726748 0.17416431 -0.17009075 -0.11656406 0.30316502 0.2123128 -0.09655726 0.07769915
-0.36433998 0.13450393 -0.09263903 0.2903627 0.07774282 -0.15622179 -0.19602703 0.38273263
-0.04047618 -0.24664147 0.0041152774 -0.33754462 0.07636535 0.003812846 -0.22959913 -0.025483645
0.018931055 -0.1330465 -0.09567768 -0.054254778 0.109828964 0.17252591 0.17276238 -0.13817903
-0.07868714 -0.117590025 0.0042187558 -0.09937809 0.13875206 -0.11520031 -0.21828195 0.025813136
0.06691612 -0.114431106 0.3099181 -0.14362463 0.2653925 0.18719476 -0.033149544 0.06637551
-0.0021961462 0.18692175 -0.10132982 -0.12447753 0.0061245505 0.104375385 -0.05288371 0.18078291
-0.03266235 -0.008143185 -0.1136067 0.07904152 -0.04933186 -0.071141034 -0.064880356 0.01805089
0.14694169 -0.15812197 0.22041379 0.08251945 -0.084297314 0.105927154 -0.17703544 0.10122359
0.21107425 0.026396759 0.05257381 0.030076325 -0.1312013 -0.23873039 -0.057356298 -0.06739536
00000000: 1950 033e 31fb da3c 113e c0bd 5e4c e2bc
00000010: bbbd e83d 5071 5ebe 1daf 00be 8815 27be
00000020: 6af5 423b d044 f83d e69a 3cbd b648 d63d
00000030: a2df 943d efde 03be ef0d fabd 0996 123e
00000040: 7429 b13e 88ae e3bb 6367 663e deeb f93d
00000050: 4dc0 0c3e bcd8 d63d 3ac1 7d3e c095 893c
00000060: c984 e33d 4d4a c9bd 95a2 e63d de05 ac3e
00000070: 7ee4 3dbe 9eaf 2a3e 9519 243e 5938 1b3e
00000080: 3bc7 b33e b48f 2f3e 3dde d43d fde9 903e
00000090: 00a1 35be 6ab5 caba 68bf 71be cc34 43bd
000000a0: 1362 683c 34c7 1dbe 1e2e 113e 880b 01be
000000b0: d5a4 f03d a5e8 74bc 43ef 80be dc62 a93c
000000c0: 8524 cd3c b1d0 b93e 0a29 023e 97b4 d73d
000000d0: 8899 b4bd 79a1 003e 6432 85bd abc0 813e
000000e0: a9be 64be 8607 d8be 64d3 223c 5acd 10bd
000000f0: a89a c73e 5d24 02be 4272 04bc e491 2c3e
00000100: af89 493d a8bf 1e3e 8a37 1ebe 8815 043e
00000110: 77cb a63c 38b6 fdbc 8a6b 353d 2f7e e23d
00000120: 80cb 2c3e ad57 44be 31c7 183e ba57 583e
00000130: 16bc 08be 0b9e 093e 7ece a3bc 44b8 61bd
00000140: 0224 013e f7b1 babd aa04 73bd dd50 fb3d
00000150: 1855 cfbd ea15 133b 5e5b 303c 9392 813b
00000160: b67c 95be 62ec 16bc 877a 2f3d ddef f33d
00000170: 46ff 3fbe 9a78 3bbc fd3a a4bb de09 55be
00000180: a705 1d3e ff71 083e 3bc3 0c3e 5666 37bd
00000190: 3819 4cbd 4fd3 e7bc 32af 43bc ed50 083e
000001a0: 8c5e a13b c726 f03c cfd7 fa3b a585 0d3e
000001b0: 34eb 3fbc 0864 04be 1859 1b3e 24f6 3d3d
000001c0: 727a 573d eadd 2a3c e8d4 fe3b 6696 763d
000001d0: 9247 fabd ecb7 5e3e eaad cbbd 7282 fd3d
000001e0: 7af9 573d da83 423d 10ef 033e 2963 093e
000001f0: 634b 72be ba2f b3bd 334d bbbd 262c 103e
00000200: d57e 03bd 1a61 55bd 4a1a 5b3d 5e31 3dbe
00000210: a542 a1bc 12c2 40bd de4a 803e 12dc c3bd
00000220: ebd3 bfbd 3b1f e33d 617d 413d 6897 253e
00000230: 2cde 0b3e 9ae4 d2bb f3bf 093e a4c4 e03b
00000240: 44c9 bfbd 64e9 b13d d0a0 2e3e 39cf 2d3e
00000250: 9c75 aabd eece 433e 832c 0fbd a3f2 01be
00000260: 63e2 dbbe d8ea 67be 88bd afbe 4e20 28bd
00000270: ba77 f43d 8a12 c63d c605 4b3d 5f06 13bd
00000280: 4334 58be 27fa efbd 0b86 e0bd df1e f8bd
00000290: baff 043f d291 3dbe 4f8f a3be ec7d f03c
000002a0: 75fc 0b3d be72 f73c e308 40bd 4807 bc3d
000002b0: 717e 053e 032a 70be eca2 2ebe 9af1 013e
000002c0: 9410 5cbd 2158 323e 452c 2ebe 23b9 eebd
000002d0: 7238 9b3e 8768 593e d0bf c5bd bb20 9f3d
000002e0: c58a babe 66bb 093e 88b9 bdbd 6baa 943e
000002f0: a137 9f3d 9bf8 1fbe 4fbb 48be 88f5 c33e
00000300: 5aca 25bd 958f 7cbe 73d9 863b a6d2 acbe
00000310: 7065 9c3d f1e0 793b 091c 6bbe 14c3 d0bc
00000320: 4d15 9b3c 573d 08be a9f2 c3bd 423a 5ebd
00000330: 02ee e03d a2aa 303e 9fe8 303e ce7e 0dbe
00000340: b926 a1bd 0ad3 f0bd 7d3d 8a3b bd86 cbbd
00000350: 0515 0e3e 24ee ebbd 4e85 5fbe 1276 d33c
00000360: 520b 893d db5a eabd 96ad 9e3e 5612 13be
00000370: 87e1 873e fcaf 3f3e d1c7 07bd e2ef 873d
00000380: 38ed 0fbb 6a68 3f3e 0286 cfbd 13ee febd
00000390: 74b0 c83b c3c2 d53d 979c 58bd 281f 393e
000003a0: f5c8 05bd fe6a 05bc a1aa e8bd 85e0 a13d
000003b0: 3410 4abd 64b2 91bd fedf 84bd 76df 933c
000003c0: e277 163e baea 21be 27b4 613e f5ff a83d
000003d0: 12a4 acbd 56f0 d83d c748 35be 504e cf3d
000003e0: d923 583e 043e d83c a357 573d a062 f63c
000003f0: a259 06be bd75 74be 70ee 6abd 9406 8abd

net.fc_nn.fc_in.bias f4 [49]
0.09664356 0.12793918 -0.058399763 -0.0651296 0.04195429 -0.14140646 -0.036392137 0.17436141
-0.1365923 0.14604715 0.13344562 0.03602601 0.0046498394 -0.2498934 0.2660974 -0.19925034
0.11609302 -0.06661744 -0.08600425 -0.0646353 0.16424084 0.15199052 0.11909695 0.0009811209
-0.011687031 0.23661938 -0.09803606 0.23194568 -0.14165027 -0.1486315 -0.031887926 0.1798963
0.17388466 -0.1995629 0.08068464 0.09646204 -0.120011844 0.13984172 -0.23898108 -0.052843194
0.013678173 -0.12377049 0.075450115 0.007481348 -0.1503752 -0.20136215 0.24852243 0.21092403
0.22264557
00000000: 0fed c53d 7d02 033e 9734 6fbd ab62 85bd
00000010: 43d8 2b3d dbcc 10be ec0f 15bd cc8b 323e
00000020: dade 0bbe 628d 153e f8a5 083e 0290 133d
00000030: ae5d 983b 0ee4 7fbe eb3d 883e 4808 4cbe
00000040: 2dc2 ed3d b96e 88bd ff22 b0bd 835f 84bd
00000050: c02e 283e 67a3 1b3e 1ae9 f33d f498 803a
00000060: f67a 3fbc 5a4c 723e 21c7 c8bd 2b83 6d3e
00000070: c50c 11be db32 18be ea9c 02bd bc36 383e
00000080: d20e 323e 385a 4cbe fd3d a53d e48d c53d
00000090: c5c8 f5bd ab32 0f3e 75b7 74be 1b72 58bd
000000a0: 6a1a 603c 627b fdbd 9785 9a3d 1826 f53b
000000b0: f5fb 19be e131 4ebe aa7c 7e3e 78fc 573e
000000c0: 33fd 633e

net.fc_nn.fc_hidden.0.weight f4 [48, 49]
-0.17401545 -0.04627281 -0.032809168 0.063180014 0.89347506 -0.03899635 -0.020218452 -0.099818006
0.23757182 0.07727748 0.0843 -0.054284062 -0.02886217 -0.011893004 0.027786842 -0.22586645
0.022926677 -0.025952404 0.09961726 -0.13205653 0.17987247 0.13971628 0.084211364 0.1538977
-0.53940463 0.035899825 -0.018567156 0.2187199 0.08900975 -0.01159081 0.029522574 0.15842877
0.10948661 -0.20064396 -0.037087265 -0.16969442 -0.01376421 0.04537111 0.050876368 -0.00097365637
0.19229627 0.075864896 -0.0299916 0.15458441 -0.37671813 -0.29140973 -0.043816354 0.14704233
0.0008537159 0.13447767 -0.17876226 -0.03847883 -0.13628012 0.61435956 -0.09365002 0.006555915
-0.05665818 0.049280528 0.035868514 -0.09815724 0.017040461 0.050310344 0.16451538 0.10682478
-0.14561608 -0.13254151 0.21041204 0.10387764 0.053412504 -0.029796716 0.096842624 0.011391349
-0.03088796 -0.5414311 0.091238886 -0.16171041 -0.1816949 -0.022084145 -0.034139577 -0.077664405
0.061715417 -0.038257718 -0.06119969 0.09954627 -0.052012395 -0.23455636 0.12316453 0.07968412
-0.042309206 -0.07488054 0.1804911 -0.03735553 -0.12683855 -0.26490963 -0.15713532 0.1250023
-0.03978487 0.090249784 0.0013151428 0.15211783 0.22331257 -0.28470457 -0.27151728 0.025423402
-0.0020140999 0.25839397 -0.35124308 -0.11121504 -0.20267911 0.08931609 0.20173295 -0.27146956
0.102921814 0.06443135 -0.08878968 -0.0030863942 0.08719739 -0.0093655335 -0.1978502 0.058167297
0.17518158 -0.037788633 0.009590234 0.109294705 0.26626006 -0.48657563 0.38122517 0.120916426
-0.63249344 -0.0033372857 0.078159146 0.0042036767 -0.046963215 -0.13370784 0.17545411 0.049983107
-0.29331368 0.1568354 -0.12773843 0.1976921 0.14993513 0.047765937 0.41193262 -0.17097202
0.15205026 0.067110226 -0.08992334 -0.034126326 -0.07938742 -0.047445804 0.07155974 -0.55610526
0.19691567 0.21927845 0.07218143 -0.15122841 0.12613487 -0.061275113 0.05351067 -0.09939101
0.1197917 -0.1175524 0.031409133 0.026214246 0.0139792785 0.09343049 0.15008388 -0.1022971
-0.11840669 0.066765055 0.16671555 0.3277709 0.08079057 0.02614358 0.020804197 0.04375294
0.03396561 -0.014647978 0.062807016 -0.14538532 -0.062181532 -0.16742578 0.19620262 0.11686522
-0.025410632 0.0470986 0.2328135 0.033246733 -0.21116999 0.2696726 0.14706002 0.2565103
0.22128566 -0.016031144 -0.084286086 -0.16207865 0.060196206 -0.16775131 0.05421585 0.13782836
0.73377854 -0.071140096 -0.08605593 -0.04618187 0.33151308 -0.008736558 -0.020424658 0.12752934
0.10127707 0.13508138 0.17588812 -0.12599958 0.16325627 0.22504404 0.10058259 0.026942382
0.00739576 0.26053736 -0.047662217 0.17379595 -0.4104501 -0.069727965 -0.01546817 0.02687725
-0.010921862 -0.008063384 0.087813884 0.15551907 0.17696448 -0.14733963 0.0905245 0.022569075
-0.21281266 0.084563494 0.15911259 0.06299637 -0.099636726 -0.06060049 -0.05634516 -0.03326242
-0.23395713 -0.038244147 0.11070226 0.06564897 0.2033676 -0.018721974 0.274957 0.090197906
-0.06617519 -0.60778964 -0.09920862 -0.027874632 0.41238943 -0.10544767 0.1471281 0.14137138
00000000: 1b31 32be 8f88 3dbd e862 06bd 8664 813d
00000010: c8ba 643f a3ba 1fbd 2ba1 a5bc 626d ccbd
00000020: 0746 733e a843 9e3d 7aa5 ac3d f758 5ebd
00000030: 5c70 ecbc e0da 42bc 3ba1 e33c 8949 67be
00000040: bad0 bb3c 239a d4bc 2204 cc3d d439 07be
00000050: 7d30 383e c911 0f3e 0277 ac3d 5c97 1d3e
00000060: 6c16 0abf b20b 133d 261a 98bc 1cf8 5f3e
00000070: be4a b63d 61e7 3dbc 53d9 f13c 273b 223e
00000080: 843a e03d 9c75 4dbe d1e8 17bd 60c4 2dbe
00000090: 4883 61bc 0fd7 393d bd63 503d f93c 7fba
000000a0: 50e9 443e 0e5f 9b3d f2b0 f5bc 604b 1e3e
000000b0: 33e1 c0be a833 95be c778 33bd 4492 163e
000000c0: e7cb 5f3a 84b4 093e 740d 37be fa9b 1dbd
000000d0: 048d 0bbe ab46 1d3f 95cb bfbd 00d3 d63b
000000e0: 6812 68bd 61da 493d ddea 123d aa06 c9bd
000000f0: 7098 8b3c 3812 4e3d b876 283e f3c6 da3d
00000100: 621c 15be f6b8 07be 4176 573e cdbd d43d
00000110: 12c7 5a3d 3e18 f4bc 6d55 c63d c8a2 3a3c
00000120: bf08 fdbc 3b9b 0abf 74db ba3d 6a97 25be
00000130: 3a0e 3abe cfe9 b4bc f1d5 0bbd 840e 9fbd
00000140: 4ec9 7c3d 20b4 1cbd 87ac 7abd eade cb3d
00000150: f30a 55bd 8b2f 70be af3d fc3d 6e31 a33d
00000160: 6b4c 2dbd f85a 99bd a9d2 383e 1d02 19bd
00000170: f7e1 01be 3ca2 87be 15e8 20be 9a00 003e
00000180: 76f5 22bd e1d4 b83d df60 ac3a c7c4 1b3e
00000190: 0dac 643e ccc4 91be 5004 8bbe bd44 d03c
000001a0: fdfe 03bb 374c 843e 22d6 b3be b6c4 e3bd
000001b0: 1d8b 4fbe 5beb b63d 1593 4e3e 0ffe 8abe
000001c0: acc8 d23d 95f4 833d 5dd7 b5bd 1a45 4abb
000001d0: 8c94 b23d e571 19bc 3e99 4abe d540 6e3d
000001e0: cd62 333e 41c8 1abd 5b20 1d3c e7d5 df3d
000001f0: 3d53 883e 7120 f9be f22f c33e 08a3 f73d
00000200: 17eb 21bf 5db6 5abb e711 a03d ffbe 893b
00000210: 805c 40bd b5ea 08be 3eaa 333e 16bb 4c3d
00000220: 362d 96be 7699 203e ddcd 02be cc6f 4a3e
00000230: 9888 193e 37a6 433d d5e8 d23e 4a13 2fbe
00000240: 10b3 1b3e 1671 893d ba29 b8bd 0cc8 0bbd
00000250: df95 a2bd 8856 42bd ea8d 923d ea5c 0ebf
00000260: 43a4 493e 888a 603e dcd3 933d 9fdb 1abe
00000270: 8029 013e 9dfb 7abd 012e 5b3d 848d cbbd
00000280: 5a55 f53d 50bf f0bd dda6 003d 42bf d63c
00000290: 5809 653c 7c58 bf3d 97af 193e 2481 d1bd
000002a0: 357f f2bd 1ebc 883d 7bb7 2a3e 96d1 a73e
000002b0: 8775 a53d 102b d63c 906d aa3c 4836 333d
000002c0: 861f 0b3d 13fe 6fbc f7a0 803d e4df 14be
000002d0: 10b2 7ebd aa71 2bbe 57e9 483e 0857 ef3d
000002e0: f529 d0bc 76ea 403d aa66 6e3e ba2d 083d
000002f0: f23c 58be 8712 8a3e e796 163e 5155 833e
00000300: b598 623e bf53 83bc 2f9e acbd f2f7 25be
00000310: 4c90 763d 00c7 2bbe 7011 5e3d e122 0d3e
00000320: e9d8 3b3f e6b1 91bd 173e b0bd 3329 3dbd
00000330: 15bc a93e c823 0fbc 9d51 a7bc 0d97 023e
00000340: 5a6a cf3d c652 0a3e 041c 343e 0906 01be
00000350: a72c 273e f271 663e 3ffe cd3d 45b6 dc3c
00000360: 2258 f23b 2765 853e 7539 43bd 91f7 313e
00000370: 8426 d2be 89cd 8ebd 356e 7dbc ae2d dc3c
00000380: 9cf1 32bc 491c 04bc c4d7 b33d 6440 1f3e
00000390: 2d36 353e 33e0 16be e964 b93d c8e2 b83c
000003a0: 90eb 59be a02f ad3d 69ee 223e 3e04 813d
000003b0: 570e ccbd 3838 78bd 2fca 66bd 2d3e 08bd
000003c0: 7592 6fbe e5a5 1cbd deb7 e23d f872 863d
000003d0: 993f 503e d35e 99bc 2ac7 8c3e aeb9 b83d
000003e0: dc86 87bd 1a98 1bbf e42d cbbd 5759 e4bc
000003f0: b524 d33e f3f4 d7bd c0a8 163e a9c3 103e

net.fc_nn.fc_hidden.0.bias f4 [48]
0.10590255 -0.013546608 -0.13980679 0.09512341 0.037832063 0.12198975 -0.11996945 -0.036972795
-0.15366694 -0.003857842 0.12310126 0.042557642 0.1551878 -0.12658483 -0.00079093885 0.08696992
0.12423321 -0.03624009 -0.05907991 -0.07056927 0.09050815 -0.04154881 -0.085766934 -0.18966402
-0.20870422 0.0387093 -0.10921973 -0.06380061 -0.075883254 -0.07054482 -0.078208975 0.036716975
-0.014722815 -0.12665576 -0.035140876 0.14816679 0.09148832 0.14361963 -0.14145558 0.13499552
0.23044673 -0.17644352 -0.1490246 0.09342508 -0.00035773564 -0.01962676 0.036411364 0.06509636
00000000: 70e3 d83d 98f2 5dbc 8329 0fbe 10d0 c23d
00000010: cbf5 1a3d c3d5 f93d 8bb2 f5bd c970 17bd
00000020: de5a 1dbe d9d3 7cbb 831c fc3d ec50 2e3d
00000030: 8de9 1e3e 749f 01be 0257 4fba 491d b23d
00000040: fb6d fe3d 7d70 14bd c7fd 71bd 9f86 90bd
00000050: 565c b93d 162f 2abd 93a6 afbd 4937 42be
00000060: 8fb6 55be a58d 1e3d 98ae dfbd e5a9 82bd
00000070: ae68 9bbd cd79 90bd 072c a0bd 8a64 163d
00000080: f637 71bc 0cb2 01be e1ef 0fbd 09b9 173e
00000090: 3a5e bb3d 0611 133e bbd9 10be 443c 0a3e
000000a0: 3afa 6b3e 9cad 34be e899 18be a655 bf3d
000000b0: 778e bbb9 4dc8 a0bc 1524 153d 3e51 853d

net.fc_nn.fc_hidden.1.weight f4 [40, 48]
-0.19021936 0.026588332 -0.074454986 0.0628925 -0.23852392 -0.1168818 0.1786927 0.0039143125
-0.048203953 -0.25172377 0.1970011 -0.1177251 0.03620663 0.20691928 0.019825269 -0.19331776
-0.060652554 0.020445779 0.061117157 0.04535556 -0.23950833 0.16218194 0.027848765 0.30125588
0.03712854 -0.33774734 -0.24598432 0.02078808 -0.19408867 -0.2335726 0.07662724 -0.21925113
-0.09415196 0.014279405 0.062306795 -0.23919393 -0.17895658 -0.03414806 0.12194758 -0.20466907
-0.24023452 0.43951 -0.31235266 -0.11979167 0.2531183 -0.04475164 0.10448859 -0.2423751
-0.2600279 -0.047339138 0.03364937 0.10355855 -0.13390262 0.012717817 0.17133117 -0.18998373
-0.2265706 -0.117890745 0.052551847 -0.07247649 -0.26952752 0.08737466 0.16097125 0.07074359
-0.3075582 0.26308462 -0.060355294 0.14247635 -0.31739208 0.06738188 0.20513242 0.04120265
0.0034407184 -0.17827949 -0.1915523 0.10115459 -0.12596844 -0.17953074 0.17258374 -0.23546998
-0.123293534 -0.060899176 0.21850437 -0.11952343 -0.071959026 -0.19720282 -0.075670615 -0.23988406
-0.070216365 0.229103 -0.16898172 -0.25809646 0.16496399 -0.054121673 -0.09085524 -0.30150524
0.057844285 -0.03776913 0.038387697 -0.032931354 -0.11789035 0.042353865 0.075822726 -0.017490057
-0.058697887 -0.09567938 -0.072613016 -0.05968205 -0.16029878 0.1763573 0.08922537 -0.19207898
-0.08630219 -0.08135865 0.1867007 0.24308267 -0.21278128 0.038530782 0.22550601 0.051468413
-0.02625958 -0.16901757 -0.26489723 -0.13805647 0.16890602 0.059554692 -0.12132728 -0.015895844
0.0224979 -0.03384101 0.1523127 0.08457568 -0.15130247 -0.12967238 0.0005477516 0.121716924
0.042999968 0.21527809 -0.21205044 -0.007379183 0.016606234 0.10844156 0.058569208 -0.13985668
-0.22808477 0.08775217 0.12516353 0.10873031 -0.122266226 0.42844158 -0.16205454 0.12116654
0.6052352 -0.12137325 0.36419764 -0.4647767 -0.049653865 0.1678756 0.03540804 -0.061930418
-0.2523237 0.021226756 0.095705666 -0.13903515 -0.34464422 0.19204672 0.19904302 -0.007958968
0.020711413 -0.117927134 -0.08159975 -0.071299426 0.052762028 -0.3282672 -0.17101121 0.083499946
0.21559322 0.03811674 -0.10536945 -0.28934038 -0.18786228 0.021330966 0.22142795 -0.28855544
-0.2050741 0.08507197 0.08741908 -0.19305307 -0.06460467 0.45219162 -0.35160142 0.07304446
0.22192499 0.096164815 -0.07742197 -0.093978785 0.037310455 -0.35001945 -0.107654445 -0.106217094
-0.48145694 0.15904377 -0.30454376 0.252933 -0.0031189763 -0.15606461 -0.3214828 0.15375116
0.27853334 0.031714343 0.18125916 -0.12109853 0.31225055 -0.13466594 -0.23050396 -0.15271391
-0.14768288 0.13327406 0.21399201 -0.06367162 0.057859983 0.15419608 -0.23732176 0.17426121
-0.10484608 0.067133985 -0.018769462 0.27564484 0.0890559 0.19931093 -0.33850813 0.27752745
0.199071 0.04079803 0.030070782 0.2588785 0.02751216 -0.25529805 0.24767338 0.23896982
-0.29229206 -0.18625368 0.07207478 0.005621379 -0.12886265 0.089036405 0.15597928 0.12513211
-0.064573735 -0.09321045 -0.09352927 -0.13652001 -0.1752045 0.13017066 0.15583475 -0.007771885
00000000: ddc8 42be c6cf d93c db7b 98bd c8cd 803d
00000010: 9d3f 74be ba5f efbd 38fb 363e a243 803b
00000020: 8271 45bd f0e1 80be a8ba 493e db19 f1bd
00000030: 674d 143d a6e2 533e 9a68 a23c 17f5 45be
00000040: d06e 78bd e87d a73c fc55 7a3d c0c6 393d
00000050: ac41 75be 0613 263e 1823 e43c 363e 9a3e
00000060: 1914 183d 38ed acbe 50e3 7bbe c34b aa3c
00000070: 2ebf 46be a82d 6fbe beee 9c3d 5e83 60be
00000080: bed2 c0bd 2af4 693c 6935 7f3d 41ef 74be
00000090: 6540 37be d6de 0bbd a7bf f93d c594 51be
000000a0: 0a00 76be 7407 e13e b0ec 9fbe 5655 f5bd
000000b0: b998 813e 7f4d 37bd 1dfe d53d 2e31 78be
000000c0: 6022 85be afe6 41bd ecd3 093d 8116 d43d
000000d0: c51d 09be 645e 503c 7071 2f3e 188b 42be
000000e0: 2002 68be b470 f1bd 9b40 573d 8e6e 94bd
000000f0: 83ff 89be 7cf1 b23d a6d5 243e 04e2 903d
00000100: 4578 9dbe 07b3 863e 1d37 77bd 52e5 113e
00000110: 3781 a2be 83ff 893d 3c0e 523e 1cc4 283d
00000120: ad7d 613b e68e 36be 4926 44be 232a cf3d
00000130: dffd 00be e8d6 37be cbb9 303e 0b1f 71be
00000140: 5281 fcbd 6a71 79bd 9cbf 5f3e b3c8 f4bd
00000150: 415f 93bd 89ef 49be 32f9 9abd 2ba4 75be
00000160: 99cd 8fbd fa99 6a3e 8b09 2dbe 3825 84be
00000170: 52ec 283e b0ae 5dbd 5012 babd e55e 9abe
00000180: 21ee 6c3d ceb3 1abd 6b3c 1d3d 07e3 06bd
00000190: 7f70 f1bd 3f7b 2d3d f248 9b3d 4f47 8fbc
000001a0: 326d 70bd 8df3 c3bd 22b6 94bd 2a75 74bd
000001b0: 5d25 24be 0297 343e cabb b63d 5ab0 44be
000001c0: 34bf b0bd 5d9f a6bd 782e 3f3e aaea 783e
000001d0: 56e3 59be 74d2 1d3d 0ceb 663e 8bd0 523d
000001e0: 551e d7bc f112 2dbe 9ca0 87be ad5e 0dbe
000001f0: b3f5 2c3e 9fef 733d 707a f8bd 0038 82bc
00000200: 844d b83c df9c 0abd dcf7 1b3e 0436 ad3d
00000210: 09ef 1abe d6c8 04be fd96 0f3a b946 f93d
00000220: bc20 303d dc71 5c3e c023 59be 13cd f1bb
00000230: cc09 883c 9c16 de3d 44e6 6f3d 9736 0fbe
00000240: 0e8f 69be 69b7 b33d de2a 003e ffad de3d
00000250: b766 fabd b25c db3e a0f1 25be 2a26 f83d
00000260: b2f0 1a3f 8a92 f8bd 1d78 ba3e 36f7 edbe
00000270: da61 4bbd 95e7 2b3e 0508 113d c0aa 7dbd
00000280: 9230 81be bce3 ad3c 5501 c43d 3b5f 0ebe
00000290: 3575 b0be e5a7 443e efd1 4b3e 5566 02bc
000002a0: fbaa a93c c883 f1bd c51d a7bd 6f05 92bd
000002b0: ff1c 583d a312 a8be 901d 2fbe 0502 ab3d
000002c0: 78c4 5c3e 4c20 1c3d f0cb d7bd 6c24 94be
000002d0: f85e 40be 47be ae3c 02be 623e 8abd 93be
000002e0: f2fe 51be 373a ae3d c608 b33d b4af 45be
000002f0: 744f 84bd a985 e73e 1a05 b4be 5598 953d
00000300: 4e40 633e 0ff2 c43d 698f 9ebd f377 c0bd
00000310: d9d2 183d c035 b3be ef79 dcbd 5988 d9bd
00000320: 8681 f6be 5fdc 223e 29ed 9bbe 6f80 813e
00000330: bd67 4cbb 67cf 1fbe 6599 a4be f270 1d3e
00000340: ec9b 8e3e e6e6 013d 009c 393e 8202 f8bd
00000350: 4edf 9f3e dee5 09be 3b09 6cbe 0961 1cbe
00000360: 2e3a 17be ff78 083e b920 5b3e 4466 82bd
00000370: 97fe 6c3d 94e5 1d3e 7a04 73be 8871 323e
00000380: 8bb9 d6bd 8b7d 893d 6ac2 99bc 5221 8d3e
00000390: f162 b63d 2a18 4c3e f050 adbe 1418 8e3e
000003a0: 45d9 4b3e d61b 273d 0057 f63c b98b 843e
000003b0: 2e61 e13c 6db6 82be 179e 7d3e 81b4 743e
000003c0: 4ea7 95be 49b9 3ebe f19b 933d 8b33 b83b
000003d0: 92f4 03be b858 b63d 08b9 1f3e a222 003e
000003e0: 3c3f 84bd 1fe5 bebd 468c bfbd e7cb 0bbe
000003f0: cf68 33be 754b 053e 2593 1f3e 4cab febb

net.fc_nn.fc_hidden.1.bias f4 [40]
0.09881929 0.011765391 -0.18736336 -0.034625445 0.08906792 -0.10538761 0.047402546 0.056256417
-0.18161094 0.0005484296 0.1607361 0.07745285 -0.070782386 -0.14844976 -0.08069509 -0.24574895
0.10423322 -0.18264978 0.15160936 -0.08521466 -0.07290919 0.05696001 0.031164784 -0.16759007
0.086683534 0.015824182 0.04813901 0.05792382 0.041538075 -0.29806945 0.039701782 -0.13567159
-0.12038465 -0.055060342 -0.12598088 -0.18799797 0.21758735 0.09515902 0.05513562 0.17124075
00000000: c561 ca3d a0c3 403c 2edc 3fbe 69d3 0dbd
00000010: 3e69 b63d 76d5 d7bd 2c29 423d 216d 663d
00000020: 38f8 39be 7dc4 0f3a 0198 243e 9a9f 9e3d
00000030: 5bf6 90bd 3703 18be 7843 a5bd 9da5 7bbe
00000040: 3a78 d53d 8b08 3bbe 7c3f 1b3e 0685 aebd
00000050: 6a51 95bd e64e 693d 4a4d ff3c bb9c 2bbe
00000060: 2387 b13d b7a1 813c 692d 453d 8741 6d3d
00000070: d423 2a3d 8f9c 98be 569e 223d 7eed 0abe
00000080: 3a8c f6bd f486 61bd 2201 01be 8a82 40be
00000090: 38cf 5e3e bbe2 c23d e3d5 613d bc59 2f3e

net.fc_nn.fc_out.weight f4 [8, 40]
-0.1531845 -0.018235864 -0.23679712 -0.062331636 -0.0092732385 -0.2633446 0.15177874 -0.1851045
-0.15388447 -0.1774666 0.043883175 0.1139491 0.08924449 -0.07967347 -0.24659692 -0.13607988
-0.20736314 -0.0035297864 0.15781978 -0.0026297038 -0.041419014 -0.06689502 0.07652479 -0.24414003
0.15444037 -0.0098042255 0.036890786 -0.10119234 0.07311583 -0.22863583 0.24722591 0.20565446
-0.040362347 -0.076718144 -0.19034317 -0.035715435 0.079755515 -0.11936959 0.067322314 0.018766448
0.1591052 -0.10755868 -0.05739952 -0.0618665 0.11035176 0.033739068 0.1680706 -0.050641906
-0.049890473 -0.07327504 0.14638665 0.12787063 -0.008047506 -0.023494586 -0.09675003 -0.15106177
-0.092653945 -0.020241855 0.049349055 -0.110315494 0.11032612 0.14265923 0.13696884 0.023734922
0.08823007 -0.054543827 0.17577757 0.16788149 -0.06642202 0.07051044 0.09207746 0.18504271
-0.14634001 0.0198764 -0.039283454 -0.010024007 -0.031987023 0.15934838 0.121940956 -0.055599835
0.005084089 -0.0662303 -0.17915408 0.059613116 0.13534229 -0.16545719 0.06178986 -0.09542719
0.0813383 0.105459474 0.19901684 -0.0051477407 0.12824199 0.0318335 -0.0046587735 -0.04963046
0.03582549 -0.15070471 0.06216131 -0.064975604 0.15596275 0.06956552 0.047598142 -0.102677256
0.22019625 -0.036642674 0.0355118 0.13913243 0.12792625 -0.011229633 0.20259576 -0.010352963
0.112008 -0.1659664 -0.1647571 -0.121136084 -0.02859385 -0.15802729 0.18390201 -0.029120926
-0.09291066 -0.35340118 -0.11996649 -0.20566773 0.16139056 -0.23885226 0.2958048 -0.24943548
-0.2543809 -0.026484037 0.16850813 -0.015857516 0.13593759 -0.0753202 -0.38216484 -0.25015688
-0.23173454 -0.20006353 0.25950164 -0.3376678 0.101573326 0.22863086 0.1664439 -0.03782156
0.03850341 -0.04371534 0.010724887 -0.4080463 0.2037149 -0.41402835 0.034793742 0.050817788
-0.31179938 -0.37525922 -0.21903417 -0.22046086 0.28237027 -0.16830362 0.08305336 0.17467909
-0.28269154 -0.22297381 -0.18290515 -0.309269 0.33887717 -0.25550547 0.26387706 -0.1366697
-0.13939674 -0.16278978 0.26016372 -0.11749084 0.107073605 0.15623632 -0.2554325 -0.27033728
-0.23186532 -0.31206536 0.09903596 -0.27767217 0.27022448 0.23252262 -0.03488357 -0.35154828
0.13003145 -0.15102474 0.086146645 -0.31967872 0.32025468 -0.38097215 0.24928461 0.3278148
-0.33150923 -0.2417823 -0.16613407 -0.29165623 0.11583955 0.05712026 0.31608555 0.19567768
-0.13147847 -0.076105095 0.020360634 -0.12918203 0.14866826 -0.045865495 0.21311487 -0.007732958
-0.20025884 0.06370563 0.12577435 -0.2360356 0.1379991 -0.06552178 -0.14527404 -0.12830387
0.0018445685 -0.06131667 0.16086176 -0.051484402 0.13101031 -0.050129607 -0.09094773 -0.030373212
0.14101362 0.027100964 -0.11536248 -0.1341101 0.05358515 -0.14577831 -0.07656331 0.0068301917
-0.2208958 0.03320452 0.0074540246 -0.17613633 0.15117157 0.100045726 0.15622583 0.21631052
0.035475127 -0.028779916 -0.21651702 -0.18637314 -0.02825246 -0.2840624 0.15637274 0.08328953
-0.24736433 -0.10578474 0.07885607 0.025898954 0.17063445 -0.03179147 -0.020460518 0.023933852
00000000: 66dc 1cbe 6163 95bc f27a 72be 754f 7fbd
00000010: c8ee 17bc 1ad5 86be e36b 1b3e 098c 3dbe
00000020: e493 1dbe ceb9 35be d8be 333d 255e e93d
00000030: d1c5 b63d d82b a3bd e783 7cbe 8658 0bbe
00000040: 0157 54be fd53 67bb 829b 213e 1c57 2cbb
00000050: fca6 29bd 4200 89bd 07b9 9c3d d8ff 79be
00000060: 9e25 1e3e e7a1 20bc cb1a 173d ee3d cfbd
00000070: c1bd 953d 831f 6abe ca28 7d3e 1597 523e
00000080: fd52 25bd 671e 9dbd 52e9 42be 594a 12bd
00000090: dc56 a33d 0b78 f4bd 48e0 893d 18bc 993c
000000a0: 79ec 223e ba47 dcbd c21b 6bbd ba67 7dbd
000000b0: 1b00 e23d fa31 0a3d b31a 2c3e e36d 4fbd
000000c0: f459 4cbd 3911 96bd 62e6 153e 85f0 023e
000000d0: b0d9 03bc b877 c0bc e124 c6bd f0af 1abe
000000e0: 5ac1 bdbd 3fd2 a5bc 3c22 4a3d 17ed e1bd
000000f0: a9f2 e13d 4315 123e 8f41 0c3e bd6f c23c
00000100: f8b1 b43d 5969 5fbd 09ff 333e 20e9 2b3e
00000110: 4508 88bd c767 903d 1b93 bc3d d67b 3d3e
00000120: 28da 15be d5d3 a23c b0e7 20bd bc3b 24bc
00000130: d304 03bd 392c 233e 2ebc f93d a7bc 63bd
00000140: 6e98 a63b c0a3 87bd 2b74 37be e22c 743d
00000150: 2b97 0a3e 9c6d 29be 5d17 7d3d 556f c3bd
00000160: b294 a63d 23fb d73d 12cb 4b3e 61ae a8bb
00000170: de51 033e d863 023d a0a8 98bb 4f49 4bbd
00000180: c0bd 123d 5652 1abe dc9c 7e3d ee11 85bd
00000190: b3b4 1f3e 5e78 8e3d 45f6 423d 7448 d2bd
000001a0: 207b 613e a116 16bd d274 113d bb78 0e3e
000001b0: 19ff 023e 7ffc 37bc 4375 4f3e 799f 29bc
000001c0: 7364 e53d 19f3 29be 16b6 28be 3216 f8bd
000001d0: a63d eabc e8d1 21be cf50 3c3e 028f eebc
000001e0: f247 bebd 00f1 b4be feb0 f5bd 909a 52be
000001f0: 9143 253e b095 74be ba73 973e 046c 7fbe
00000200: 373e 82be 0df5 d8bc 658d 2c3e 9fe7 81bc
00000210: 3933 0b3e 7a41 9abd 1cab c3be 9014 80be
00000220: d24b 6dbe 74dd 4cbe 66dd 843e cbe2 acbe
00000230: ad05 d03d 351e 6a3e 4570 2a3e c8ea 1abd
00000240: c0b5 1d3d db0e 33bd 70b7 2f3c 72eb d0be
00000250: a49a 503e 86fb d3be e283 0e3d 5026 503d
00000260: 2ba4 9fbe fa21 c0be 7e4a 60be 7ec0 61be
00000270: d692 903e c957 2cbe e117 aa3d 13df 323e
00000280: f2bc 90be 3f53 64be 7d4b 3bbe 8258 9ebe
00000290: 4f81 ad3e 9dd1 82be e51a 873e 24f3 0bbe
000002a0: 05be 0ebe 5db2 26be 2e34 853e 0a9f f0bd
000002b0: 6849 db3d 6afc 1f3e 0cc8 82be a669 8abe
000002c0: 1a6e 6dbe 08c7 9fbe 5ed3 ca3d 0c2b 8ebe
000002d0: dd5a 8a3e 691a 6e3e 13e2 0ebd 23fe b3be
000002e0: f726 053e 3ba6 1abe a76d b03d eeac a3be
000002f0: 6cf8 a33e c80e c3be 7744 7f3e 57d7 a73e
00000300: 94bb a9be c795 77be 0d1f 2abe f753 95be
00000310: 493d ed3d eff6 693d f7d5 a13e bb5f 483e
00000320: 4ba2 06be fddc 9bbd 58cb a63c 4b48 04be
00000330: 7e3c 183e 75dd 3bbd c93a 5a3e c164 fdbb
00000340: a710 4dbe 1978 823d feca 003e 51b3 71be
00000350: a34f 0d3e 4830 86bd b8c2 14be 1762 03be
00000360: 73c5 f13a 3027 7bbd f2b8 243e 4fe1 52bd
00000370: 9127 063e b454 4dbd ce42 babd 3ed1 f8bc
00000380: e065 103e d702 de3c 2a43 ecbd 2854 09be
00000390: 1a7c 5b3d e946 15be 3acd 9cbd cdcf df3b
000003a0: 8232 62be 7601 083d e440 f43b 155d 34be
000003b0: b8cc 1a3e c6e4 cc3d aaf9 1f3e 8180 5d3e
000003c0: 5e4e 113d dcc3 ebbc a3b6 5dbe 9ad8 3ebe
000003d0: b471 e7bc a070 91be 2d20 203e b393 aa3d
000003e0: 134d 7dbe aba5 d8bd 4b7f a13d 0b2a d43c
000003f0: ccba 2e3e c637 02bd d19c a7bc ed10 c43c

net.fc_nn.fc_out.bias f4 [8]
-0.009536443 0.14480776 -0.028789127 0.021690205 0.029365107 0.18584247 0.026247589 -0.0612247
00000000: be3e 1cbc 7c48 143e 2dd7 ebbc a8af b13c
00000010: 188f f03c 7d4d 3e3e 2f05 d73c c0c6 7abd
