Lorenz63Dim/L63E3P20/results/nets/net_mytrainedmodelEnergyScore.pth (torch, 6554 bytes, 11 tensors)

net.gru.weight_ih_l0 f4 [24, 1]
0.45240963 0.25347406 0.27461934 -0.17501156 0.60128236 1.454565 0.16049396 -0.9220086
-0.03262786 -0.14385988 -0.20071663 0.20867084 0.10871992 0.11188134 -0.20690638 0.3572917
-0.15738924 -0.0047371536 -0.17790455 0.09450586 0.18285076 -1.3259617 -0.29289126 1.4868002
00000000: 3ca2 e73e 5ac7 813e e89a 8c3e 3b36 33be
00000010: a4ed 193f 302f ba3f 8758 243e c108 6cbf
00000020: caa4 05bd 0150 13be a988 4dbe cfad 553e
00000030: 8da8 de3d 0b22 e53d 44df 53be f0ee b63e
00000040: a52a 21be 203a 9bbb 9c2c 36be 4a8c c13d
00000050: 3b3d 3b3e 1db9 a9bf d8f5 95be 784f be3f

net.gru.weight_hh_l0 f4 [24, 8]
0.21009286 0.052509353 -0.24754338 0.8055066 0.30383825 -0.16739985 -0.42716375 -0.9502608
-0.09641307 0.16909492 0.57782114 -0.82318205 1.4462595 0.5298418 -0.913538 0.91408354
-0.49317566 -0.6673518 -0.905381 0.3823732 -0.32465404 -0.34126833 0.3012097 -0.2525086
0.87714255 0.7630488 0.596529 -0.36158708 -0.22803567 1.0190057 0.37625766 0.12208007
-0.51843727 0.41194335 -1.2580689 0.33023113 0.32261014 -1.0757562 -0.19088301 -0.19014469
0.5730814 0.038525525 0.16710228 -0.75843865 -0.051441684 -0.24773076 0.06096203 -0.5431086
-0.27835232 0.12696473 -0.5203835 0.9568941 -0.8346345 -0.7901846 0.31866217 -0.55559397
-0.26862705 0.20935461 0.93051654 0.41693845 0.3219602 -0.27957526 0.1926143 -1.595935
-0.023316307 -0.47678146 0.27977842 -0.6706052 -1.8838937 1.3840288 1.8699372 0.7006926
0.7687296 0.3861774 0.39423966 -1.1768432 0.29098272 0.15731971 -0.89825577 0.9323933
-0.5040758 0.84347016 0.30478513 0.49641538 0.017075231 -0.18537976 0.49496636 0.30166873
0.048838772 0.66622204 -0.18004 0.752922 -0.34768453 0.81865454 -0.08888026 0.5045452
-0.7952303 -0.17004935 0.46835074 -0.79211235 -0.8585214 0.5856526 -0.44044462 0.533315
-0.6381355 0.1717867 0.009972238 -0.64455914 1.1023613 0.4697835 -1.2269602 1.0431932
-0.647329 0.3024179 1.1344541 -0.28703403 -0.06789795 -0.09919144 -0.6626759 1.1052768
0.8074736 -0.91859657 0.97309893 -0.65317976 -2.1036894 1.6111001 2.1099994 0.29760304
-0.5586548 -0.9068055 0.17743658 -0.54547954 -0.48696327 0.10177336 -0.18968941 1.4185336
1.2410631 0.0957201 -0.6377338 -0.5964279 -0.2605932 2.2790585 0.5684424 0.18038353
-0.012957653 0.6968559 -1.1924797 -1.5854319 -0.29177654 0.48474532 0.21034236 -0.3140066
0.4272444 0.21515398 -0.3094341 -0.5184273 -0.42631793 1.4279504 0.44301426 -0.20246857
0.18588609 0.2866715 0.6187327 -0.80492204 0.7562896 1.1524206 -0.6906373 0.10377234
-0.49476442 -0.028880436 0.45937252 0.1884015 0.4448027 -0.0664404 -0.4965016 1.0275675
-0.015911518 0.27318206 -0.10860087 1.4683541 -1.0537333 -0.73827815 0.26731387 0.14299367
-0.050561335 0.9829065 0.038411696 0.3553154 2.3517368 -0.42614213 -0.3181113 -0.48381108
00000000: 9522 573e 0c14 573d 037c 7dbe ae35 4e3f
00000010: b090 9b3e de6a 2bbe 35b5 dabe 4b44 73bf
00000020: 3774 c5bd 3827 2d3e 16ec 133f 0fbc 52bf
00000030: 081f b93f b6a3 073f a0dd 69bf 6101 6a3f
00000040: 8581 fcbe 91d7 2abf 0dc7 67bf 6cc6 c33e
00000050: 0e39 a6be b9ba aebe 2838 9a3e cf48 81be
00000060: 6a8c 603f 2b57 433f 20b6 183f f121 b9be
00000070: 2f82 69be c76e 823f d8a4 c03e 1e05 fa3d
00000080: 4eb8 04bf 3dea d23e 6708 a1bf 0e14 a93e
00000090: 282d a53e 61b2 89bf d676 43be 4ab5 42be
000000a0: 76b5 123f f1cc 1d3d dc1c 2b3e 0929 42bf
000000b0: 84b4 52bd 22ad 7dbe 52b3 793d 2a09 0bbf
000000c0: 3284 8ebe 0b03 023e da37 05bf 03f7 743f
000000d0: 9baa 55bf 8a49 4abf b027 a33e 683b 0ebf
000000e0: 7c89 89be 0e61 563e 5536 6e3f f578 d53e
000000f0: f8d7 a43e 7d24 8fbe af3c 453e 9947 ccbf
00000100: d701 bfbc b31c f4be 1e3f 8f3e c8ac 2bbf
00000110: 6e23 f1bf db27 b13f 1a5a ef3f 9760 333f
00000120: 77cb 443f 0bb9 c53e c8d9 c93e cca2 96bf
00000130: b0fb 943e 6b18 213e 17f4 65bf 54b1 6e3f
00000140: 1d0b 01bf a9ed 573f cc0c 9c3e 282a fe3e
00000150: 5be1 8b3c 31d4 3dbe 3b6c fd3e 5374 9a3e
00000160: 2a0b 483d 878d 2a3f 685c 38be 7fbf 403f
00000170: b503 b2be 5893 513f db06 b6bd e029 013f
00000180: 3794 4bbf 6b21 2ebe abcb ef3e e0c7 4abf
00000190: 0fc8 5bbf 54ed 153f f581 e1be 5587 083f
000001a0: d95c 23bf dae8 2f3e 9962 233c d401 25bf
000001b0: 2d1a 8d3f 7787 f03e 080d 9dbf 5b87 853f
000001c0: 5ab7 25bf 85d6 9a3e cb35 913f 20f6 92be
000001d0: 150e 8bbd e224 cbbd 21a5 29bf b679 8d3f
000001e0: 97b6 4e3f 2529 6bbf 031d 793f ca36 27bf
000001f0: d9a2 06c0 8738 ce3f 3b0a 0740 6d5f 983e
00000200: 0004 0fbf 6824 68bf efb1 353e 8ca4 0bbf
00000210: 4053 f9be 8d6e d03d f13d 42be 8292 b53f
00000220: 28db 9e3f e608 c43d 8642 23bf 80af 18bf
00000230: 796c 85be 18dc 1140 7185 113f 76b6 383e
00000240: 564c 54bc 2665 323f 2da3 98bf 6fef cabf
00000250: bc63 95be 8a30 f83e fd63 573e 79c5 a0be
00000260: c7bf da3e 5351 5c3e 256e 9ebe a7b7 04bf
00000270: 5846 dabe 14c7 b63f c4d2 e23e ec53 4fbe
00000280: ec58 3e3e 9bc6 923e 4465 1e3f 5f0f 4ebf
00000290: 329c 413f 8582 933f 9bcd 30bf 9886 d43d
000002a0: c351 fdbe aa96 ecbc e032 eb3e 53ec 403e
000002b0: 2ebd e33e e811 88bd 7535 febe 5587 833f
000002c0: df58 82bc 85de 8b3e 226a debd 07f3 bb3f
000002d0: bce0 86bf ccff 3cbf 5ddd 883e ef6c 123e
000002e0: 6719 4fbd c39f 7b3f 9555 1d3d e6eb b53e
000002f0: db82 1640 4d2f dabe 7cdf a2be 16b6 f7be

net.gru.bias_ih_l0 f4 [24]
0.3757312 -1.8068042 0.8060091 0.0531839 0.036924485 0.4851501 0.5003371 -0.09380556
-0.15298589 -0.5266192 -0.21575831 -0.63759524 -0.6537734 -0.68160325 -0.85212505 -0.9855949
-0.41110852 -0.19330606 -0.044525508 0.3304942 -0.22562778 -0.23303251 0.4599994 0.11816536
00000000: d75f c03e 5c45 e7bf 9d56 4e3f 5cd7 593d
00000010: 213e 173d 9865 f83e 1816 003f 211d c0bd
00000020: 55a8 1cbe 84d0 06bf bfef 5cbe 7139 23bf
00000030: b25d 27bf 8d7d 2ebf de24 5abf f34f 7cbf
00000040: d17c d2be 06f2 45be 6160 36bd 8936 a93e
00000050: f80a 67be 13a0 6ebe 0b85 eb3e ae00 f23d

net.gru.bias_hh_l0 f4 [24]
0.53714037 -1.7273481 0.6897667 -0.15648961 -0.085352905 0.44163296 0.3576237 -0.04142189
-0.31331274 -0.9473383 -0.8452606 -0.40085286 -0.2814102 -1.2277627 -0.80164033 -0.70523953
-0.43642542 -0.7730604 0.32591566 0.2943604 -0.75211215 -1.0136358 0.5232127 0.14076646
00000000: 0882 093f be19 ddbf 8d94 303f d03e 20be
00000010: 81cd aebd b71d e23e 741a b73e 00aa 29bd
00000020: 876a a0be c384 72bf 0063 58bf 963c cdbe
00000030: ff14 90be 5427 9dbf 4d38 4dbf 948a 34bf
00000040: 2773 dfbe 49e7 45bf 6bde a63e 68b6 963e
00000050: 6c8a 40bf d1be 81bf 44f1 053f 1525 103e

net.fc_nn.fc_in.weight f4 [13, 9]
-0.24703439 -0.30504757 -0.23011386 0.29307196 0.3015012 -1.0045253 -0.30495927 1.0799469
-0.36926073 -0.026203593 -0.1265511 0.025298866 0.54117197 -0.44550902 -0.16096976 -0.025090206
-0.11316109 -1.0190744 0.39749652 0.070394106 0.001570808 -0.10978078 0.41948363 -0.43374074
-0.042805884 -0.3667105 -0.8196603 -0.4867188 -0.5104758 0.4868349 0.56492186 -0.3363865
-0.14097483 -0.46921444 -0.082709864 1.1385883 -0.15623698 0.31632873 0.39162573 0.066412605
-0.52232075 0.48580354 -0.07289421 -0.51720685 1.1190398 0.83177286 0.092185356 0.20070142
-0.29538944 -0.5829959 0.37639505 0.37624308 -0.23421465 0.974349 -0.6343367 -0.8748812
0.09376735 0.0749084 1.7654269 0.15239614 -1.3242108 0.34614876 -0.11224588 1.3627726
0.4926124 0.5533193 -0.1657974 -0.18920062 0.29450843 0.027369099 -0.31843135 1.3488847
0.40841112 0.27732322 0.115149975 0.16507676 0.07130166 -0.71787256 0.2576481 0.0754735
-1.1546797 0.5046897 0.45155868 -1.1419443 -1.3773068 0.18304625 0.3177958 -1.2713542
-0.12183707 1.355569 0.091557 -0.35717496 -0.013257067 -0.82150465 0.36696583 0.33176267
-0.20841007 2.0852323 -1.4499164 0.29775932 0.18814088 0.09027984 0.29982463 0.15493593
-0.7563063 0.3438662 -0.19422737 -1.1592554 1.3449473 0.7321295 0.55548453 -0.29552606
-0.062412642 0.19271766 0.5150315 0.006244492 1.3285717
00000000: 95f6 7cbe 322f 9cbe f8a2 6bbe 870d 963e
00000010: 5e5e 9a3e 4994 80bf 9f23 9cbe b33b 8a3f
00000020: be0f bdbe eba8 d6bc 9d96 01be 913f cf3c
00000030: 3f8a 0a3f c219 e4be 42d5 24be fa89 cdbc
00000040: 00c1 e7bd 0871 82bf aa84 cb3e c92a 903d
00000050: 92e3 cd3a bfd4 e0bd 8fc6 d63e 4413 debe
00000060: 3955 2fbd 7bc1 bbbe 42d5 51bf 3533 f9be
00000070: 8bae 02bf 6d42 f93e b89e 103f da3a acbe
00000080: b55b 10be e03c f0be ca63 a9bd 43bd 913f
00000090: 96fc 1fbe d7f5 a13e 2b83 c83e 5503 883d
000000a0: d0b6 05bf 3ebb f83e 8f49 95bd ab67 04bf
000000b0: b23c 8f3f 11ef 543f adcb bc3d ac84 4d3e
000000c0: 493d 97be 383f 15bf dab6 c03e efa2 c03e
000000d0: f7d5 6fbe f06e 793f e463 22bf 37f8 5fbf
000000e0: 1909 c03d 9369 993d 82f9 e13f bc0d 1c3e
000000f0: bd7f a9bf 693a b13e 2be1 e5bd 556f ae3f
00000100: b137 fc3e 55a6 0d3f cbc6 29be cfbd 41be
00000110: cfc9 963e 2935 e03c 6f09 a3be 41a8 ac3f
00000120: 431b d13e 4ffd 8d3e c0d3 eb3d e209 293e
00000130: 9b06 923d 7fc6 37bf 74ea 833e da91 9a3d
00000140: 8bcc 93bf 5833 013f b332 e73e 3b2b 92bf
00000150: 974b b0bf 7a70 3b3e 22b6 a23e bcbb a2bf
00000160: b785 f9bd 4983 ad3f 3d82 bb3d a3df b6be
00000170: 2b34 59bc 214e 52bf f2e2 bb3e ccdc a93e
00000180: 7369 55be 7274 0540 dc96 b9bf e973 983e
00000190: 01a8 403e a3e4 b83d 9d82 993e 86a7 1e3e
000001a0: 4a9d 41bf 3b0f b03e 8ae3 46be 7b62 94bf
000001b0: 3c27 ac3f d76c 3b3f 3c34 0e3f 314f 97be
000001c0: 66a4 7fbd c757 453e 1bd9 033f 989e cc3b
000001d0: a30e aa3f

net.fc_nn.fc_in.bias f4 [13]
-0.07944731 -0.10176183 0.24221748 0.055344604 0.5069792 0.13824709 0.25112414 -0.124172114
0.37026176 -0.07248093 -0.12267427 0.32479253 -0.05826446
00000000: 45b5 a2bd 8268 d0bd dc07 783e 06b1 623d
00000010: 64c9 013f a590 0d3e 5893 803e f34d febd
00000020: f392 bd3e e270 94bd a63c fbbd 354b a63e
00000030: b7a6 6ebd

net.fc_nn.fc_hidden.0.weight f4 [9, 13]
0.80393046 0.12324093 0.30870804 -0.68167615 -0.5716601 -0.03898898 -1.7744148 0.5877866
0.6871942 1.4795808 -1.3995229 0.53485256 0.5609461 1.049975 0.415694 0.31736457
-0.6821132 -0.6936066 -0.36818916 -1.8352476 -0.33821127 0.236282 -0.15781768 -0.29043806
0.68417096 -0.055346873 0.12997444 -0.64843714 -0.7001403 0.05779569 0.6363835 0.6811444
-0.105510816 0.90002763 -0.5942904 1.5748663 -0.68876696 -0.89452106 0.7278902 0.25225544
-1.0153369 -0.62386405 0.045146525 -0.45088583 -0.21416926 0.5382961 -0.18489501 -0.7529807
-0.18378128 -0.44827607 -0.9887778 -0.37228185 0.96873975 0.49684572 0.39907584 -0.31011266
-1.024565 -0.005503117 -1.6680666 -0.21372278 0.7268539 0.044100415 -0.21250525 0.754394
-0.02185011 -0.08865455 -0.7003975 -0.27717623 0.03193312 0.23555943 0.6949236 -0.21914285
0.78371835 -0.8406149 1.3720721 -0.86959434 -0.6957191 0.76778066 -0.056182638 0.2551921
-0.038658828 -1.2839776 -1.5387112 -0.37978667 -0.98830986 -0.5623112 0.2993046 -1.3366231
-1.3555982 0.16380958 -0.27860153 -0.52916354 0.36604056 0.4513854 -0.42644128 -0.6691007
-0.23561366 -1.2745711 0.022463392 0.2980852 -0.33354285 -1.013475 0.36115685 -0.17643785
-0.6436639 -0.80261165 -0.33115596 0.31809676 0.23876496 0.662719 -0.60262674 0.47823304
-0.11429495 1.1842227 -1.2738425 -0.48780388 0.41107836
00000000: 63ce 4d3f be65 fc3d fb0e 9e3e 5482 2ebf
00000010: 5158 12bf e9b2 1fbd 0620 e3bf 2f79 163f
00000020: f6eb 2f3f e762 bd3f 9123 b3bf 19ec 083f
00000030: 2a9a 0f3f 9565 863f d8d5 d43e 9c7d a23e
00000040: f89e 2ebf 3490 31bf 4a83 bcbe 65e9 eabf
00000050: 072a adbe e9f3 713e f59a 21be 4cb4 94be
00000060: d425 2f3f 67b3 62bd 0518 053e faff 25bf
00000070: 653c 33bf 2cbb 6c3d 07ea 223f 7b5f 2e3f
00000080: 0e16 d8bd 3668 663f 6a23 18bf 3895 c93f
00000090: 0853 30bf 55ff 64bf 0357 3a3f a027 813e
000000a0: 8ff6 81bf 8eb5 1fbf 90eb 383d 82da e6be
000000b0: 304f 5bbe c6cd 093f 1e55 3dbe 58c3 40bf
000000c0: 2931 3cbe 7184 e5be 8b20 7dbf ba9b bebe
000000d0: 54ff 773f 9062 fe3e ab53 cc3e 16c7 9ebe
000000e0: f224 83bf 7e53 b4bb 3583 d5bf 25da 5abe
000000f0: 1913 3a3f a3a2 343d fa9a 59be f71f 413f
00000100: 00ff b2bc 8490 b5bd 404d 33bf 0bea 8dbe
00000110: 4ecc 023d 7e36 713e 83e6 313f fc66 60be
00000120: c4a1 483f 8a32 57bf 0fa0 af3f bc9d 5ebf
00000130: a61a 32bf 468d 443f c41f 66bd 8aa8 823e
00000140: b858 1ebd 6159 a4bf 7df4 c4bf 6673 c2be
00000150: e001 7dbf a0f3 0fbf 743e 993e 7716 abbf
00000160: 3e84 adbf b3bd 273e dca4 8ebe 4377 07bf
00000170: ab69 bb3e fd1b e73e 8356 dabe 2f4a 2bbf
00000180: b544 71be 2525 a3bf 2605 b83c a09e 983e
00000190: 21c6 aabe 8cb9 81bf 8de9 b83e 20ac 34be
000001a0: 28c7 24bf f577 4dbf 468d a9be 94dd a23e
000001b0: cd7e 743e f4a7 293f bf45 1abf f6da f43e
000001c0: 7913 eabd 9c94 973f 450d a3bf 6ec1 f9be
000001d0: dd78 d23e

net.fc_nn.fc_hidden.0.bias f4 [9]
0.12172677 0.30969992 0.28172463 -0.18301234 0.09887224 0.14476019 -0.22952384 -0.06038949
0.1626033
00000000: e34b f93d fd90 9e3e 363e 903e 9667 3bbe
00000010: 877d ca3d 043c 143e 4c08 6bbe f85a 77bd
00000020: 7b81 263e

net.fc_nn.fc_hidden.1.weight f4 [5, 9]
0.61016554 0.37078616 -0.57630134 -0.17517696 0.657697 -0.4478823 0.88574016 0.62675774
-0.28864914 0.6986093 -0.32797614 0.8541119 -0.23538071 -0.14937964 0.9849217 -0.56367195
-0.5854088 0.88165665 0.65927833 0.73329705 -0.49528402 -0.5487187 0.61514443 -0.38334215
0.8380528 0.5863628 -0.51636267 0.37290472 0.034782063 -0.04218686 -0.52513033 0.51016074
-0.14652039 0.8059966 0.27180406 -0.43426976 0.19006324 -0.16117553 0.7648641 -0.057961956
0.06360351 0.52833575 -0.70184696 -0.37916687 0.47078606
00000000: cf33 1c3f afd7 bd3e 7c88 13bf 9761 33be
00000010: d55e 283f d450 e5be debf 623f 3273 203f
00000020: d2c9 93be 0fd8 323f 7dec a7be 14a7 5a3f
00000030: a407 71be faf6 18be d423 7c3f ce4c 10bf
00000040: 5add 15bf 40b4 613f 77c6 283f 5bb9 3b3f
00000050: de95 fdbe d478 0cbf 1b7a 1d3f 6c45 c4be
00000060: a18a 563f df1b 163f 5830 04bf 5eed be3e
00000070: a377 0e3d 21cc 2cbd f16e 06bf e599 023f
00000080: 7109 16be cb55 4e3f e729 8b3e 9b58 debe
00000090: f09f 423e 330b 25be 22ce 433f 8469 6dbd
000000a0: 8f42 823d 0341 073f 3eac 33bf 2922 c2be
000000b0: df0a f13e

net.fc_nn.fc_hidden.1.bias f4 [5]
0.41263613 -0.08431576 0.3604329 -0.28009218 -0.20798942
00000000: 0b45 d33e bead acbd a98a b83e 3e68 8fbe
00000010: 2efb 54be

net.fc_nn.fc_out.weight f4 [1, 5]
0.554583 -0.8286211 0.82577235 0.37469748 -0.8349393
00000000: 27f9 0d3f 8320 54bf d165 533f 59d8 bf3e
00000010: 95be 55bf
