Lorenz63Dim/L63E3P20/results/nets/net_mytrainedmodelSignatureKernel.pth (torch, 6606 bytes, 11 tensors)

net.gru.weight_ih_l0 f4 [24, 1]
0	0xbec9c9c4	-0.39411747
1	0x3cee1eca	0.029067416
2	0xbe3c388a	-0.18380943
3	0xbee1414f	-0.4399514
4	0x3f0aa6dc	0.5416086
5	0xbe9d9430	-0.3077712
6	0xbe4390b2	-0.19098166
7	0xbef67d94	-0.48142684
8	0xbe51a5b5	-0.20473368
9	0xbe321e6f	-0.17394422
10	0x3e4df510	0.20113015
11	0x3e5d5491	0.21614291
12	0xbea8be64	-0.32957757
13	0xbe6c5fd5	-0.23083432
14	0xbe9b853e	-0.30375093
15	0x3eabf622	0.33586222
16	0x3df09e73	0.11748972
17	0x3e6d78bb	0.23190586
18	0x3ddc8694	0.10767856
19	0xbed17e96	-0.4091689
20	0x3db9ccad	0.09072242
21	0xbf0eed93	-0.5583126
22	0xbf44f0b1	-0.76929766
23	0xbe9c8fe0	-0.30578518

net.gru.weight_hh_l0 f4 [24, 8]
0	0xbec3498e	-0.38142055
1	0x3e8b153a	0.27164632
2	0x3f264b70	0.6495886
3	0xbe80e754	-0.2517649
4	0x3ed63e84	0.4184457
5	0xbecd8883	-0.40143213
6	0xbea186c7	-0.3154814
7	0x3df30e62	0.11867978
8	0x3dd7df74	0.10540667
9	0x3ece140b	0.40249667
10	0x3de86696	0.11347692
11	0x3d701f56	0.058623634
12	0x3e7ea394	0.24867088
13	0x3cc3f0cf	0.023918537
14	0x3ebb271c	0.36553276
15	0x3efc66b0	0.49297094
16	0xbe3e7038	-0.18597496
17	0xbc00644c	-0.007836413
18	0x3ea12568	0.3147385
19	0x3ebf323c	0.37343013
20	0x3edb865e	0.42875952
21	0x3ecde159	0.4021099
22	0x3d2a6f48	0.041610032
23	0xbd2c4e73	-0.042067003
24	0xbd467433	-0.04845066
25	0xbe72fe01	-0.23729707
26	0xbeb5965b	-0.35466275
27	0xbf08c9ae	-0.5343274
28	0x3ed3bcb2	0.413549
29	0xbeae3865	-0.340274
30	0xbead95b6	-0.33903283
31	0xbdff438b	-0.12464055
32	0x3eeabf59	0.45849112
33	0x3df6aa0f	0.12044155
34	0x3e85455f	0.26029488
35	0x3ef206b8	0.4727075
36	0xbd297951	-0.041375462
37	0x3e79f655	0.24410374
38	0xbe2385a9	-0.15968956
39	0xbe0b109f	-0.13580559
40	0xbe9f2c43	-0.31088457
41	0x3e91443b	0.28372368
42	0xbd3a8248	-0.045534402
43	0x3edc1798	0.4298675
44	0x3dd1b6a1	0.10239912
45	0x3c588078	0.013214223
46	0xbd8126cb	-0.06306227
47	0xbe74b592	-0.23897389
48	0xbf18194e	-0.5941361
49	0x3e84a26b	0.25905165
50	0x3db43490	0.08799088
51	0x3e1a710a	0.15082183
52	0x3d8e1034	0.06936684
53	0x3eef98d2	0.4679628
54	0x3f07e766	0.5308746
55	0x3ed838e3	0.422309
56	0xbdf15fc0	-0.11785841
57	0x3eea0426	0.4570629
58	0xbec02950	-0.3753152
59	0x3ba5c085	0.0050583505
60	0x3e89bd47	0.2690222
61	0x3e53e958	0.20694482
62	0x3eda6236	0.42653054
63	0x3e0107dd	0.12600656
64	0x3c8077df	0.015682159
65	0xbf46d34f	-0.7766618
66	0xbdb0bcf8	-0.08629793
67	0xbf05d90a	-0.522843
68	0xbe05a910	-0.13052773
69	0x3e718935	0.23587497
70	0x3e936d6f	0.2879443
71	0xbf434048	-0.7626996
72	0x3f119a2b	0.56875867
73	0xbf009d91	-0.5024043
74	0xbf8ad15e	-1.0845144
75	0x3f0d7c30	0.5526762
76	0xbeb4942a	-0.3526929
77	0xbea37542	-0.31925398
78	0xbeb271d0	-0.34852457
79	0x3a40f129	0.00073601544
80	0xbf108106	-0.56446874
81	0x3e29f890	0.16598725
82	0x3e21aa41	0.15787603
83	0x3e6700c4	0.22558886
84	0x3e8689df	0.26277062
85	0x3e73e69a	0.23818436
86	0x3e6eed66	0.23332748
87	0xbde683d8	-0.11255616
88	0x3e1c567f	0.1526737
89	0xbed1905a	-0.40930444
90	0xbed3b4a4	-0.41348755
91	0x3e61a3a5	0.22035082
92	0xbddbd6a9	-0.107343026
93	0x3e9065bb	0.28202614
94	0x3eab41cd	0.3344864
95	0xbe4693b0	-0.19392276
96	0x3ec7b8a7	0.39008066
97	0xbd98ab44	-0.07454541
98	0x3ee8af03	0.45446023
99	0x3e23687d	0.15957828
100	0xbe9f5aba	-0.31123906
101	0x3f0743c5	0.52837783
102	0x3f594787	0.8487477
103	0x3cfb69fa	0.030690182
104	0x3e9dbd44	0.3080846
105	0xbf1b4e6d	-0.60666543
106	0x3dad5742	0.08463909
107	0xbed55c9d	-0.4167222
108	0xbe4be131	-0.19910122
109	0x3cdca2b9	0.026933061
110	0x3de46218	0.111515224
111	0xbeeb2e80	-0.45933914
112	0xbd46f5e7	-0.048574354
113	0xbd2577d0	-0.040397465
114	0x3d2224d8	0.03958592
115	0xbe805c84	-0.25070584
116	0xbf2c8787	-0.673943
117	0x3eb1f4f5	0.347572
118	0xbe7cc616	-0.24684939
119	0xbdea5460	-0.114418745
120	0xbeee9268	-0.46596074
121	0xbdca585d	-0.09880135
122	0xbe0ac078	-0.13549984
123	0x3eb7c099	0.35889128
124	0xbcbfdd4f	-0.023420958
125	0x3df19ba5	0.11797265
126	0x3f25f72e	0.6483029
127	0xbba4dc1c	-0.005031122
128	0x3f10f9b7	0.56631035
129	0xbed4f595	-0.41593614
130	0xbf631437	-0.8870272
131	0xbeb529d2	-0.3538347
132	0xbf249be5	-0.64300376
133	0xbe4719aa	-0.19443384
134	0xbe43566b	-0.19075935
135	0xbf1a7e32	-0.6034881
136	0xbe5e8212	-0.21729305
137	0xbde785f3	-0.11304846
138	0xbdbca5df	-0.09211325
139	0x3df40043	0.119141124
140	0x3ebca7e5	0.36846843
141	0xbda41ca1	-0.08013273
142	0xbe837438	-0.25674605
143	0x3f0391e4	0.51394486
144	0xbefac5c3	-0.48979005
145	0x3f06c2a2	0.52640736
146	0x3e079eeb	0.13244216
147	0x3cd6eac4	0.026234992
148	0xbe5df3dc	-0.21675056
149	0x3f034df8	0.51290846
150	0x3ef46377	0.47732136
151	0xb9a2f89f	-0.00031084285
152	0xbd85cd09	-0.06533248
153	0x3ec0093c	0.37507045
154	0x3e84b4d7	0.2591922
155	0xbe2665a5	-0.16249712
156	0x3e8388a3	0.25690183
157	0x3c4a91db	0.012363876
158	0xbd53e2e8	-0.051730067
159	0x3e5df897	0.21676861
160	0x3f2a9bf1	0.666442
161	0x3d815ad3	0.063161515
162	0x3f51fff1	0.8203116
163	0xbbea9c7b	-0.007159767
164	0xbe6cef14	-0.23138076
165	0x3d525f98	0.051360697
166	0xbed17db4	-0.40916216
167	0xbe010c7a	-0.12602416
168	0xbd17b93f	-0.0370419
169	0xbc5d670f	-0.013513341
170	0x3ec71b6d	0.38888112
171	0x3e0282a6	0.12745151
172	0x3f021610	0.50814915
173	0xbe74662d	-0.23867102
174	0x3ec6c545	0.3882238
175	0x3d5c8b5f	0.053843852
176	0xbf1e0724	-0.61729646
177	0x3e86b8e1	0.26312926
178	0x3d296e39	0.041364882
179	0x3ea13ac3	0.31490144
180	0x3de418fc	0.11137578
181	0xbd20f3c7	-0.039294984
182	0x3f1bd078	0.60864973
183	0x3dbb30c5	0.091401614
184	0x3abda69c	0.0014469209
185	0x3e92696c	0.28596056
186	0x3e1f55a8	0.15560019
187	0x3eb719e6	0.35761946
188	0x3ed7029b	0.41994175
189	0xbd48f15c	-0.049058303
190	0xbdb3ed0d	-0.08785448
191	0x3eecedcd	0.46275178

net.gru.bias_ih_l0 f4 [24]
0	0x3ea38b7a	0.3194235
1	0x3e39465a	0.18093243
2	0x3e76deaf	0.24108385
3	0x3e70edfa	0.23528281
4	0xbe07b9ff	-0.13254546
5	0x3e0fe127	0.14050733
6	0x3dca3d63	0.0987499
7	0x3e7368e9	0.23770489
8	0xbf102784	-0.56310296
9	0x3e052414	0.13002044
10	0xbe88e735	-0.26738897
11	0x3e70a4be	0.23500344
12	0xbe28abae	-0.1647174
13	0xbf145843	-0.57947177
14	0xbee5d775	-0.44890943
15	0xbe1ce014	-0.15319854
16	0xbf0cdbac	-0.5502269
17	0x3e73fd1d	0.23827024
18	0x3f02dcdc	0.51118255
19	0x3ee6a981	0.45051196
20	0xbcca0347	-0.024659766
21	0xbcef345e	-0.029199775
22	0x3eab77c5	0.33489814
23	0x3ee1cd39	0.44101885

net.gru.bias_hh_l0 f4 [24]
0	0x3e417b68	0.18894732
1	0x3e092849	0.13394274
2	0x3e3389c9	0.1753303
3	0x3df8f144	0.12155393
4	0x3e36b2d9	0.17841662
5	0xbe380946	-0.17972288
6	0x3ea78b1d	0.32723323
7	0x3d5d32ca	0.054003514
8	0xbf36c2f7	-0.7139124
9	0xbeb16808	-0.34649682
10	0x3e2e2a85	0.17008407
11	0x3d4ffec0	0.050780058
12	0x3e9a4637	0.30131695
13	0xbe0a0e15	-0.13481934
14	0xbf1a4b4a	-0.6027113
15	0xbde35328	-0.11099845
16	0xbf595085	-0.8488849
17	0x3e3fa4db	0.18715231
18	0x3e8ec138	0.2788179
19	0x3e1f8e01	0.15581514
20	0x3c8475f8	0.016169533
21	0x3e49c7d1	0.1970513
22	0x3e51c5a7	0.20485555
23	0x3f1d5fb4	0.61474156

net.fc_nn.fc_in.weight f4 [13, 9]
0	0xbe28d555	-0.1648763
1	0x3e55f10a	0.2089273
2	0x3d104b38	0.035227984
3	0xbe6cd2c2	-0.23127273
4	0x3e9351cb	0.2877334
5	0x3e95daec	0.29268587
6	0xbeb315cf	-0.34977576
7	0xbebdce2d	-0.37071362
8	0xbf078145	-0.52931625
9	0xbec575bc	-0.38566387
10	0x3f47c90c	0.7804115
11	0x3e292999	0.16519774
12	0x3e644552	0.22292069
13	0x3e2f6698	0.1712898
14	0xbdeabe90	-0.11462128
15	0x3e869d55	0.2629191
16	0x3f15d747	0.5853161
17	0x3b530754	0.0032200413
18	0xbe286a5f	-0.16446827
19	0x3f0a4353	0.5400898
20	0x3e9addf1	0.30247453
21	0x3c215f36	0.00984936
22	0xbbf68a71	-0.0075238277
23	0x3ef3d451	0.47622922
24	0x3eef4a07	0.46736166
25	0x3e8d7add	0.276328
26	0x3f2a43aa	0.665095
27	0x3ec93ea9	0.39305618
28	0x3ea170d0	0.31531382
29	0xbf182821	-0.5943623
30	0x3e98d026	0.29846305
31	0x3da3410d	0.07971392
32	0x3ebc118c	0.36732137
33	0x3ed98098	0.42480922
34	0xbe72391c	-0.23654598
35	0xbe90a055	-0.28247324
36	0xbbb3df2c	-0.0054892506
37	0x3e57ad78	0.21062267
38	0x3e20a466	0.15687713
39	0xbe234a79	-0.15946378
40	0x3dbff908	0.09373671
41	0x3e90bbe2	0.28268343
42	0xbe66f005	-0.22552498
43	0xbe634922	-0.22195867
44	0xbf5dcefd	-0.86643964
45	0xbe7fd5b2	-0.24983862
46	0xbe5c6705	-0.21523674
47	0x3eca40b6	0.39502496
48	0x3c649f43	0.013953987
49	0x3e56a053	0.20959596
50	0x3e29f95a	0.16599026
51	0xbe78dc35	-0.24302752
52	0xbe45d482	-0.19319347
53	0xbf44758d	-0.7674187
54	0xbf5ab451	-0.8543139
55	0x3ecc546d	0.39908162
56	0x3f006f39	0.5016971
57	0x3dc9f363	0.098608755
58	0x3f351321	0.70732313
59	0xbf00601a	-0.5014664
60	0xbececfff	-0.40393063
61	0x3e720605	0.23635109
62	0xbe203fdf	-0.15649365
63	0x3c86b74e	0.016444828
64	0x3f29eb0c	0.6637428
65	0x3ece40ca	0.40283805
66	0x3f00da54	0.5033314
67	0x3e9b7fb4	0.30370867
68	0x3eddeb0f	0.43343398
69	0x3e815f8f	0.25268218
70	0x3e2532eb	0.16132705
71	0x3eea68b0	0.45782995
72	0xbebdccd1	-0.37070325
73	0xbd59548a	-0.05305914
74	0x3ddf4576	0.109019205
75	0xbe999989	-0.2999995
76	0x3c917820	0.017757475
77	0xbe2477ac	-0.16061276
78	0xbd672efe	-0.0564413
79	0x3d2d9534	0.04237862
80	0xbf0923b5	-0.5357011
81	0xbdaed1f4	-0.08536139
82	0x3ed1e49c	0.40994728
83	0x3ca37f04	0.019958027
84	0x3ecdd32b	0.4020017
85	0x3f127d4e	0.5722245
86	0x3ed78985	0.42097107
87	0x3e5d4573	0.21608524
88	0x3ee876be	0.45403093
89	0x3f2a4b94	0.66521573
90	0xbe482b69	-0.1954781
91	0x3e2d9ce9	0.16954388
92	0x3ebd00e4	0.36914742
93	0xbc076a78	-0.00826513
94	0x3ec0b4c5	0.37637916
95	0xbe4b9671	-0.19881608
96	0xbd777b27	-0.06042018
97	0xbe0ec4fe	-0.13942334
98	0xbf36abcd	-0.713559
99	0xbf1e9b07	-0.619553
100	0x3ec43829	0.38324097
101	0x3f1df771	0.6170569
102	0x3e627993	0.2211669
103	0x3daedace	0.085378274
104	0xbd91c6ab	-0.07117971
105	0xbdc381b0	-0.0954622
106	0x3ec3f249	0.38270786
107	0xbf063974	-0.52431417
108	0xbecca4c0	-0.39969444
109	0x3d9ebcc1	0.07750846
110	0x3e4300fe	0.19043347
111	0xbe923b38	-0.28560805
112	0x3d704626	0.05866065
113	0xbd4e1220	-0.050310254
114	0xbda2e31b	-0.07953473
115	0x3d08f20e	0.033433966
116	0xbf373487	-0.71564525

net.fc_nn.fc_in.bias f4 [13]
0	0x3e9e94c2	0.30972868
1	0x3e66050b	0.22462861
2	0xbd1781db	-0.036989074
3	0xbec0424b	-0.37550578
4	0x3ec550a1	0.38538077
5	0x3ea13d29	0.31491974
6	0x3f25199f	0.6449222
7	0x3f028625	0.5098594
8	0xbcb18fa2	-0.021674935
9	0x3eda3cee	0.4262461
10	0xbda9a678	-0.082837045
11	0x3f224e39	0.6340061
12	0x3e83a25f	0.25709817

net.fc_nn.fc_hidden.0.weight f4 [9, 13]
0	0xbe54ce1c	-0.2078175
1	0xbf1f4f79	-0.6223064
2	0xbed3ef3d	-0.41393462
3	0xbea797f0	-0.32733107
4	0xbd9a5014	-0.07534805
5	0x3e10a899	0.14126815
6	0xbf00877b	-0.50206727
7	0xbf0c9cf0	-0.5492697
8	0x3e54c3e0	0.20777845
9	0xbf154de0	-0.5832195
10	0x3e9fae6f	0.3118777
11	0xbe5cf14e	-0.21576425
12	0xbe7fa20a	-0.24964157
13	0x3f64d4f1	0.8938742
14	0xbc589990	-0.013220206
15	0xbecc0bf7	-0.39852878
16	0xbe5480f4	-0.20752317
17	0x3eb1a802	0.34698492
18	0x3f023e00	0.50875854
19	0x3d0e4503	0.034733783
20	0x3d9c7846	0.07640128
21	0x3e823c68	0.2543671
22	0xbe6fce1e	-0.23418471
23	0x3ef534cd	0.47891846
24	0x3d54f775	0.051993806
25	0x3eadf3a5	0.3397495
26	0xbe9fe964	-0.3123275
27	0x3edce0d1	0.4314027
28	0x3edc81ce	0.43067783
29	0x3f198d27	0.59981006
30	0xbe17c55c	-0.1482138
31	0xbed2526a	-0.41078502
32	0x3ef3640e	0.47537273
33	0x3f1742bc	0.59086204
34	0xbec84bc5	-0.39120308
35	0x3ebc66ea	0.36797267
36	0xbed4b359	-0.4154308
37	0xbb9b24f3	-0.0047346293
38	0xbd6533ff	-0.05595779
39	0x3f3ecd11	0.74531657
40	0x3ecf582e	0.40496963
41	0xbecc0125	-0.39844623
42	0xbf23fb63	-0.6405546
43	0x3e2bc002	0.16772464
44	0x3eddef03	0.43346414
45	0x3ead5272	0.33851963
46	0xbe876a92	-0.26448494
47	0x3f3be7e2	0.734007
48	0xbeb995db	-0.36247143
49	0x3edcca18	0.43122935
50	0x3ed4e2ec	0.41579378
51	0x3f066b86	0.5250782
52	0x3db3ebca	0.087852076
53	0x3ee2b4c2	0.44278532
54	0x3db4f4f9	0.08835787
55	0x3db8bf9d	0.09020922
56	0xbb7c80d2	-0.0038528931
57	0xbe8a77b7	-0.2704446
58	0x3e560b33	0.2090271
59	0x3e86bea0	0.2631731
60	0xbdfff7a8	-0.124984086
61	0x3f0fee13	0.5622265
62	0xbecdeaa7	-0.40218088
63	0x3eaa73f6	0.33291596
64	0xbdff5e40	-0.12469149
65	0xbf10b25b	-0.5652215
66	0x3edc5192	0.43030983
67	0x3f0f4cb8	0.5597644
68	0x3ebea5b7	0.37235805
69	0xbf039aa3	-0.5140783
70	0xbd41d278	-0.04731986
71	0x3eb3013d	0.34961882
72	0x3f0991bd	0.53738004
73	0xbee6550e	-0.44986767
74	0x3e914a43	0.2837697
75	0xbdb37bc1	-0.087638386
76	0x3dc4d8df	0.096116774
77	0xbec84456	-0.39114636
78	0x3ec48714	0.38384306
79	0xbd4dfe03	-0.050291073
80	0xbe626381	-0.2210827
81	0xbddbb59c	-0.107279986
82	0x3f05bdf2	0.5224296
83	0x3ebe8793	0.3721281
84	0x3e7c9f78	0.24670208
85	0xbb71913c	-0.0036860248
86	0x3ef5019c	0.4785279
87	0xbf02cd99	-0.5109497
88	0x3e9b6c57	0.30356094
89	0x3dd0a30c	0.10187349
90	0x3f0c8b49	0.5490003
91	0xbf9088a5	-1.1291701
92	0xbe521238	-0.20514762
93	0x3f08bd1c	0.5341356
94	0x3f3032a3	0.68827266
95	0xbee682c1	-0.45021632
96	0xbed8679c	-0.42266548
97	0xbf792e52	-0.97336304
98	0x3dd7a37a	0.105292276
99	0xbf1e22b5	-0.6177171
100	0x3e60a20e	0.21936819
101	0xbf3aeb72	-0.7301551
102	0xbf2fc5f9	-0.6866146
103	0xbf84c052	-1.0371192
104	0x3f479dff	0.7797546
105	0x3e1d8e3b	0.15386288
106	0xbf0e1a6b	-0.5550906
107	0xbf0efaed	-0.5585163
108	0x3edab286	0.42714328
109	0x3f376b20	0.71647835
110	0x3ef80aca	0.4844573
111	0xbdff2fd1	-0.12460292
112	0x3e992b0c	0.29915655
113	0xbdbd1843	-0.09233143
114	0x3ec44abe	0.38338274
115	0x3e4b6df6	0.19866166
116	0x3f2f6508	0.68513536

net.fc_nn.fc_hidden.0.bias f4 [9]
0	0xbe34ad92	-0.17644337
1	0x3cf88dea	0.030341107
2	0x3e81fc4e	0.25387806
3	0x3eaab577	0.33341572
4	0x3f121b51	0.5707293
5	0x3f01981d	0.5062273
6	0x3cabe179	0.020981537
7	0xbf48364a	-0.7820784
8	0x3df6ba50	0.12047255

net.fc_nn.fc_hidden.1.weight f4 [5, 9]
0	0xbe0d8283	-0.13819318
1	0xbec07c0a	-0.37594634
2	0x3ed4f4a1	0.41592887
3	0xbe893be8	-0.26803517
4	0x3f23af74	0.63939595
5	0x3f229643	0.6351053
6	0xbe8238b9	-0.254339
7	0xbedb0aa4	-0.42781556
8	0xbe29a848	-0.165681
9	0xbf07e738	-0.53087187
10	0xbe8925bf	-0.2678661
11	0x3f24fc94	0.64447904
12	0xbe19d779	-0.15023603
13	0x3f265345	0.6497081
14	0x3f126aa3	0.57193965
15	0xbeb5f70b	-0.3554004
16	0xbe797747	-0.24361907
17	0xbea40f4a	-0.32042915
18	0xbeb1fd06	-0.34763354
19	0xbf22d6e1	-0.6360913
20	0x3ece33dd	0.40273944
21	0xbe52c8f5	-0.20584472
22	0x3ec3ad35	0.38218084
23	0x3efbb7b5	0.49163595
24	0xbde27c03	-0.110588096
25	0x3e286996	0.16446528
26	0x3d33a435	0.043857772
27	0xbed77a68	-0.42085576
28	0x3f7805bb	0.96883744
29	0xbec68dd1	-0.38780072
30	0x3f75fe17	0.96090835
31	0x3d0a6a4c	0.03379278
32	0xbef264a1	-0.473424
33	0x3f185f63	0.5952055
34	0xbf332c3f	-0.6998939
35	0x3f67bd96	0.9052366
36	0xbee5a018	-0.44848704
37	0xbe808f27	-0.25109217
38	0x3eeca80e	0.46221966
39	0xbf091f4d	-0.53563386
40	0x3ec1a12d	0.3781828
41	0x3eea31c7	0.45741102
42	0xbeeef10b	-0.46668276
43	0xbe1648d4	-0.14676219
44	0xbe8861a9	-0.2663701

net.fc_nn.fc_hidden.1.bias f4 [5]
0	0x3ee80f8d	0.45324364
1	0x3e814865	0.25250545
2	0x3ea4bca8	0.32175183
3	0x3f077274	0.52909017
4	0x3f03f039	0.51538426

net.fc_nn.fc_out.weight f4 [1, 5]
0	0xbf2d4aa4	-0.6769202
1	0xbf3b1d5d	-0.7309168
2	0xbf11786b	-0.5682437
3	0x3f698b12	0.9122783
4	0xbea6f422	-0.32608134
