Lorenz63Dim/L63E3P10/results/nets/net_mytrainedmodelSignatureKernel.pth (torch, 6606 bytes, 11 tensors)

net.gru.weight_ih_l0 f4 [24, 1]
-0.1683918 0.16979459 0.052711047 0.17488629 -0.13968284 -1.5564839 0.7095383 -0.29392993
0.041266643 -0.13535638 0.06145508 0.016674208 0.06275255 0.806108 0.40088287 0.68549937
-0.1985998 -0.32057944 0.12326822 0.21232139 -0.08123612 0.33227736 0.11885271 -0.13691278
00000000: e66e 2cbe a2de 2d3e 8ae7 573d 6415 333e
00000010: 0509 0fbe dd3a c7bf 4da4 353f fc7d 96be
00000020: 3607 293d dd9a 0abe 52b8 7b3d 5998 883c
00000030: 6984 803d 185d 4e3f 8540 cd3e e37c 2f3f
00000040: bf5d 4bbe fd22 a4be 0c74 fc3d c76a 593e
00000050: 1f5f a6bd 4220 aa3e 0d69 f33d dd32 0cbe

net.gru.weight_hh_l0 f4 [24, 8]
0.48002112 0.025585968 -0.13520658 0.668505 0.18192506 0.15746033 0.1809267 0.13767692
-0.034088098 0.052338667 0.69317913 0.29567423 -0.3900824 0.14659265 -0.78552264 0.38578087
-0.6382837 -1.0131795 0.56868833 1.4809983 -1.510353 -0.66346985 -0.20929648 -0.30391848
-1.0615324 -0.7338017 0.24245994 0.37341633 -0.9638347 -0.2410178 -0.24594721 0.1693098
1.4774755 0.8753693 0.025321454 0.32065675 -0.0047036246 -0.5856532 -1.4805274 0.11436974
-0.19532673 -0.1042489 1.3087714 -0.03191217 0.009194799 0.32183596 -0.23096715 0.71738213
-0.8185365 -0.84864736 0.5177335 0.14341365 0.05486347 -0.16084206 -0.2803261 0.9691866
0.44429404 -0.074302666 0.0903294 -0.32014778 0.3789271 -0.32947063 0.4149887 1.0041065
0.47846556 0.5635408 -0.62331843 -0.4340693 -0.395608 0.38168612 0.6383862 -0.39997688
-0.52696437 -0.48140976 -1.0676588 -0.053365577 0.23398943 -0.4168748 1.5632021 -0.938407
-0.47189465 -0.43769312 -0.15723848 0.016259 1.008039 -0.039003 0.0173095 -0.19206196
-1.0483173 -0.51498014 -0.21568897 -0.037731398 1.3010834 0.8346836 0.32467562 -0.6263713
0.14562191 -0.70430976 -0.13063669 -0.8458228 1.3532794 -0.24143887 -0.22814128 -0.10394807
0.022869028 -0.09995734 -0.9895039 0.56483 0.14135705 -0.2679131 -0.20649922 -0.04521616
-0.67905 -0.32985014 0.048766647 -1.0426469 1.0124466 0.46238497 -0.075441554 -0.17251411
-0.18202047 0.43205345 -0.012357928 -0.54562306 0.1402234 0.27788258 -0.7747304 0.55490756
0.4983909 -0.20187542 0.2517104 0.50077057 -0.1479806 -0.2613325 -0.34281343 0.5426032
0.26993704 -0.3240315 -0.06933889 -0.85356456 0.20148234 0.18129896 -0.1406807 0.266378
-0.5353372 -1.1551793 1.037696 0.94361454 -1.1965983 -1.5594581 -0.8334102 0.10246141
-0.45315877 -0.11713694 0.29269776 0.3268739 -1.5596734 -0.24905512 -0.5231916 -0.024159452
0.248623 -0.507011 -0.085431054 -0.12071809 -0.05711628 -0.34073085 0.932248 -0.47071856
0.44139996 0.668778 -0.17635827 -0.20006035 0.86945283 0.13964438 -0.49794644 0.5115994
0.88252956 1.6047493 -0.54803956 0.70527726 0.1462984 -0.55854833 0.3232999 -0.97221535
1.0544701 0.39214325 -0.076486595 -0.45055664 0.4516931 -0.09227127 -0.23918203 0.10634857
00000000: 54c5 f53e aa99 d13c 9873 0abe 2523 2b3f
00000010: 904a 3a3e 483d 213e d944 393e 2efb 0c3e
00000020: f69f 0bbd 1261 563d 3074 313f 9d62 973e
00000030: e1b8 c7be 621c 163e 0318 49bf 1285 c53e
00000040: 9066 23bf deaf 81bf 8f95 113f 5a91 bd3f
00000050: 3f53 c1bf 29d9 29bf d151 56be 349b 9bbe
00000060: 4be0 87bf 6eda 3bbf 6b47 783e 6d30 bf3e
00000070: dfbd 76bf 5fcd 76be 96d9 7bbe 8c5f 2d3e
00000080: eb1d bd3f 3418 603f f06e cf3c 1f2d a43e
00000090: dd20 9abb 5eed 15bf ec81 bdbf af3a ea3d
000000a0: bb03 48be 7380 d5bd d285 a73f 56b6 02bd
000000b0: c8a5 163c afc7 a43e a782 6cbe 5ba6 373f
000000c0: 9c8b 51bf f440 59bf 2f8a 043f 07db 123e
000000d0: 85b8 603d c8b3 24be e786 8fbe 9d1c 783f
000000e0: 827a e33e ff2b 98bd 9ffe b83d 69ea a3be
000000f0: bc02 c23e 60b0 a8be 6679 d43e 9086 803f
00000100: 70f9 f43e 3644 103f cc91 1fbf 553e debe
00000110: 228d cabe 5d6c c33e 476d 233f c5c9 ccbe
00000120: 23e7 06bf 577b f6be 0ba9 88bf dd95 5abd
00000130: ed9a 6f3e 9d70 d5be 0217 c83f 713b 70bf
00000140: 2d9c f1be 5019 e0be 2003 21be 9831 853c
00000150: 6c07 813f 9cc1 1fbd a7cc 8d3c e4ab 44be
00000160: 432f 86bf bdd5 03bf 92dd 5cbe 3d8c 1abd
00000170: e789 a63f d3ad 553f e23b a63e df59 20bf
00000180: e91d 153e a54d 34bf a0c5 05be d887 58bf
00000190: 4238 ad3f c03b 77be de9d 69be bae2 d4bd
000001a0: d457 bb3c 6fb6 ccbd 2150 7dbf b398 103f
000001b0: e7bf 103e e82b 89be 8874 53be 9534 39bd
000001c0: 39d6 2dbf 1ee2 a8be 89bf 473d 7475 85bf
000001d0: da97 813f b9bd ec3e 1a81 9abd 8aa7 30be
000001e0: 9363 3abe 1c36 dd3e e878 4abc f4ad 0bbf
000001f0: b996 0f3e a046 8e3e bb54 46bf 6c0e 0e3f
00000200: 182d ff3e 6eb8 4ebe 30e0 803e 8032 003f
00000210: 3a88 17be 60cd 85be 3e85 afbe 0be8 0a3f
00000220: 3035 8a3e 75e7 a5be 8c01 8ebd 3583 5abf
00000230: 6351 4e3e 6fa6 393e 9a0e 10be b262 883e
00000240: dc0b 09bf eadc 93bf 39d3 843f b990 713f
00000250: 222a 99bf 539c c7bf 5f5a 55bf 4ad7 d13d
00000260: 6d04 e8be 7ee5 efbd 7bdc 953e 045c a73e
00000270: 61a3 c7bf 4e08 7fbe e2ef 05bf 0bea c5bc
00000280: 0797 7e3e 79cb 01bf 7af6 aebd 0c3b f7bd
00000290: c3f2 69bd 4674 aebe cea7 6e3f 0602 f1be
000002a0: 2dff e13e 0935 2b3f 4397 34be 9fdc 4cbe
000002b0: 7694 5e3f f0fe 0e3e d6f2 febe 2ef8 023f
000002c0: 75ed 613f 6d68 cd3f 524c 0cbf 0d8d 343f
000002d0: 3fcf 153e 06fd 0ebf 9187 a53e 1be3 78bf
000002e0: e0f8 863f 00c7 c83e 01a5 9cbd 5caf e6be
000002f0: 5144 e73e b8f8 bcbd 22ec 74be 47cd d93d

net.gru.bias_ih_l0 f4 [24]
-0.11220342 0.55286384 0.45905167 0.37272716 0.42015472 0.44181457 0.3216497 -0.08503329
0.09903069 -1.0292512 -0.46288678 -0.39373016 -0.0726238 0.13420734 -0.18959261 0.46024784
0.6870402 0.17658213 0.80442834 0.24500386 -0.8354996 0.0082530975 -0.27931058 0.07513059
00000000: e8ca e5bd 7c88 0d3f d208 eb3e 18d6 be3e
00000010: 851e d73e 8535 e23e 45af a43e ef25 aebd
00000020: 9ad0 ca3d 81be 83bf 7fff ecbe 0097 c9be
00000030: c9bb 94bd a66d 093e 9124 42be 9ba5 eb3e
00000040: dee1 2f3f f2d1 343e 04ef 4d3f 4be2 7a3e
00000050: 4de3 55bf 0038 073c cc01 8fbe 11de 993d

net.gru.bias_hh_l0 f4 [24]
0.019590028 0.69655704 0.63641304 0.14625475 0.35932198 0.27343526 0.35171708 -0.18893224
-0.13527067 -0.50755423 -0.2750065 -0.33763996 -0.06865514 0.13329934 -0.49887997 0.6024596
0.3440196 0.3011936 1.3653519 0.39114463 -0.74559516 -0.017842185 -0.6173618 0.028675625
00000000: 447b a03c 9051 323f f7eb 223f cec3 153e
00000010: 0df9 b73e b5ff 8b3e 4314 b43e 7477 41be
00000020: 6584 0abe 13ef 01bf a7cd 8cbe 25df acbe
00000030: 119b 8cbd 9f7f 083e 326d ffbe cb3a 1a3f
00000040: 5623 b03e 0c36 9a3e dac3 ae3f 1c44 c83e
00000050: 53df 3ebf c629 92bc 6c0b 1ebf 25e9 ea3c

net.fc_nn.fc_in.weight f4 [13, 9]
0.28269026 -0.54940873 0.4540895 0.13099232 -0.14360675 -0.6634691 -0.09154633 0.043319926
-0.12740096 0.08131253 0.44299307 0.705448 0.2679184 -0.15389673 0.435832 -0.5110306
0.6010298 0.26283863 -0.2863525 0.52642775 0.36715248 0.43382746 -0.37694412 0.20877041
-0.5301806 0.4440566 0.5376063 0.29387018 -0.8310134 0.86047316 0.4554102 -0.76870286
-0.46408835 0.09517904 0.40002757 0.4372772 0.6002235 -0.47311804 0.3644007 0.46242207
-0.0935287 -0.56271666 -0.24795161 0.3819704 -0.5000732 -0.34120914 0.6314665 0.07791648
0.1537169 -0.029394662 0.16293404 -0.363819 0.38612667 0.41003358 0.012942966 0.11439987
-0.0416664 0.018298546 0.40933612 -0.18074895 0.26309985 -0.16095348 0.021788364 0.087874584
0.13765404 0.23020968 0.0044964775 -0.15873136 0.02500253 -0.49691603 0.4250303 0.5040209
0.50062054 0.47986576 0.022788903 0.17804798 -0.15893644 0.51539236 -0.4989605 0.024757471
0.38506404 0.3860373 -0.24035878 0.5222354 0.057621025 -0.14022245 -0.46242496 -0.16611168
0.0757921 -0.4963762 -0.7408371 -0.35290936 -0.38605928 0.35895368 -0.72531813 -0.48383495
-0.2307396 -0.27316925 0.87190783 0.32349047 -0.19926508 0.6879191 0.67406726 -0.5670508
-0.11625374 -0.2507959 0.65712726 0.49996358 -0.07424784 0.07951314 0.3484978 0.51748645
-0.23819704 0.27319026 -0.42284888 0.2848077 0.3878919
00000000: c7bc 903e 0da6 0cbf 6b7e e83e da22 063e
00000010: a60d 13be 1cd9 29bf a47c bbbd 3c70 313d
00000020: 6675 02be 2f87 a63d fdcf e23e 3d98 343f
00000030: 9a2c 893e 1b97 1dbe 5f25 df3e e7d2 02bf
00000040: 17dd 193f c992 863e cb9c 92be f8c3 063f
00000050: 69fb bb3e a21e de3e d2fe c0be e9c7 553e
00000060: eab9 07bf 635b e33e 91a0 093f 2776 963e
00000070: 4bbd 54bf f847 5c3f 872b e93e b6c9 44bf
00000080: fd9c edbe 3bed c23d 6ad0 cc3e cce2 df3e
00000090: 3fa8 193f 873c f2be bb92 ba3e 96c2 ec3e
000000a0: fa8b bfbd 330e 10bf 07e7 7dbe a091 c33e
000000b0: cc04 00bf f7b2 aebe caa7 213f ad92 9f3d
000000c0: f767 1d3e 13cd f0bc 2ed8 263e 7c46 babe
000000d0: 65b2 c53e ecef d13e bc0e 543c 7b4a ea3d
000000e0: 63aa 2abd d5e6 953c 8194 d13e 4116 39be
000000f0: 06b5 863e fdd0 24be 837d b23c 97f7 b33d
00000100: 2ef5 0c3e 16bc 6b3e 3057 933b 798a 22be
00000110: 1bd2 cc3c c76b febe 929d d93e 8407 013f
00000120: ab28 003f f7b0 f53e cbaf ba3c 3652 363e
00000130: 3cc0 22be c1f0 033f c077 ffbe 2ed0 ca3c
00000140: 1d27 c53e aea6 c53e 9d20 76be 38b1 053f
00000150: 0604 6c3d 7996 0fbe f7c2 ecbe 2e19 2abe
00000160: e338 9b3d 0525 febe 80a7 3dbf 89b0 b4be
00000170: 90a9 c5be c7c8 b73e 73ae 39bf 37b9 f7be
00000180: 0047 6cbe d7dc 8bbe 5a35 5f3f 8ba0 a53e
00000190: 250c 4cbe 771b 303f ac8f 2c3f 3e2a 11bf
000001a0: 7116 eebd 5268 80be 7e39 283f 3afb ff3e
000001b0: 400f 98bd c9d7 a23d 4e6e b23e fe79 043f
000001c0: ede9 73be 98df 8b3e a67f d8be 51d2 913e
000001d0: c499 c63e

net.fc_nn.fc_in.bias f4 [13]
0.5742873 0.37030685 -0.14877982 0.89234453 0.0003730255 0.2318214 -0.2904999 -0.09122022
0.058817938 0.15617593 0.103308395 0.45447195 0.13588777
00000000: 7e04 133f dc98 bd3e bd59 18be b170 643f
00000010: a392 c339 9762 6d3e 67bc 94be abd1 babd
00000020: 14eb 703d 95ec 1f3e 5a93 d33d 8cb0 e83e
00000030: 2a26 0b3e

net.fc_nn.fc_hidden.0.weight f4 [9, 13]
0.817962 0.1715988 0.46720925 1.0843619 0.8767066 -0.09327099 -0.20163985 0.43195602
0.3245354 0.65330464 0.26001358 1.1929064 1.0575135 0.03575226 0.16134508 0.55151796
-0.15523842 -0.21390042 0.54975915 -0.29375494 0.07719514 0.31659153 -0.1939385 0.7135088
0.1764654 0.48049232 -0.32969138 0.52931064 0.28825822 0.25739837 -0.5241077 0.50046235
-0.2501078 0.51776046 0.53609264 -0.51028794 0.79655224 0.29432908 0.4894468 -0.32117817
0.51771134 0.5921531 0.2628587 -0.6223511 0.5802277 0.1051726 0.3926194 0.19516373
-0.49602127 0.7991304 0.4141265 0.6659667 -0.6261719 -0.40865514 -0.7794042 -0.6156167
-0.5326587 -0.062299848 0.17864457 -0.63939494 -0.027318858 -0.29181218 -1.124252 -0.9239151
-0.34158894 0.62679535 0.25284147 -0.12018707 0.20310128 0.49910533 -0.2854771 -0.3145402
-0.28915542 0.04215321 0.37914577 -1.0168016 0.37122327 0.025865559 0.021944778 0.6091615
0.3227899 -0.10514422 -0.59077924 0.412586 -0.15028024 0.17091958 0.482615 -0.38240793
1.1182144 0.5091902 0.19425914 0.67654103 0.30784422 -0.21134569 0.44017515 0.4894589
-0.1423451 0.02595716 -0.3017183 -0.036391113 0.5013091 -0.8662116 0.23146082 -0.19008219
-0.2826562 0.4498139 0.43153155 0.14709099 -0.5925672 0.29180694 -0.27530536 0.29789433
0.5125084 -0.5689669 1.2673484 0.57863283 0.1898799
00000000: f565 513f 99b7 2f3e 0d36 ef3e 5fcc 8a3f
00000010: d86f 603f dc04 bfbd ad7a 4ebe 5729 dd3e
00000020: 8129 a63e f93e 273f 8020 853e 28b1 983f
00000030: 9a5c 873f f670 123d a537 253e 4830 0d3f
00000040: d2f6 1ebe b608 5bbe 04bd 0c3f 0c67 96be
00000050: 7c18 9e3d 4918 a23e d097 46be 83a8 363f
00000060: 59b3 343e 1703 f63e 4fcd a8be e780 073f
00000070: 9596 933e b8c9 833e ec2b 06bf 4d1e 003f
00000080: 210e 80be f38b 043f 5e3d 093f 3ba2 02bf
00000090: d9ea 4b3f 4db2 963e c598 fa3e 7771 a4be
000000a0: bb88 043f 5897 173f 6a95 863e 6752 1fbf
000000b0: cd89 143f bb64 d73d 6905 c93e 00d9 473e
000000c0: 80f6 fdbe cf93 4c3f 6308 d43e cb7c 2a3f
000000d0: cd4c 20bf 3f3b d1be 0987 47bf 0e99 1dbf
000000e0: 525c 08bf 202e 7fbd 9aee 363e 63af 23bf
000000f0: cccb dfbc 6868 95be 7de7 8fbf b385 6cbf
00000100: bfe4 aebe a975 203f 7074 813e a324 f6bd
00000110: c8f9 4f3e bc8a ff3e 0e2a 92be 6a0b a1be
00000120: 2e0c 94be d8a8 2c3d 651f c23e 8e26 82bf
00000130: fa10 be3e 02e4 d33c 89c5 b33c 02f2 1b3f
00000140: b844 a53e da55 d7bd 4f3d 17bf 793e d33e
00000150: 10e3 19be 8b05 2f3e 5019 f73e f9ca c3be
00000160: a621 8f3f 4a5a 023f deeb 463e cb31 2d3f
00000170: c29d 9d3e 016b 58be a35e e13e 5b9a fa3e
00000180: eac2 11be 1ca4 d43c d27a 9abe d90e 15bd
00000190: cb55 003f 0bc0 5dbf 1104 6d3e e8a4 42be
000001a0: 50b8 90be 024e e63e b4f1 dc3e 059f 163e
000001b0: 7cb2 17bf b867 953e d3f4 8cbe 9b85 983e
000001c0: c033 033f d1a7 11bf 7938 a23f 4821 143f
000001d0: e06f 423e

net.fc_nn.fc_hidden.0.bias f4 [9]
0.81148064 0.33970395 0.45266885 0.104039006 -0.43494305 0.034330413 0.20398705 0.2862967
0.20164227
00000000: 32bd 4f3f aded ad3e 36c4 e73e 6712 d53d
00000010: dbb0 debe 0c9e 0c3d fbe1 503e 7b95 923e
00000020: 507b 4e3e

net.fc_nn.fc_hidden.1.weight f4 [5, 9]
0.014022372 0.6145651 0.74155694 0.52676743 -0.58397645 -0.06113779 0.47054166 -0.2643615
0.75288576 0.14755252 0.24577878 0.7673144 0.48780355 -0.26628423 -0.5069637 0.24981774
-0.044995416 0.75045836 0.37851056 0.10308438 0.6474373 0.6029445 -0.300229 -0.6247421
0.7015348 -0.45292094 0.17023437 0.23109677 0.5913713 0.55443555 0.56986433 -0.30901763
-0.33430493 0.39915276 -0.47025248 0.13196218 0.9025886 -0.12770541 -0.08977216 -0.18865052
-0.56880194 0.6187434 -0.24250288 0.7980446 -0.35053894
00000000: 17be 653c 2354 1d3f add6 3d3f 3bda 063f
00000010: 7b7f 15bf 9f6b 7abd d6ea f03e 645a 87be
00000020: 1fbd 403f 0218 173e 6fad 7b3e b76e 443f
00000030: 63c1 f93e 6856 88be 5fc8 01bf 39d0 7f3e
00000040: 1d4d 38bd 0a1e 403f 23cc c13e e71d d33d
00000050: 73be 253f 925a 1a3f 9eb7 99be 19ef 1fbf
00000060: c997 333f 41e5 e7be eb51 2e3e a2a4 6c3e
00000070: 1c64 173f 7def 0d3f a1e2 113f 8f37 9ebe
00000080: 042a abbe c05d cc3e efc4 f0be 1821 073e
00000090: 0c10 673f 35c5 02be 77da b7bd 9a2d 41be
000000a0: 019d 11bf f865 1e3f ad52 78be a74c 4c3f
000000b0: d779 b3be

net.fc_nn.fc_hidden.1.bias f4 [5]
0.5287551 0.10653759 0.07822339 0.5765556 0.7558606
00000000: 7f5c 073f 6130 da3d 9633 a03d 2699 133f
00000010: 1580 413f

net.fc_nn.fc_out.weight f4 [1, 5]
-0.6550108 -0.42683786 -0.7539476 -0.36903742 0.81779975
00000000: caae 27bf 7e8a dabe b602 41bf 79f2 bcbe
00000010: 535b 513f
