Lorenz63Dim/L63E3P10/results/nets/net_mytrainedmodelEnergyScore.pth (torch, 6554 bytes, 11 tensors)

net.gru.weight_ih_l0 f4 [24, 1]
0	0xbe41f08d	-0.18939419
1	0xbf2410da	-0.64088213
2	0x3ebb87e3	0.3662711
3	0x3dc1813a	0.09448476
4	0x3ec5bac2	0.38619047
5	0xbe175648	-0.14779007
6	0xbe5740f9	-0.21020879
7	0xbf7cafff	-0.9870605
8	0x3e34cfee	0.17657444
9	0xbd599c36	-0.05312749
10	0x3d9872bb	0.07443758
11	0x3d55fe8f	0.05224472
12	0xbed8b4f6	-0.42325562
13	0x3e3b3367	0.18281327
14	0xbdb80db5	-0.089869894
15	0x3e769761	0.24081184
16	0x3e4f3407	0.2023469
17	0xbf88ab95	-1.0677363
18	0xbe77f903	-0.24216084
19	0xbe6c4fdd	-0.2307734
20	0xbec32b24	-0.3811885
21	0xbdb885b2	-0.09009875
22	0xbed011ee	-0.4063868
23	0x3ee3c065	0.44482723

net.gru.weight_hh_l0 f4 [24, 8]
0	0x3efb9b9a	0.49142152
1	0xbe8aa39e	-0.27077955
2	0x3e8a1106	0.26966113
3	0xbd4f339b	-0.050586324
4	0xbeb9bd92	-0.36277443
5	0xbf181d9f	-0.594202
6	0xbfb2a359	-1.39561
7	0x3f570753	0.8399555
8	0xbdc05167	-0.09390526
9	0x3f593d00	0.84858704
10	0x3f9b72b9	1.2144386
11	0xbe7e77a3	-0.24850325
12	0x3e2ad884	0.16684157
13	0x3e67b067	0.22625886
14	0xbf03785b	-0.5135552
15	0xbf8e6111	-1.1123372
16	0x3fe6f492	1.8043387
17	0xbf3ad5f6	-0.7298273
18	0x3dcfb315	0.10141579
19	0xbf6d3f74	-0.92674947
20	0xbf6f3f84	-0.9345629
21	0xbd791de4	-0.06081952
22	0xc009fbea	-2.1560006
23	0xbef5a2e5	-0.4797584
24	0xbf216c67	-0.63056034
25	0xbeda92e2	-0.42690188
26	0xbdedefe8	-0.11618024
27	0xbdb52641	-0.08845187
28	0x3e207a8d	0.1567175
29	0xbe0c2376	-0.13685402
30	0x3f651fb5	0.89501506
31	0x3cc62c2c	0.024190985
32	0x3ecd648e	0.4011578
33	0x3e87de1f	0.26536652
34	0x3f3d5ebe	0.7397269
35	0xbda21131	-0.07913435
36	0xbcc8b784	-0.02450157
37	0xbea4452d	-0.32084027
38	0xbe8cbd57	-0.27488205
39	0xbe899a89	-0.26875713
40	0x3feb7a07	1.8396615
41	0xbed29efd	-0.41136923
42	0xbec6979f	-0.38787553
43	0xbf1b612a	-0.60695136
44	0xbf3b5e80	-0.7319107
45	0x3e55e627	0.20888577
46	0xc01c5862	-2.4428945
47	0x3f126eca	0.572003
48	0x3f672697	0.9029326
49	0x3cf4a678	0.029864535
50	0xbed36f5b	-0.41295895
51	0xbe4ed449	-0.20198168
52	0x3e1df02b	0.15423648
53	0xbf7149c9	-0.9425321
54	0xbdb224c4	-0.08698419
55	0xbe3f1eb9	-0.18664064
56	0xbf3194fb	-0.6936795
57	0x3ed34e4f	0.41270682
58	0x3ecb8e8d	0.39757195
59	0x3f071b06	0.5277561
60	0x3f0d8791	0.5528498
61	0x3f2ff6fe	0.68736255
62	0x3f3c8c81	0.7365189
63	0xbf968ac1	-1.1761094
64	0x3f3e4cfc	0.7433622
65	0xc0073680	-2.1127014
66	0xbfb11b3e	-1.3836439
67	0xbfd5d1f5	-1.6704699
68	0xc0065d48	-2.0994434
69	0x3f1282d2	0.57230866
70	0xbfa8d85f	-1.3191031
71	0x3ff63965	1.9236265
72	0xbf0e944d	-0.5569504
73	0x3e9c9bf8	0.30587745
74	0xbf377ac8	-0.71671724
75	0x3dcc4918	0.09974879
76	0x3e90bdae	0.28269714
77	0x3f4239fb	0.7586972
78	0x3f3d9308	0.74052477
79	0xbeca03d4	-0.39456046
80	0xbdabfc1d	-0.08397696
81	0xbf003b58	-0.5009055
82	0xbfca653c	-1.5812144
83	0xbfb4ddab	-1.4130148
84	0xbef7440e	-0.4829411
85	0x3e8bc6fd	0.27300254
86	0x3f5db121	0.865984
87	0x3f2fff26	0.687487
88	0x3d3f8a75	0.046762902
89	0xbe634aaf	-0.22196458
90	0xbf3c78f7	-0.7362208
91	0x3e08a84f	0.13345455
92	0xbea721c6	-0.32642955
93	0x3f6b72a6	0.91971815
94	0x3ee02a24	0.4378215
95	0x3f5e44a5	0.86823493
96	0xbed21d12	-0.41037804
97	0x3e048175	0.12940009
98	0xbf0b5205	-0.54422027
99	0x3dd974f8	0.10618013
100	0xbeac8641	-0.33696178
101	0x3faddc6e	1.3582895
102	0x3ed625be	0.4182567
103	0x3f5b4fd7	0.856687
104	0xbea06180	-0.31324387
105	0xbec35c9e	-0.381566
106	0xbd6981d4	-0.05700858
107	0xbdc30c2d	-0.09523807
108	0x3da38acd	0.079854585
109	0xbf9bb2b3	-1.216391
110	0x3f6a7fdd	0.91601354
111	0xbcccab63	-0.024984067
112	0xbf8adf13	-1.0849327
113	0x3fa16bb1	1.261099
114	0xbe30ed25	-0.17277963
115	0xbdd7b144	-0.105318576
116	0x3e0e821b	0.13916819
117	0x4019402f	2.3945425
118	0x3eee4af6	0.46541566
119	0xbfb35795	-1.4011103
120	0x3f55e4ac	0.8355205
121	0x3fb2c5c9	1.3966609
122	0xbe0eefc6	-0.13958654
123	0xbe3fa6d3	-0.18715982
124	0x3e49b24e	0.19696924
125	0xbe268ccf	-0.16264652
126	0x3f6c1ac6	0.92228353
127	0xbf9173e6	-1.1363494
128	0xbf3f47d5	-0.7471898
129	0xbf2da67d	-0.67832166
130	0x3e8cde04	0.27513134
131	0x3e61833a	0.22022715
132	0xbf04efcf	-0.5192842
133	0xbf8cb6c4	-1.0993276
134	0xbea4ae3d	-0.32164183
135	0x3edfcf7a	0.4371298
136	0xbf6bdf72	-0.92137825
137	0x3e14d362	0.14533761
138	0xbf786fb5	-0.9704545
139	0x3f8b60b2	1.0888884
140	0x3f69e1e6	0.9136032
141	0x3ebfaf4c	0.37438428
142	0x3f6a4d29	0.9152399
143	0x3f43907f	0.7639236
144	0xbf3f1984	-0.7464831
145	0xbd888c0a	-0.06667335
146	0xbf5605e5	-0.83602744
147	0x3ef6956c	0.48160875
148	0x3f504709	0.8135839
149	0x3f087b43	0.5331308
150	0x3fa8fde4	1.3202481
151	0x3f500cfe	0.81269825
152	0x3e54c76c	0.20779198
153	0xbdd9466d	-0.10609136
154	0xbede961b	-0.43473896
155	0xbf250104	-0.64454675
156	0x3d6ea6cf	0.05826455
157	0xbf108d9c	-0.5646608
158	0xbeea3212	-0.45741326
159	0xbe522a73	-0.20524006
160	0xbded9173	-0.11600008
161	0xbf63e322	-0.8901845
162	0xbf22bdca	-0.63570845
163	0xbf0a116b	-0.5393283
164	0xbf2907eb	-0.66027707
165	0x3e084faa	0.1331164
166	0xbf22a23a	-0.6352879
167	0x3f8c7371	1.097273
168	0x3e5ce692	0.2157233
169	0x3fb4ff94	1.4140496
170	0xbe9f47b5	-0.31109396
171	0x3f715a79	0.94278675
172	0x3f93cbc7	1.1546563
173	0x3f54597e	0.82949054
174	0x3d7df894	0.06200464
175	0xbe2b7cd7	-0.16746841
176	0xba97bba8	-0.0011576312
177	0xbedcbc6a	-0.431125
178	0xbd8d44db	-0.06897899
179	0xbf0114be	-0.50422275
180	0xba160e81	-0.0005724207
181	0xbe7dc5ca	-0.24782482
182	0xbf5e4075	-0.86817104
183	0x3e0394b4	0.12849694
184	0xbeb17651	-0.3466058
185	0x3f15e226	0.585482
186	0x3e5c00f4	0.21484739
187	0x3d896981	0.067095764
188	0xbd8eecd7	-0.06978767
189	0xbe500c2d	-0.20317145
190	0xbda13d51	-0.07873023
191	0xbf2c26e6	-0.67246854

net.gru.bias_ih_l0 f4 [24]
0	0xbecdaa47	-0.40168974
1	0xbf018182	-0.5058824
2	0x3dea1759	0.114302345
3	0x3e6ee89b	0.2333092
4	0x3f170f33	0.5900757
5	0x3f304a2b	0.6886317
6	0x3f5438b2	0.8289901
7	0xbe48b755	-0.19601186
8	0xbf03f791	-0.5154963
9	0xbfad0694	-1.3517632
10	0xbf2c3182	-0.6726304
11	0xbf40c44a	-0.75299513
12	0xbf2a10be	-0.66431797
13	0xbf8953b4	-1.0728669
14	0xbf8ceb34	-1.1009278
15	0xbe8e1932	-0.27753597
16	0x3ee808ea	0.453193
17	0xbebcc87b	-0.36871704
18	0xbeae3834	-0.34027255
19	0x3dcf6bba	0.10127969
20	0x3e552165	0.2081352
21	0xbefa8463	-0.48929128
22	0xbe4ac29f	-0.19800805
23	0x3f4b42ce	0.7939881

net.gru.bias_hh_l0 f4 [24]
0	0xbeb4a979	-0.35285547
1	0xbe9f6f35	-0.31139532
2	0x3e48f3e7	0.19624291
3	0xbd11e2a4	-0.035616532
4	0x3e7c3da3	0.24632888
5	0x3e95a550	0.29227686
6	0x3f803c06	1.0018318
7	0xbd772f64	-0.06034793
8	0xbeb18987	-0.34675238
9	0xbfccfad3	-1.6014045
10	0xbedccdae	-0.4312567
11	0xbf3b54d4	-0.7317631
12	0xbdddf1db	-0.10837146
13	0xbf846eba	-1.0346291
14	0xbfa3684f	-1.2766207
15	0xbf4ba69e	-0.7955111
16	0x3e9c667b	0.30546936
17	0x3e2e502e	0.17022774
18	0xbf4fd1cd	-0.81179506
19	0xbec1c6b3	-0.37846908
20	0x3eaee7dd	0.34161273
21	0x3e5f7bc9	0.21824564
22	0xbd43c810	-0.047798216
23	0xbea5a8af	-0.32355258

net.fc_nn.fc_in.weight f4 [13, 9]
0	0x3ebf9379	0.374172
1	0xbe83e01e	-0.25756925
2	0x3f087364	0.5330107
3	0xbe96c7bd	-0.29449263
4	0x3f56c239	0.8389011
5	0xbec82236	-0.390886
6	0xbf895d40	-1.0731583
7	0xbe0b2757	-0.13589226
8	0xbf543c47	-0.82904476
9	0x3f21256f	0.62947744
10	0xbe632cb8	-0.22185028
11	0x3c814c80	0.015783548
12	0xbeb5a24c	-0.35475385
13	0xbe95236a	-0.2912858
14	0xbf4c6650	-0.79843616
15	0xbef48bcb	-0.47762904
16	0xbec1d5c4	-0.37858403
17	0x4017d27d	2.3722222
18	0xbfd916a0	-1.696003
19	0x3e8e0e57	0.27745315
20	0x3d9fbce3	0.07799699
21	0x3f2cf255	0.6755727
22	0x3f473ff8	0.77831984
23	0x3facf247	1.3511437
24	0xbe807b99	-0.25094298
25	0xbf232a53	-0.63736457
26	0x3f6ab7d9	0.9168678
27	0xbe610228	-0.21973479
28	0x3efb8893	0.49127635
29	0xbe7fd25e	-0.24982592
30	0x3ea8a284	0.3293649
31	0xbe359142	-0.17731193
32	0xbe8d4e62	-0.27598864
33	0xbe8610f3	-0.26184806
34	0xbe132381	-0.14369012
35	0x3f4925e5	0.7857345
36	0x3ef3fbd9	0.47653082
37	0x3ef7d5d9	0.4840534
38	0x3e9ceeea	0.30651027
39	0xbe18a3fe	-0.14906308
40	0xbc240d4e	-0.010012938
41	0xbe92f16b	-0.28699812
42	0xbe7f7aa3	-0.24949126
43	0x3e0f7f22	0.14013341
44	0x3f697f40	0.91209793
45	0x3e8bc198	0.27296138
46	0x3eb08645	0.3447744
47	0x3da78a3e	0.081806645
48	0x3dc36612	0.09540953
49	0xbe80238c	-0.2502712
50	0xbd801942	-0.062548175
51	0xbe1272d3	-0.14301614
52	0xbd05b178	-0.03263995
53	0x3f5a4830	0.852664
54	0xbdc097d4	-0.09403959
55	0xbd2b5838	-0.04183218
56	0x3e3f9598	0.18709409
57	0xbe6aabc6	-0.22917089
58	0xbf137043	-0.5759317
59	0xbe8cce66	-0.2750122
60	0xbe88de50	-0.2673211
61	0x3dd6ccd6	0.10488288
62	0x3f81a054	1.0127053
63	0x3e2f8a61	0.17142631
64	0xbee77b70	-0.45211363
65	0xbe75a534	-0.23988801
66	0xbe423d7f	-0.18968771
67	0xbe30ab67	-0.17252885
68	0xbe70b09c	-0.23504871
69	0xbeeb35cf	-0.4593949
70	0xbca3b899	-0.019985484
71	0xbf82d47a	-1.0221093
72	0xbc5cc199	-0.013473892
73	0xbc881f35	-0.016616443
74	0x3dd82b8d	0.10555182
75	0xbc322c2d	-0.01087479
76	0x3ea24d3c	0.3169955
77	0x3d411f05	0.047148723
78	0xbf0d4670	-0.55185604
79	0xbdef4d57	-0.11684673
80	0xbf79164e	-0.9729966
81	0x3ebf220c	0.37330663
82	0xbf8e4d94	-1.1117425
83	0x3d0de958	0.034646362
84	0xbef61431	-0.4806228
85	0xbf94b771	-1.1618482
86	0xbf33d856	-0.7025198
87	0xbf5f0a2f	-0.87124914
88	0xbe878bd4	-0.26473868
89	0x404177df	3.0229414
90	0x3eb23b5d	0.34810916
91	0x3df8d12e	0.12149273
92	0xbdce03f6	-0.10059349
93	0x3e9d1720	0.30681705
94	0x3f3631b0	0.7116957
95	0xbf35541e	-0.7083148
96	0xbf33b570	-0.70198727
97	0xbea13bff	-0.31491086
98	0xbf77f527	-0.9685845
99	0xbd273b7b	-0.04082821
100	0x3cac1f3b	0.021010986
101	0xbdcc4040	-0.09973192
102	0x3d5ec088	0.05438283
103	0x3e0ef7ab	0.13961665
104	0x3c7130e1	0.014721126
105	0xbeb497bc	-0.35272014
106	0xbe3ad0bf	-0.18243693
107	0x3f22690e	0.6344155
108	0x3f070369	0.5273958
109	0xbe3a35ce	-0.18184587
110	0x3dec1c7b	0.1152887
111	0x3e7b4b53	0.24540453
112	0x3e4fbffd	0.20288081
113	0x3bc75caa	0.0060840445
114	0xbdda5f71	-0.10662735
115	0x3ed033dc	0.40664566
116	0xbf86c696	-1.0529354

net.fc_nn.fc_in.bias f4 [13]
0	0x3e6a55b6	0.22884259
1	0xbe99c6db	-0.30034527
2	0xbedd37cf	-0.4320664
3	0x3e039839	0.12851037
4	0x3eb13e81	0.34618
5	0x3ef13845	0.47113243
6	0xbea07797	-0.3134124
7	0x3ececbb0	0.40389776
8	0xbabde521	-0.0014487841
9	0x3e959755	0.2921702
10	0x3ebecb07	0.37264273
11	0x3e269375	0.16267188
12	0x3f110679	0.566505

net.fc_nn.fc_hidden.0.weight f4 [9, 13]
0	0x3e676066	0.22595367
1	0x3fd2beb6	1.646445
2	0xbf10ae18	-0.56515646
3	0x3f158583	0.5840685
4	0x3f3c43f4	0.7354119
5	0x3f0a0db3	0.53927153
6	0x3eab9e1a	0.3351906
7	0xbe4f5371	-0.20246674
8	0x3ca3a728	0.019977167
9	0x3f3cde1e	0.73776424
10	0x3e785109	0.24249662
11	0x3ee64f54	0.44982398
12	0xbf41cfc9	-0.7570768
13	0x3ea10c1f	0.3145456
14	0xbf4d9206	-0.8030094
15	0xbe9d9086	-0.30774325
16	0x3c8b3fec	0.016998254
17	0xbed28d95	-0.41123644
18	0xbe3039ed	-0.17209597
19	0xbd9c58c4	-0.07634118
20	0x3ec6bac0	0.38814354
21	0x3f1fb159	0.62379986
22	0xbfe01e67	-1.7509278
23	0x3f1b1e53	0.60593146
24	0xbe6fb340	-0.23408222
25	0x3f34da9d	0.7064608
26	0x3f2ce1aa	0.67531836
27	0xbf73309f	-0.94996065
28	0xbeb23454	-0.34805548
29	0xbcab8f88	-0.020942464
30	0x3da90104	0.08252147
31	0xbea10119	-0.3144615
32	0xbeab50c7	-0.33460066
33	0x3ebf2d21	0.37339118
34	0x3e81828b	0.2529491
35	0xc006a9df	-2.104118
36	0x3f521dd5	0.8207677
37	0x3d1710c3	0.03688122
38	0x3f1ddf1b	0.61668557
39	0xbe2443e8	-0.16041529
40	0xbf3791f2	-0.7170707
41	0x3fa08291	1.2539846
42	0x3ee3bc72	0.4447971
43	0xbd3e134b	-0.046405118
44	0x3d180b46	0.037120126
45	0xbed10584	-0.4082452
46	0x3f20f8c5	0.6287959
47	0xbe1bf7bc	-0.15231222
48	0x3e1b9251	0.15192534
49	0xbe8fdf79	-0.28100184
50	0x3e7d37d7	0.24728332
51	0x3f7f8cdb	0.99824303
52	0x3edaed04	0.42758954
53	0x3fa8d5dc	1.3190265
54	0xbfcb891b	-1.5901216
55	0x3f31ff28	0.6952996
56	0x3f4c76a4	0.7986853
57	0x3ef8f8ba	0.48627263
58	0x3ebeab96	0.37240285
59	0xbf12a49f	-0.5728244
60	0x3f0c5853	0.5482227
61	0xbe75341c	-0.2394566
62	0x3f8ac216	1.084048
63	0x3eb6fccf	0.35739753
64	0xbf7f670c	-0.9976661
65	0x3f1dd869	0.6165834
66	0xbf859dee	-1.0438821
67	0xbe9dceb5	-0.30821767
68	0x3dd9b748	0.10630661
69	0xbeb254f7	-0.34830448
70	0xbeeb2d5e	-0.4593305
71	0xbee345cf	-0.44389197
72	0x3ea9192c	0.33027017
73	0x3f355849	0.7083784
74	0xbfdcb4c8	-1.724267
75	0x3f2aa0c1	0.6665154
76	0xbe86459e	-0.2622499
77	0x3f5060a2	0.8139745
78	0x3f3974a0	0.7244358
79	0xbf54d8ce	-0.8314332
80	0xbe77a199	-0.24182738
81	0x3da7ba0a	0.08189781
82	0xbee0ce7d	-0.43907538
83	0xbee7328c	-0.45155752
84	0xbee06f04	-0.43834698
85	0x3eb49309	0.3526843
86	0x3f1853ab	0.5950267
87	0xbfd9a3f8	-1.7003164
88	0x3f377703	0.7166597
89	0x3e6afb24	0.22947365
90	0x3f0ae89c	0.54261184
91	0x3f096afb	0.53678864
92	0xbf73525e	-0.9504756
93	0xbe71eeb3	-0.23626213
94	0xbec1c13e	-0.37842745
95	0xbedf0f3a	-0.43566304
96	0xbe0b984b	-0.13632314
97	0xbe813ab0	-0.25240088
98	0x3e6bdf6d	0.23034449
99	0x3ecc4b7d	0.39901343
100	0xbfdcb942	-1.7244036
101	0x3efd317c	0.49451816
102	0x3dd8c6ba	0.10584779
103	0x3f02ed1a	0.5114304
104	0x3f1e1c33	0.6176178
105	0xbf52a8ea	-0.8228899
106	0xbddc41cf	-0.107547395
107	0xbe90cff3	-0.28283653
108	0xbde0aa6a	-0.10970004
109	0xbe92853d	-0.28617278
110	0xbe0bf7ff	-0.13668822
111	0x3e21fae2	0.1581836
112	0x3e9d5d6a	0.30735332
113	0xbfd3a610	-1.6535053
114	0x3f4476b0	0.767436
115	0x3e9dd1fa	0.30824262
116	0x3f1bac2b	0.6080958

net.fc_nn.fc_hidden.0.bias f4 [9]
0	0x3ef79119	0.48352888
1	0x3e830930	0.25592947
2	0x3e6a3bae	0.22874328
3	0x3ee3d7c3	0.4450055
4	0xbeb80156	-0.3593852
5	0x3ecb017d	0.39649573
6	0x3e717c76	0.23582634
7	0x3ca18bf0	0.019720048
8	0x3dde947f	0.10868167

net.fc_nn.fc_hidden.1.weight f4 [5, 9]
0	0x3f4bb2db	0.79569787
1	0x3d98b8f6	0.074571535
2	0xbe60d00d	-0.21954365
3	0xbe480144	-0.19531733
4	0x3f2fc321	0.6865712
5	0xbe976ec8	-0.29576707
6	0xbea9a18f	-0.33131072
7	0xbdefca79	-0.117085405
8	0x394b17c0	0.00019368436
9	0xbeda9f9b	-0.42699894
10	0x3f45a759	0.7720848
11	0x3f6fc83e	0.9366492
12	0xbf0165b1	-0.50545794
13	0x3f3bc8de	0.73353374
14	0x3f6894e8	0.9085221
15	0x3f5ef781	0.8709641
16	0x3f30f0b6	0.69117296
17	0x3f1c4c80	0.6105423
18	0x3d60b5dc	0.054860935
19	0x3ec67779	0.38763025
20	0x3eb79fc6	0.35864085
21	0x3f9aead4	1.2102914
22	0x3d0ed467	0.03487053
23	0x3e5da9f0	0.21646857
24	0x3eb3c80c	0.3511356
25	0x3e6ad514	0.22932845
26	0x3de65b99	0.112479396
27	0xbe049092	-0.12945774
28	0x3ed07c87	0.40720007
29	0x3f08d611	0.5345164
30	0xbed9eb2f	-0.42562243
31	0x3e95a3a1	0.292264
32	0x3f519c02	0.81878674
33	0x3f0324f2	0.5122825
34	0x3ed31cb1	0.41232827
35	0x3f4bbc87	0.79584545
36	0x3ef59087	0.47961828
37	0xbe29eeb4	-0.16594964
38	0xbdb52773	-0.08845415
39	0xbfd1e24a	-1.6397183
40	0x3f263f81	0.6494065
41	0x3e0014f4	0.12507993
42	0xbea56d7d	-0.32310095
43	0x3e200a3f	0.15628909
44	0xbef505e2	-0.4785605

net.fc_nn.fc_hidden.1.bias f4 [5]
0	0x3ebfea18	0.37483287
1	0x3e71eda5	0.2362581
2	0x3c43ae23	0.011943373
3	0xbe2e451f	-0.17018555
4	0x3f035a4b	0.5130965

net.fc_nn.fc_out.weight f4 [1, 5]
0	0xbf132027	-0.57470936
1	0x3f7b8694	0.98252225
2	0x3e415262	0.18879083
3	0x3f0ae36b	0.5425326
4	0xbf35ea7a	-0.7106091
