Lorenz63Dim/L63E3P5KS/results/nets/net_mytrainedmodelSignatureKernel.pth (torch, 6606 bytes, 11 tensors)

net.gru.weight_ih_l0 f4 [24, 1]
0.25768167 0.31136084 -0.1363855 -0.0995095 -0.7449515 -0.46685064 -0.090740435 1.2502774
-0.17884988 -0.054308183 -0.06813472 0.38344926 0.3804025 -0.060588796 -0.010007687 -0.13987292
0.22611442 -0.47468725 -0.014868245 0.17328027 -1.0598962 0.10950395 -0.38146693 -0.29901132
00000000: daee 833e b06a 9f3e a4a8 0bbe a3cb cbbd
00000010: 24b5 3ebf 0c07 efbe 1fd6 b9bd 1709 a03f
00000020: 6c24 37be 4272 5ebd 378a 8bbd 7653 c43e
00000030: 1ec4 c23e f52b 78bd 48f7 23bc d93a 0fbe
00000040: 8a8a 673e 350a f3be f199 73bc 6270 313e
00000050: aeaa 87bf 9b43 e03d a24f c3be 0318 99be

net.gru.weight_hh_l0 f4 [24, 8]
-0.77077204 -0.27806336 0.009863851 -0.2806396 0.17509976 -0.21460636 0.18392389 -0.100033656
0.5257158 -0.23023352 0.5390007 -0.16138768 0.5198508 -0.31071895 -0.023187634 0.008633186
0.07916461 -0.9961938 0.32368052 -0.4059524 -0.8296126 0.4282152 0.24473637 -0.7374625
1.117232 -0.2234402 -0.34113303 0.1180189 -0.4019371 -0.123658456 -0.27674094 -1.2688141
-0.3693453 0.05534253 -0.35013223 0.71056396 -0.4684916 -0.47569558 0.21103257 -0.17870837
0.030137815 -0.92252195 0.3470434 -0.49138448 -0.34738502 0.4321867 -0.72015905 -0.4308932
-0.33676055 0.21527033 -0.9004908 -0.5077379 -0.37660456 0.75168157 0.1426752 -0.13122293
0.23306589 -0.7485011 0.59597176 -0.15450403 1.7189639 -0.1392038 -0.018546319 -0.542397
-0.0014200696 -0.22553039 0.38651502 0.74541694 0.07258705 -0.40580127 -0.4552299 0.9073799
-0.44468406 0.5088685 0.25563473 0.57892036 -0.17168035 -0.4417893 -0.17158894 0.12418849
0.16313218 0.030314298 0.9037125 1.7506758 -0.96711373 -0.43398857 0.11346619 -0.13808776
-0.24273823 0.6910575 0.3001102 0.5134212 -0.047208663 -0.41746932 1.2271426 0.6515118
-0.20238283 0.2225865 0.23078685 0.99154127 -0.61521596 -0.9380913 0.21273893 0.6100871
-0.5377842 0.6064794 0.21113396 1.1288494 0.17290466 -0.762141 0.12187738 0.3856025
-0.724691 -0.077684835 0.39557073 0.6138592 -0.34216103 -0.36342952 -0.5631603 0.42478228
0.14478183 0.5027828 0.07901743 0.21401976 0.110090874 -0.64727837 0.89954036 -0.037791476
0.17583494 -0.17662181 0.20084707 -0.49989784 0.36245564 -0.18080707 -0.8808774 0.4399578
-0.16485 0.545911 -0.26999468 -0.28674254 -0.23619819 0.20338365 0.6088627 0.34064856
-0.7666055 0.24265526 0.4677609 0.7950623 0.30232143 -0.869536 -1.0912925 0.35058722
-0.7900448 -0.13380213 0.5884131 0.33530176 0.19376792 -0.62806886 -0.116899215 0.96867776
-0.09355033 0.2427444 -0.24114282 -0.024153158 0.21673003 -0.22416142 0.6851598 -0.07756584
0.14977802 0.24309596 0.13216726 -0.41915095 0.4005945 0.10500579 -0.47948894 0.21379812
0.6568443 -0.07735174 0.5150286 -0.00576403 -0.065382905 0.38767868 0.34770763 0.5530294
0.0052782623 -0.6672562 0.70371497 -0.34496605 1.2603161 -0.22241287 -0.034819007 -0.66119266
00000000: 5151 45bf 525e 8ebe fd9b 213c feaf 8fbe
00000010: 5a4d 333e c5c1 5bbe 8b56 3c3e 72de ccbd
00000020: 5095 063f 56c2 6bbe f3fb 093f d042 25be
00000030: f114 053f 8e16 9fbe fef3 bdbc 3572 0d3c
00000040: 0e21 a23d 8f06 7fbf 74b9 a53e fed8 cfbe
00000050: 7e61 54bf 063f db3e 2c9c 7a3e 58ca 3cbf
00000060: 7501 8f3f 82cd 64be fda8 aebe e5b3 f13d
00000070: b3ca cdbe a540 fdbd fdb0 8dbe 8068 a2bf
00000080: d41a bdbe d9ae 623d 8844 b3be 85e7 353f
00000090: 22de efbe 5f8e f3be ec18 583e 54ff 36be
000000a0: 94e3 f63c 662a 6cbf acaf b13e bf96 fbbe
000000b0: 73dc b1be 9347 dd3e 585c 38bf 099e dcbe
000000c0: e16b acbe d36f 5c3e 9186 66bf 1cfb 01bf
000000d0: 50d2 c0be 346e 403f 7319 123e 4e5f 06be
000000e0: d3a8 6e3e c59d 3fbf 9b91 183f 4e36 1ebe
000000f0: 0207 dc3f 718b 0ebe 73ee 97bc 88da 0abf
00000100: a121 baba 70f1 66be 4ce5 c53e a5d3 3e3f
00000110: 85a8 943d 2fc5 cfbe e513 e9be 0d4a 683f
00000120: a1ad e3be 3545 023f 8ee2 823e 2034 143f
00000130: f9cc 2fbe 3532 e2be 03b5 2fbe 8956 fe3d
00000140: 1f0c 273e b155 f83c b459 673f 2516 e03f
00000150: c494 77bf c033 debe f660 e83d e166 0dbe
00000160: 5f90 78be 25e9 303f 0ba8 993e 926f 033f
00000170: df5d 41bd 8abe d5be 0213 9d3f 7ac9 263f
00000180: 723d 4fbe b7ed 633e 6353 6c3e a6d5 7d3f
00000190: cb7e 1dbf c026 70bf 3cd8 593e ab2e 1c3f
000001a0: 3aac 09bf 3c42 1b3f 8033 583e 237e 903f
000001b0: eb0d 313e ac1b 43bf d99a f93d b16d c53e
000001c0: 5985 39bf 3a19 9fbd 3f88 ca3e e025 1d3f
000001d0: bb2f afbe 6f13 babe 462b 10bf 107d d93e
000001e0: b041 143e 60b6 003f e4d3 a13d ff27 5b3e
000001f0: 5377 e13d 09b4 25bf 4748 663f 3ccb 1abd
00000200: 130e 343e 59dc 34be dbaa 4d3e 9cf2 ffbe
00000210: c993 b93e 7d25 39be 2e81 61bf 2642 e13e
00000220: 70ce 28be d3c0 0b3f be3c 8abe ebcf 92be
00000230: f0dd 71be ce43 503e 6dde 1b3f 7d69 ae3e
00000240: 4240 44bf 9f7a 783e 5b7e ef3e 3489 4b3f
00000250: e0c9 9a3e e999 5ebf 79af 8bbf 2b80 b33e
00000260: 6040 4abf 6d03 09be 3ea2 163f acac ab3e
00000270: 196b 463e 1fc9 20bf db68 efbd 44fb 773f
00000280: 5197 bfbd fd91 783e 25ee 76be d8dc c5bc
00000290: 7aee 5d3e 928a 65be a266 2f3f d7da 9ebd
000002a0: 695f 193e 26ee 783e db56 073e f49a d6be
000002b0: b91a cd3e 470d d73d 937f f5be e5ed 5a3e
000002c0: f326 283f 976a 9ebd ead8 033f 30e0 bcbb
000002d0: 79e7 85bd d27d c63e bc06 b23e 5693 0d3f
000002e0: 46f5 ac3b 4dd1 2abf aa26 343f 649f b0be
000002f0: 0a52 a13f 33c0 63be 609e 0ebd ec43 29bf

net.gru.bias_ih_l0 f4 [24]
0.50190544 -0.36093435 0.40614188 -0.007272372 -0.13062418 -0.03535191 1.0100256 -0.2313495
-0.0947539 -0.53228223 -1.4681515 -0.7335959 -0.7583168 -0.108656295 -0.3456651 -0.3445125
0.28945285 -0.23807152 0.071445845 -0.5727406 -0.031049436 0.42263904 -0.3471105 -0.26544836
00000000: e07c 003f 63cc b8be d4f1 cf3e 144d eebb
00000010: 58c2 05be 2acd 10bd 8548 813f e2e6 6cbe
00000020: 550e c2bd a643 08bf 63ec bbbf f1cc 3bbf
00000030: 0d21 42bf 3187 debd 04fb b0be f163 b0be
00000040: 2a33 943e 05c9 73be 3352 923d 219f 12bf
00000050: 635b febc 2564 d83e 78b8 b1be d9e8 87be

net.gru.bias_hh_l0 f4 [24]
0.15535973 -0.16276605 0.4923828 0.24510977 0.2403674 0.27817836 0.56955814 -0.58877015
-0.1662938 -0.8756447 -0.9352633 -0.6199118 -1.1263821 -0.52771324 -0.4836766 0.05556303
-0.10092574 0.057310365 -0.61638373 -0.63313127 -0.12016414 0.6885673 -0.49456576 -0.15925252
00000000: 9f16 1f3e 25ac 26be 9919 fc3e 0efe 7a3e
00000010: df22 763e 656d 8e3e 90ce 113f a4b9 16bf
00000020: ec48 2abe 402a 60bf 6a6d 6fbf 8ab2 1ebf
00000030: 4a2d 90bf 3718 07bf 76a4 f7be 0f96 633d
00000040: 28b2 cebd 46be 6a3d 53cb 1dbf e414 22bf
00000050: 9e18 f6bd f245 303f b937 fdbe 1813 23be

net.fc_nn.fc_in.weight f4 [13, 9]
-0.061560415 0.2214506 -0.04846695 -0.4304091 0.3166242 0.16722998 -0.40485063 -0.4603677
0.49558195 0.12605372 0.26999655 0.097958244 -0.33790377 0.48449108 0.39054388 -0.27632898
-0.5694123 0.30956063 -0.07061603 -0.15747043 -0.34718955 -0.45728213 0.072402224 0.12845628
0.01052488 0.40351826 -0.34634674 0.48556867 -0.24899061 -0.5480123 -0.19808951 -0.05629591
0.6128877 0.1880198 0.08433011 -0.3275647 -0.17961872 0.30628318 -0.02134438 -0.5526642
0.16395405 0.10537329 -0.5618993 -0.23602557 0.39034742 0.3347963 -0.34077513 -0.3257207
-0.33723918 0.24757384 0.37244132 0.30751428 0.38202798 -0.13126208 0.24626072 -0.453325
0.23226853 -0.2607406 0.100870885 -0.23267469 -0.15110737 -0.74846566 0.2687149 0.455001
-0.20298736 0.1458306 -0.07284019 -0.30689555 -0.39222386 0.010947266 -0.76292485 0.32523555
0.70092547 -0.4361143 -0.15348901 -0.31452042 -0.075510815 0.24212871 -0.33922973 0.17875217
-0.85477716 0.3682846 -0.3768982 -0.2068331 0.06068255 -0.22911331 0.10785315 -0.14338796
0.47397074 -0.96896374 0.9913966 -1.3420242 -0.46225637 -0.22329922 -0.3987686 0.4340794
-0.44348466 0.5563451 1.1399381 -0.5113658 0.1850784 -0.1306198 -0.7289325 0.44750237
0.049603947 -0.39779338 0.15107563 0.6361038 -0.17586575 -0.07931989 -0.07588288 -0.32932428
0.06331941 -0.31011984 -0.10357021 -0.32997248 0.1901061
00000000: c626 7cbd f2c3 623e 4885 46bd 955e dcbe
00000010: 911c a23e 563e 2b3e 9548 cfbe 51b5 ebbe
00000020: ebbc fd3e 3a14 013e fd3c 8a3e 559e c83d
00000030: b901 adbe 370f f83e 5ef5 c73e fe7a 8dbe
00000040: 01c5 11bf bb7e 9e3e 239f 90bd ee3f 21be
00000050: d4c2 b1be e220 eabe 9e47 943d 0b8a 033e
00000060: 8c70 2c3c f299 ce3e 5c54 b1be 759c f83e
00000070: 65f7 7ebe 894a 0cbf fad7 4abe 8a96 66bd
00000080: 35e6 1c3f 4388 403e 44b5 ac3d 8fb6 a7be
00000090: f8ed 37be 26d1 9c3e 69da aebc 677b 0dbf
000000a0: 92e3 273e f4cd d73d a2d8 0fbf b0b0 71be
000000b0: 9edb c73e 6c6a ab3e 147a aebe ddc4 a6be
000000c0: 9daa acbe ff83 7d3e a1b0 be3e 8372 9d3e
000000d0: 2c99 c33e 9169 06be c52b 7c3e 371a e8be
000000e0: cdd7 6d3e cb7f 85be 6595 ce3d 4642 6ebe
000000f0: e4bb 1abe 729b 3fbf 0095 893e e4f5 e83e
00000100: ebdb 4fbe 9e54 153e 3d2d 95bd 6a21 9dbe
00000110: 91d1 c8be 295c 333c 0b4f 43bf 4685 a63e
00000120: da6f 333f 604a dfbe 392c 1dbe d208 a1be
00000130: 6aa5 9abd 97f0 773e 85af adbe cf0a 373e
00000140: add2 5abf cd8f bc3e cdf8 c0be 0ecc 53be
00000150: 448e 783d ae9c 6abe 1de2 dc3d 4bd4 12be
00000160: 4bac f23e 020e 78bf 2bcc 7d3f 73c7 abbf
00000170: deac ecbe 8da8 64be 662b ccbe a83f de3e
00000180: 6c10 e3be a26c 0e3f 7ee9 913f dee8 02bf
00000190: 3185 3d3e 32c1 05be 529b 3abf 081f e53e
000001a0: 822d 4b3d 93ab cbbe 92b3 1a3e b3d7 223f
000001b0: 2716 34be 7772 a2bd 7c68 9bbd 319d a8be
000001c0: 9bad 813d 07c8 9ebe 9e1c d4bd 27f2 a8be
000001d0: 2cab 423e

net.fc_nn.fc_in.bias f4 [13]
0.3800129 0.15966786 0.39642033 0.16051543 0.10778052 0.5616615 0.2842566 0.32535723
0.097178645 0.06983804 -0.017327132 0.6969587 0.4627429
00000000: 0d91 c23e f97f 233e 9bf7 ca3e 285e 243e
00000010: 09bc dc3d 0cc9 0f3f 158a 913e 3995 a63e
00000020: 9905 c73d 3f07 8f3d a1f1 8dbc e36b 323f
00000030: a3ec ec3e

net.fc_nn.fc_hidden.0.weight f4 [9, 13]
-0.14313056 -0.76425546 0.5531063 0.45373982 -0.5363009 0.54184604 -0.17983136 -0.42757618
0.8067107 0.71560293 0.5619159 0.31516284 -0.14979436 -0.057146184 -0.66677904 0.5984122
0.7991236 -0.4148787 0.7082363 -0.16740765 -0.05123909 0.77926695 0.76141804 0.3641565
0.17363562 0.0021486653 -0.28171307 0.6420343 -1.2639625 -0.233202 -0.7676646 -0.9150517
0.90498686 1.0161098 0.68839496 0.39714408 -0.73500633 -2.1201122 0.09243871 -0.68428254
-0.8696394 -0.45924422 0.066964485 0.16085348 -0.9122517 -0.6861801 -0.72110593 0.86001045
1.6313986 -0.96648616 -1.1364084 -0.5328767 0.42430487 0.2371093 -0.22419855 0.07385248
0.6881939 0.16065967 0.4887378 0.58183986 -0.6144461 -0.56713057 0.21802793 0.18763532
0.61721015 0.53456956 0.694667 -0.18297285 -0.17119487 0.38788077 0.10072146 0.57478166
0.8122263 -0.509002 -0.53215796 0.30111492 0.59446126 0.3109389 0.4520078 0.18281296
0.17532787 0.057303026 0.35958356 0.18447256 0.16502117 0.56524384 -0.43001524 -0.7658735
0.63799465 0.8473137 0.38752866 0.22925362 0.36536852 -0.3351692 -0.021326978 0.42889485
0.074426204 0.66655755 0.46517545 -0.3936744 -0.64067984 0.31611204 0.598225 0.5673456
-0.23908141 -0.4835312 0.41687182 0.52603227 -0.8433377 0.31797746 -0.4286874 -0.95414555
0.820192 1.5231284 0.72525215 -0.29406938 -0.24815407
00000000: d190 12be 3fa6 43bf 6098 0d3f 9650 e83e
00000010: 044b 09bf 6cb6 0a3f b625 38be 44eb dabe
00000020: 9884 4e3f c131 373f b8d9 0f3f 065d a13e
00000030: b163 19be 1e12 6abd 08b2 2abf 8b31 193f
00000040: 5d93 4c3f fb6a d4be f94e 353f e96c 2bbe
00000050: 14e0 51bd 0a7e 473f 4bec 423f b972 ba3e
00000060: 89cd 313e 9fd0 0c3b b23c 90be 5c5c 243f
00000070: 86c9 a1bf 81cc 6ebe ab85 44bf d440 6abf
00000080: 38ad 673f e30f 823f a73a 303f 7856 cb3e
00000090: 6029 3cbf ebaf 07c0 8250 bd3d 242d 2fbf
000000a0: b0a0 5ebf 0f22 ebbe ad24 893d c6b6 243e
000000b0: 5489 69bf 80a9 2fbf 669a 38bf a529 5c3f
000000c0: abd1 d03f a36b 77bf d575 91bf 9b6a 08bf
000000d0: 7d3e d93e c8cc 723e 4e94 65be f83f 973d
000000e0: 7a2d 303f f883 243e d73b fa3e 75f3 143f
000000f0: 574c 1dbf 782f 11bf b742 5f3e 7923 403e
00000100: 7c01 1e3f 8dd9 083f b2d5 313f 3c5d 3bbe
00000110: b54d 2fbe 4f98 c63e 0e47 ce3d e424 133f
00000120: 10ee 4f3f f44d 02bf 813b 08bf bc2b 9a3e
00000130: 9d2e 183f 6233 9f3e 916d e73e 5233 3b3e
00000140: 2689 333e 94b6 6a3d 561b b83e 60e6 3c3e
00000150: 4ffb 283e d2b3 103f f52a dcbe 4910 44bf
00000160: 9e53 233f 8de9 583f 286a c63e 76c1 6a3e
00000170: 9511 bb3e 4c9b abbe eab5 aebc 1b98 db3e
00000180: c46c 983d 84a3 2a3f 7a2b ee3e b18f c9be
00000190: 9803 24bf 70d9 a13e 4625 193f 903d 113f
000001a0: c2d1 74be 6791 f7be 3970 d53e 0daa 063f
000001b0: fbe4 57bf f1cd a23e ea7c dbbe e242 74bf
000001c0: 1af8 513f dff5 c23f 20aa 393f 4390 96be
000001d0: 1a1c 7ebe

net.fc_nn.fc_hidden.0.bias f4 [9]
0.43958658 0.5967698 -1.0316082 -0.06964514 0.48530307 0.4053644 0.16855086 0.08862673
0.015099739
00000000: 7e11 e13e e8c5 183f bd0b 84bf 1ca2 8ebd
00000010: a579 f83e ec8b cf3e 9998 2c3e ee81 b53d
00000020: e564 773c

net.fc_nn.fc_hidden.1.weight f4 [5, 9]
-0.48109654 -0.73755085 -0.4311807 -0.732461 0.19967589 0.7316544 0.5510202 0.62674755
-0.84282696 0.8992735 0.66563046 -1.1690738 -1.8552972 -0.27841026 -0.61822444 0.5571658
-0.09790612 0.6931636 -0.66093206 -0.49166957 -0.047279276 -0.61177194 0.47742134 0.57967144
0.57218724 0.17719515 -0.90795344 -0.7436854 -0.6184484 -0.4954475 -0.53631943 0.7532794
0.67321116 0.30865687 0.73332393 -1.163891 -0.37139407 -0.79647523 0.3938962 0.20677096
0.5024075 0.07627702 0.45117632 0.55482805 0.08690954
00000000: 4952 f6be 22d0 3cbf b7c3 dcbe 9082 3bbf
00000010: d677 4c3e b44d 3b3f a90f 0d3f 8772 203f
00000020: 82c3 57bf ca36 663f c266 2a3f 36a4 95bf
00000030: 617a edbf ca8b 8ebe f543 1ebf 6ba2 0e3f
00000040: 0183 c8bd 2b73 313f d832 29bf 1dbc fbbe
00000050: eaa7 41bd 169d 1cbf 9270 f43e 5965 143f
00000060: dd7a 123f a572 353e a36f 68bf 2b62 3ebf
00000070: a252 1ebf 4bab fdbe 3b4c 09bf ebd6 403f
00000080: 9157 2c3f 4608 9e3e 1ebb 3b3f 61fa 94bf
00000090: 5d27 bebe cde5 4bbf c3ac c93e c4bb 533e
000000a0: c79d 003f 2037 9c3d 9500 e73e 3609 0e3f
000000b0: a1fd b13d

net.fc_nn.fc_hidden.1.bias f4 [5]
0.061749123 0.42817602 0.36169428 0.43374413 -0.30377176
00000000: a6ec 7c3d e339 db3e fe2f b93e b613 de3e
00000010: f987 9bbe

net.fc_nn.fc_out.weight f4 [1, 5]
-0.7241934 0.98817337 -1.0546175 -1.1695863 -0.9541154
00000000: bd64 39bf eef8 7c3f b5fd 86bf 01b5 95bf
00000010: e840 74bf
