Lorenz63Dim/L63E3P5ES/results/nets/net_mytrainedmodelSignatureKernel.pth (torch, 6606 bytes, 11 tensors)

net.gru.weight_ih_l0 f4 [24, 1]
-0.07836205 -0.03667297 0.14481142 -0.3243795 0.30266327 -0.36338156 -0.25059384 -0.10628807
0.19152609 -0.20795506 -0.1242896 0.2158476 -0.012137296 0.16991055 -0.24190013 -0.20857972
-0.08356772 -0.015472868 0.020398023 -0.1150939 -0.33357495 0.065299585 0.35639536 -0.1909818
00000000: 487c a0bd 6536 16bd 7249 143e 1215 a6be
00000010: aef6 9a3e 260d babe d64d 80be 8fad d9bd
00000020: 6a1f 443e 2cf2 54be 8c8b febd 2707 5d3e
00000030: 82db 46bc 08fd 2d3e abb4 77be ec95 55be
00000040: 8e25 abbd ea81 7dbc c119 a73c 5ab6 ebbd
00000050: 56ca aabe cabb 853d 7479 b63e bc90 43be

net.gru.weight_hh_l0 f4 [24, 8]
0.032340847 0.28088748 0.11806115 -0.026344957 0.0711871 0.13106558 0.3507162 -0.34224856
0.2594983 0.028618488 0.030931687 0.053862344 0.28802773 0.3300797 0.3043023 0.35682952
0.092094555 -0.05259472 -0.2410012 0.34013405 -0.28375643 0.2275446 -0.19030714 -0.053304255
-0.17164566 -0.25355056 -0.28073016 -0.2826232 -0.2652794 -0.21863632 0.2608709 0.01722405
0.232418 -0.35354167 -0.17286055 -0.25676632 -0.16112852 0.27395815 0.21081601 -0.113797255
0.29677185 0.050825372 0.15910266 -0.13382274 -0.2855876 -0.22836424 0.06690733 -0.19009115
0.32823277 -0.18801141 -0.161717 0.24499147 0.33253765 -0.32720307 -0.26618043 -0.19200419
-0.36111704 -0.24096546 0.33881852 0.08871656 -0.24072869 -0.16967773 -0.06475892 -0.34296143
-0.32539117 0.1454953 0.1615473 -0.0014215241 0.36388996 0.11015291 -0.12687413 0.22452459
0.0423108 0.07161512 -0.057772636 0.2172117 -0.25553775 0.031945933 0.28368315 0.15309764
-0.032455627 0.08263179 -0.07256567 0.31690598 0.29990345 -0.046891417 -0.0869887 0.26657194
-0.18436801 0.023314675 0.19948773 -0.13983266 0.34127373 0.1731483 0.30511734 -0.08117856
-0.35732296 -0.064207345 -0.08429442 -0.27130103 -0.077345945 0.10085862 -0.16049619 -0.30316937
-0.29781812 -0.16072786 0.07167951 0.036734004 0.25705072 -0.02819296 0.3393004 0.30252784
0.078997366 0.062543385 -0.29502064 -0.31682312 0.00849544 0.33491153 0.09679052 0.27393863
0.16243933 0.022227176 -0.17679973 0.31126705 0.23944059 0.25420874 -0.098579586 -0.32873613
0.22791411 0.18509577 -0.27635238 -0.31380567 -0.21128483 -0.1873059 -0.32692337 0.29075474
0.15460199 0.15232682 -0.28017774 0.12146111 -0.3119259 0.010389146 -0.26128778 -0.115080826
-0.097063005 -0.2923329 -0.072885394 0.291639 -0.27004305 -0.0061848518 -0.044031736 0.05566486
0.15187824 -0.15396625 0.009600981 -0.28636214 0.3396624 -0.05374589 0.2652783 -0.23222916
0.03127355 0.2467106 -0.051868692 -0.15862261 0.09298489 -0.15781224 0.133473 0.35156164
0.25270823 -0.29510978 -0.15185721 -0.24345292 -0.18689752 0.101686954 0.12276272 -0.3187916
0.14248642 -0.28156844 0.036810596 0.17119555 -0.13997452 0.24361181 0.19877051 -0.059807014
0.0416655 -0.21729647 -0.21475106 -0.20171577 0.23746297 -0.15263033 -0.050157353 0.11821128
00000000: d677 043d 7cd0 8f3e 0bca f13d 61d1 d7bc
00000010: 8bca 913d 0e36 063e 1391 b33e 343b afbe
00000020: f6dc 843e 5271 ea3c 7364 fd3c c39e 5c3d
00000030: 5f78 933e 3500 a93e 83cd 9b3e 5cb2 b63e
00000040: 129c bc3d 906d 57bd 05c9 76be 0d26 ae3e
00000050: 8648 91be 7401 693e e0df 42be 9055 5abd
00000060: e1c3 2fbe 61d1 81be ddbb 8fbe fdb3 90be
00000070: b4d2 87be 33e2 5fbe df90 853e 7319 8d3c
00000080: fcfe 6d3e 6a03 b5be 5b02 31be e076 83be
00000090: e0fe 24be 3e44 8c3e 27e0 573e 890e e9bd
000000a0: 7bf2 973e 442e 503d cfeb 223e d408 09be
000000b0: 8a38 92be 51d8 69be b606 893d 41a7 42be
000000c0: 200e a83e 1086 40be 2499 25be 0bdf 7a3e
000000d0: 6042 aa3e 2987 a7be cd48 88be bf9c 44be
000000e0: 55e4 b8be a6bf 76be 9f79 ad3e 07b1 b53d
000000f0: 9581 76be 00c0 2dbe 53a0 84bd a498 afbe
00000100: ac99 a6be b8fc 143e a86c 253e 6f52 baba
00000110: c94f ba3e d997 e13d 4beb 01be c6e9 653e
00000120: 174e 2d3d f3aa 923d 00a3 6cbd be6c 5e3e
00000130: d8d5 82be bdd9 023d eb3e 913e a1c5 1c3e
00000140: 31f0 04bd db3a a93d 4f9d 94bd 8041 a23e
00000150: f28c 993e 3711 40bd 2227 b2bd 1e7c 883e
00000160: f8ca 3cbe 6bfe be3c 8346 4c3e 4b30 0fbe
00000170: 6ebb ae3e ca4d 313e 5738 9c3e f240 a6bd
00000180: 09f3 b6be 247f 83bd 8ea2 acbd f8e7 8abe
00000190: 8d67 9ebd f78e ce3d 1d59 24be 0439 9bbe
000001a0: 9e7b 98be d895 24be b5cc 923d 6576 163d
000001b0: 279c 833e ecf4 e6bc c8b8 ad3e eee4 9a3e
000001c0: 5fc9 a13d bf16 803d f20c 97be a436 a2be
000001d0: 7530 0b3c 8679 ab3e 1c3a c63d af41 8c3e
000001e0: 7f56 263e c415 b63c fd0a 35be 655e 9f3e
000001f0: ea2f 753e a627 823e 18e4 c9bd 1a50 a8be
00000200: 5162 693e bf89 3d3e 0f7e 8dbe 23ab a0be
00000210: 0d5b 58be 1ecd 3fbe 8062 a7be cedd 943e
00000220: fc4f 1e3e 90fb 1b3e 7573 8fbe 9ac0 f83d
00000230: c0b4 9fbe 3d37 2a3c 83c7 85be 7faf ebbd
00000240: f8c8 c6bd a8ac 95be f044 95bd b551 953e
00000250: 1543 8abe 4caa cabb 9f5a 34bd d600 643d
00000260: f885 1b3e 54a9 1dbe 6f4d 1d3c 0f9e 92be
00000270: 3be8 ad3e a624 5cbd 8fd2 873e 7bcd 6dbe
00000280: b218 003d b4a1 7c3e 4474 54bd f76d 22be
00000290: dd6e be3d 8899 21be 25ad 083e e3ff b33e
000002a0: f962 813e a118 97be 7580 1bbe b94b 79be
000002b0: 1062 3fbe 4041 d03d 056b fb3d a738 a3be
000002c0: f6e7 113e bd29 90be b5c6 163d e34d 2f3e
000002d0: 7b55 0fbe 6075 793e 7f8a 4b3e 33f8 74bd
000002e0: 71a9 2a3d f782 5ebe b4e7 5bbe 948e 4ebe
000002f0: 7e29 733e 204b 1cbe cc71 4dbd c118 f23d

net.gru.bias_ih_l0 f4 [24]
-0.04830283 -0.12160734 0.060995717 0.25426823 0.13276905 -0.32527062 0.018752167 0.024483804
0.08915185 0.20055039 0.30392614 -0.05350148 -0.12285983 0.31587818 0.02751888 0.10501176
0.30189052 0.21055524 -0.30611458 -0.2614216 -0.2606672 -0.24530801 -0.2229899 -0.25417286
00000000: 30d9 45bd 450d f9bd a5d6 793d 722f 823e
00000010: 9cf4 073e df89 a6be 259e 993c 4292 c83c
00000020: 3f95 b63d 155d 4d3e 359c 9b3e 5e24 5bbd
00000030: ef9d fbbd c9ba a13e 466f e13c 6810 d73d
00000040: 6591 9a3e cb9b 573e 0dbb 9cbe 0dd9 85be
00000050: 2c76 85be 0632 7bbe 7757 64be f222 82be

net.gru.bias_hh_l0 f4 [24]
-0.1664719 -0.30810025 -0.30032 -0.29458824 0.17238376 -0.050317593 -0.08347287 -0.29210404
0.16730541 -0.012606839 -0.24992916 0.14697881 -0.1411355 0.15703584 -0.08222038 -0.27559844
-0.13999636 0.33118272 0.18602474 -0.1576464 0.08098952 0.018671874 -0.30712104 -0.23017055
00000000: 9c77 2abe 51bf 9dbe 8bc3 99be 45d4 96be
00000010: 5e85 303e d219 4ebd d3f3 aabd a98e 95be
00000020: 1c52 2b3e ea8c 4ebc 6eed 7fbe 9d81 163e
00000030: d385 10be 01ce 203e 2963 a8bd 3d1b 8dbe
00000040: 355b 0fbe c890 a93e 457d 3e3e 0f6e 21be
00000050: d5dd a53d c2f5 983c f83e 9dbe d4b1 6bbe

net.fc_nn.fc_in.weight f4 [13, 9]
-0.13700871 -0.32748517 -0.110441454 0.06866523 0.07015913 -0.21753639 0.08987989 0.1649535
-0.22854118 -0.07079118 -0.10532308 -0.20794651 0.31788695 -0.20916022 0.037802327 -0.28653988
0.27084395 0.26968148 0.1511048 -0.20278978 0.14566939 0.30749848 0.12378579 -0.16828625
0.26028275 -0.045494355 -0.0057617896 0.10532823 -0.22245604 0.28316805 0.065723106 0.1461271
-0.015313556 -0.15314652 0.18438064 -0.0037189203 -0.04114386 0.19067387 0.21514851 0.27029926
0.29331052 -0.025211288 0.23569904 0.23005994 -0.22073384 -0.19337346 -0.12803075 -0.32418105
0.12510143 -0.18549842 0.13591145 -0.094031624 -0.09771423 -0.1721462 0.2443143 0.14495873
-0.22289576 0.22476365 0.033019096 -0.22990915 0.07957279 0.002275362 0.27415514 0.14180104
-0.31256253 0.032249525 -0.1350814 -0.18736002 -0.3238354 -0.22154301 -0.17204437 0.28111097
0.25423488 0.11559195 0.037228774 0.039251022 -0.2617185 0.27999678 -0.1461266 0.04146171
-0.3302889 -0.2967878 -0.27616847 0.07718313 -0.3059541 -0.2651905 -0.14926396 0.28663272
0.1342032 0.030848986 0.19335678 0.3098114 -0.2658963 0.12694049 -0.26272005 0.07593493
-0.28405553 0.29192197 -0.047379985 -0.1683864 -0.16528992 0.22816503 0.12257535 0.10446737
-0.088609114 -0.11239113 0.05795699 0.017805634 0.23495011 0.27367955 -0.084096916 -0.21607384
-0.088420995 0.2591623 -0.2950357 -0.180763 -0.22934015
00000000: 034c 0cbe 23ac a7be 212f e2bd 5ba0 8c3d
00000010: 97af 8f3d dcc1 5ebe f312 b83d 92e9 283e
00000020: b306 6abe f7fa 90bd a1b3 d7bd eeef 54be
00000030: 14c2 a23e 192e 56be 9dd6 1a3d 5bb5 92be
00000040: 0fac 8a3e b113 8a3e 37bb 1a3e 20a8 4fbe
00000050: 5b2a 153e 7170 9d3e 6783 fd3d 3b53 2cbe
00000060: c843 853e 4a58 3abd 65cd bcbb 54b6 d73d
00000070: 84cb 63be 67fb 903e d699 863d 58a2 153e
00000080: b6e5 7abc 71d2 1cbe 47ce 3c3e 21b9 73bb
00000090: 7786 28bd 0340 433e e44f 5c3e aa64 8a3e
000000a0: cc2c 963e e787 cebc 175b 713e d594 6b3e
000000b0: 0d08 62be b103 46be 7e1a 03be 0ffb a5be
000000c0: 971a 003e 4cf3 3dbe 5f2c 0b3e a793 c0bd
000000d0: 661e c8bd 1847 30be 872d 7a3e 1070 143e
000000e0: c93e 64be 7128 663e 083f 073d 4e6d 6bbe
000000f0: 0ff7 a23d 3d1e 153b 105e 8c3e 4b34 113e
00000100: 3208 a0be 1418 043d c752 0abe 4edb 3fbe
00000110: c1cd a5be 2cdc 62be 662c 30be c7ed 8f3e
00000120: 132b 823e 79bb ec3d 337d 183d aec5 203d
00000130: f8ff 85be bd5b 8f3e 36a2 15be c1d3 293d
00000140: a01b a9be 92f4 97be f465 8dbe 3012 9e3d
00000150: 04a6 9cbe 0dc7 87be a7d8 18be 86c1 923e
00000160: 906c 093e 03b7 fc3c 52ff 453e 9a9f 9e3e
00000170: 8f23 88be b0fc 013e 3e83 86be c683 9b3d
00000180: ba6f 91be cc76 953e 8411 42bd 7c6d 2cbe
00000190: c341 29be 18a4 693e c908 fb3d fdf2 d53d
000001a0: b278 b5bd 522d e6bd 4f64 6d3d 1fdd 913c
000001b0: c396 703e ba1f 8c3e 013b acbd 7642 5dbe
000001c0: 1116 b5bd ecb0 843e eb0e 97be f019 39be
000001d0: 25d8 6abe

net.fc_nn.fc_in.bias f4 [13]
-0.33459854 -0.022766989 0.31195813 -0.029296923 0.10418659 0.15368545 -0.18807064 -0.020896997
0.31061554 -0.29539987 -0.14885844 -0.19859415 -0.28501454
00000000: 8050 abbe d681 babc fab8 9f3e 1a00 f0bc
00000010: c75f d53d b85f 1d3e 9795 40be 2e30 abbc
00000020: 0009 9f3e a73e 97be 596e 18be 445c 4bbe
00000030: 6ded 91be

net.fc_nn.fc_hidden.0.weight f4 [9, 13]
-0.16743346 -0.22570896 -0.21699347 0.072148874 0.07744779 0.041585892 5.5697405e-05 -0.2451271
0.22853926 0.0113210855 -0.15237343 0.07846842 0.19783412 -0.07678091 0.26246947 -0.220093
-0.20322955 -0.10415484 0.17746286 0.2080132 0.024278624 0.09913683 -0.2408891 0.0798046
-0.046608783 0.03030523 0.060551785 -0.038664486 0.22330374 -0.14598614 0.1218388 0.10598458
-0.24450062 -0.027824838 0.13163835 0.02095298 -0.26304427 0.011303475 0.024658056 0.19895394
0.109521165 -0.10588805 -0.21113434 0.1791632 0.12654854 0.12630196 0.21983778 -0.2579269
0.2730429 0.035968922 0.030055305 0.14588675 0.22991182 0.20362106 -0.15050152 -0.19510083
-0.022430753 -0.1533141 -0.005019712 0.23532353 0.066913106 -0.14700663 -0.07735406 -0.15076202
0.1776665 0.19169013 -0.24996151 0.0008158588 -0.18928725 0.22522758 0.17765415 0.2164709
-0.06689355 -0.061633717 -0.11828996 -0.01728576 0.10075992 0.12527512 -0.18548423 -0.073645696
0.21739839 -0.07008164 -0.1874031 -0.14457506 0.13247636 0.090005375 0.21039824 -0.14534669
0.21017897 0.13038966 -0.1570035 -0.035794202 -0.16923757 0.21323815 0.08437702 0.23940836
-0.027052533 -0.08556997 -0.2423018 -0.00050728157 0.28930315 -0.100314505 0.060207855 0.017743332
0.23243473 0.06703754 0.09643185 -0.2208327 0.24310343 -0.24628134 -0.04047605 -0.24526343
-0.27364817 0.25676855 0.1770536 -0.1504813 -0.19318178
00000000: ad73 2bbe 4020 67be 8933 5ebe cac2 933d
00000010: f29c 9e3d f855 2a3d a29c 6938 9902 7bbe
00000020: 3206 6a3e 137c 393c c807 1cbe 0db4 a03d
00000030: 0795 4a3e 4f3f 9dbd 6662 863e 0f60 61be
00000040: 681b 50be 224f d5bd d3b8 353e 6a01 553e
00000050: f7e3 c63c 4008 cb3d a2ab 76be 9870 a33d
00000060: dae8 3ebd ac42 f83c 2605 783d a75e 1ebd
00000070: bca9 643e 647d 15be 9f86 f93d 720e d93d
00000080: 5f5e 7abe eaf0 e3bc 34cc 063e 95a5 ab3c
00000090: bdad 86be 3632 393c b1ff c93c 95ba 4b3e
000000a0: a24c e03d d5db d8bd 9a33 58be 8f76 373e
000000b0: f195 013e 4d55 013e 281d 613e ff0e 84be
000000c0: 47cc 8b3e 2654 133d 8b36 f63c 5663 153e
000000d0: 016e 6b3e 0a82 503e 121d 1abe 83c8 47be
000000e0: b3c0 b7bc 5ffe 1cbe 657c a4bb a7f8 703e
000000f0: bd09 893d e888 16be ce6b 9ebd 5c61 1abe
00000100: 35ee 353e 6b4a 443e e9f5 7fbe 5bdf 553a
00000110: 84d4 41be 0fa2 663e f8ea 353e 8caa 5d3e
00000120: 7cff 88bd a373 7cbd 0242 f2bd de9a 8dbc
00000130: 385b ce3d 1f48 003e 94ef 3dbe 8ed3 96bd
00000140: af9d 5e3e f686 8fbd 99e6 3fbe 7c0b 14be
00000150: e2a7 073e bd54 b83d a372 573e c3d5 14be
00000160: 2839 573e de84 053e 87c5 20be f19c 12bd
00000170: 9d4c 2dbe 1a5b 5a3e dccd ac3d 7727 753e
00000180: 469d ddbc 4f3f afbd f71d 78be 17fb 04ba
00000190: 8b1f 943e b171 cdbd 839c 763d 775a 913c
000001a0: 5f03 6e3e fa4a 893d 107e c53d f821 62be
000001b0: 1bf0 783e 2d31 7cbe 37ca 25bd 5626 7bbe
000001c0: 9d1b 8cbe 2b77 833e 8a4d 353e c517 1abe
000001d0: 72d1 45be

net.fc_nn.fc_hidden.0.bias f4 [9]
-0.0046302457 0.013428055 -0.21306196 0.18961811 -0.24982889 -0.2319836 -0.1685339 0.15159664
0.06490508
00000000: 51b9 97bb 5801 5c3c ea2c 5abe 402b 423e
00000010: 25d3 7fbe 1c8d 6dbe 2794 2cbe 263c 1b3e
00000020: f4ec 843d

net.fc_nn.fc_hidden.1.weight f4 [5, 9]
-0.30749953 0.21361901 -0.08003327 0.27000368 -0.065076575 -0.15684265 0.1938255 -0.25766847
0.09103669 -0.19106026 -0.1515527 -0.26219103 0.051854286 0.2788435 0.09541963 0.22985873
-0.0023481797 -0.2263458 0.16431835 -0.17434867 0.05614047 0.16009688 -0.115065426 -0.02991983
0.12404148 0.19870308 0.061063223 -0.22213526 0.30076888 0.3198908 0.20362426 -0.113142796
-0.07835347 -0.19184689 -0.120309755 -0.2410605 0.1712422 -0.23585014 -0.2428572 -0.32393804
-0.19267286 -0.09334623 0.24437523 -0.19822192 -0.21020393
00000000: 9470 9dbe f1be 5a3e 7ce8 a3bd ec3d 8a3e
00000010: de46 85bd 5c9b 20be 317a 463e 1fed 83be
00000020: 7271 ba3d 4da5 43be a230 1bbe e73d 86be
00000030: 2965 543d 93c4 8e3e 5e6b c33d 1660 6b3e
00000040: ebe3 19bb 32c7 67be 1243 283e 7588 32be
00000050: 8df3 653d 70f0 233e 6ca7 ebbd 6e1a f5bc
00000060: 7609 fe3d d278 4b3e 6e1d 7a3d 6d77 63be
00000070: 61fe 993e bac8 a33e e182 503e 69b7 e7bd
00000080: c977 a0bd 8373 44be f664 f6bd 90d8 76be
00000090: 1e5a 2f3e b382 71be 8faf 78be 35db a5be
000000a0: 094c 45be 4f2c bfbd 803d 7a3e b0fa 4abe
000000b0: b33f 57be

net.fc_nn.fc_hidden.1.bias f4 [5]
-0.21103187 -0.050262343 0.035553236 -0.26042706 -0.07370146
00000000: bd18 58be e3df 4dbd 45a0 113d b256 85be
00000010: cbf0 96bd

net.fc_nn.fc_out.weight f4 [1, 5]
-0.12470262 -0.2720219 0.20204726 0.1958269 0.20546296
00000000: 1664 ffbd 7446 8bbe 7ae5 4e3e d986 483e
00000010: e264 523e
