Lorenz63Dim/L63E3P5ES/results/nets/net_mytrainedmodelEnergyScore.pth (torch, 6554 bytes, 11 tensors)

net.gru.weight_ih_l0 f4 [24, 1]
0.36886913 0.30128202 -0.40505585 -2.5026546 -0.41643664 0.3695472 -0.09492396 -0.33904526
-0.37723684 -0.09719426 0.22928561 -0.11763975 -0.25428522 -0.60128826 0.06977762 0.37398016
-0.51801413 0.24982417 -0.13415866 -0.6284307 -0.21130732 0.1292588 -0.14710283 -0.0500038
00000000: 6adc bc3e a341 9a3e 7b63 cfbe 7e2b 20c0
00000010: 2f37 d5be 4a35 bd3e 7e67 c2bd 5797 adbe
00000020: 3025 c1be c90d c7bd d9c9 6a3e 1ced f0bd
00000030: ac31 82be 07ee 19bf 92e7 8e3d 547a bf3e
00000040: 939c 04bf e8d1 7f3e e360 09be d6e0 20bf
00000050: f260 58be 6b5c 043e 20a2 16be c9d0 4cbd

net.gru.weight_hh_l0 f4 [24, 8]
-2.450628 0.26049754 2.772652 -0.18057491 1.0090694 1.318414 -0.34505627 -0.19879031
-0.25618047 1.1397623 0.4672477 -0.042480007 -0.36112848 0.09525526 0.5055286 0.43606654
-0.26983905 0.23743938 1.035248 0.4960296 -0.06703766 -0.4052634 -2.0444098 0.11524762
0.8980077 0.66961277 1.0542564 0.76205134 0.47575215 0.26634547 0.21608244 -0.27624854
-1.7193271 -0.5455659 2.0484366 0.5641912 1.530999 1.9403639 -0.34298965 -0.35273147
-3.356517 -1.6973238 0.2585591 -1.9976664 -0.19106606 0.53846 0.07286497 -0.10780238
0.19256066 0.681555 1.9795191 0.5980874 0.3018121 -1.1165793 1.126829 0.26755267
1.2527925 0.29114377 0.59184134 -0.24513853 -1.0680717 1.181772 2.2766054 0.62720054
-0.2812777 -0.5892792 0.98269105 0.0771643 0.07341773 -1.720018 -2.5319335 -0.62738967
0.24977233 0.55714655 0.38025683 0.67692715 -0.2911995 0.46859187 -0.89643234 0.28051248
1.2979538 -0.8892788 -1.1462394 1.6442388 1.0023443 -0.28310636 -0.58526665 -1.3930876
-0.8122811 0.55072117 -1.0957162 -0.73586905 0.7751591 -1.6902828 -4.0373654 -1.114665
-0.5108254 0.6476439 -2.3815682 -1.2933193 0.45447472 0.41022545 0.1544539 0.0677226
-0.056589916 -0.20782335 1.0944344 0.19177707 0.36172184 -0.106513605 -0.6860382 -0.5194243
-0.6523495 -0.19900227 -0.044568982 -2.7817206 0.63969034 -0.96060103 1.0664698 -0.9982247
-1.0013373 -0.19858639 0.35072958 -1.4280572 0.71519387 2.7307484 -0.025075069 -0.16091824
-1.7022574 -0.15154757 1.1490399 0.15709855 -1.1227859 0.48881543 1.9536299 0.7768788
0.64122707 -0.26304966 0.54952955 0.6649398 -0.60628074 0.7114061 0.5153986 -0.035452362
-0.1620355 0.31223956 0.54413575 0.10112334 -0.119871944 -0.93337595 -0.5988657 -0.18165027
0.5016728 0.21121177 -0.21531634 -0.31884754 -0.42218915 -0.48632812 -0.2426601 0.46275643
0.044845007 -0.5081761 -1.9589853 -1.2741053 -0.7371506 0.20723023 -0.5179848 -0.48987195
0.1488402 0.06921096 0.44504815 0.2702203 0.043841563 0.37675303 1.4741753 0.3691244
0.11361247 -0.08651216 0.1304996 -1.3801854 -0.68303496 0.8982006 0.3435506 0.7110598
0.6946985 1.3355958 0.3140873 -0.08250514 -0.9567359 -0.4198005 0.8771897 1.0430317
00000000: 17d7 1cc0 ef5f 853e 2173 3140 a1e8 38be
00000010: 3029 813f cac1 a83f 37ab b0be b08f 4bbe
00000020: 162a 83be bbe3 913f 173b ef3e 84ff 2dbd
00000030: d5e5 b8be 3115 c33d 536a 013f 1d44 df3e
00000040: 5828 8abe 4f23 733e 0283 843f 97f7 fd3e
00000050: 0a4b 89bd af7e cfbe 9cd7 02c0 f206 ec3d
00000060: d5e3 653f be6b 2b3f e0f1 863f cc15 433f
00000070: c995 f33e 6f5e 883e b744 5d3e 7370 8dbe
00000080: e912 dcbf 35aa 0bbf 9619 0340 d66e 103f
00000090: c6f7 c33f d85d f83f 579c afbe 3899 b4be
000000a0: 2dd1 56c0 e841 d9bf dc61 843e 88b3 ffbf
000000b0: d2a6 43be 84d8 093f 3b3a 953d 7fc7 dcbd
000000c0: 9f2e 453e 637a 2e3f e260 fd3f 411c 193f
000000d0: 1e87 9a3e 12ec 8ebf ef3b 903f aafc 883e
000000e0: 815b a03f cc10 953e ea82 173f 9805 7bbe
000000f0: 93b6 88bf 4e44 973f e7b3 1140 3790 203f
00000100: a103 90be 00db 16bf a491 7b3f 5108 9e3d
00000110: 095c 963d 8d29 dcbf 330b 22c0 9c9c 20bf
00000120: 51c4 7f3e 28a1 0e3f 06b1 c23e 194b 2d3f
00000130: 1a18 95be 46eb ef3e 977c 65bf 559f 8f3e
00000140: 5a23 a63f c7a7 63bf f9b7 92bf 6b76 d23f
00000150: d14c 803f 51f3 90be 09d4 15bf b250 b2bf
00000160: a7f1 4fbf 10fc 0c3f 6e40 8cbf ea61 3cbf
00000170: d470 463f 305b d8bf 1932 81c0 58ad 8ebf
00000180: 74c5 02bf fecb 253f 9d6b 18c0 7d8b a5bf
00000190: e9b0 e83e 1209 d23e 2a29 1e3e 26b2 8a3d
000001a0: d4ca 67bd a5cf 54be 6d16 8c3f 3561 443e
000001b0: 9b33 b93e ce23 dabd 33a0 2fbf fef8 04bf
000001c0: 6000 27bf 40c7 4bbe f78d 36bd b607 32c0
000001d0: bfc2 233f f3e9 75bf 1582 883f a78b 7fbf
000001e0: d22b 80bf 3b5a 4bbe d492 b33e 94ca b6bf
000001f0: f216 373f 95c4 2e40 3b6a cdbc c0c7 24be
00000200: 92e3 d9bf 492f 1bbe bd13 933f 71de 203e
00000210: 73b7 8fbf 0446 fa3e 8b10 fa3f 87e1 463f
00000220: 7527 243f 72ae 86be f8ad 0c3f 7f39 2a3f
00000230: 3735 1bbf b61e 363f 2af1 033f 7f36 11bd
00000240: a2ec 25be dddd 9f3e 7b4c 0b3f c119 cf3d
00000250: 6c7f f5bd baf1 6ebf 434f 19bf 8702 3abe
00000260: a16d 003f e647 583e e37b 5cbe fc3f a3be
00000270: 2d29 d8be 0000 f9be e47b 78be 69ee ec3e
00000280: 66af 373d d417 02bf 08c0 fabf e215 a3bf
00000290: e7b5 3cbf 2934 543e a79a 04bf 7fd0 fabe
000002a0: 9169 183e 7abe 8d3d 5add e33e 515a 8a3e
000002b0: 3693 333d c6e5 c03e c7b1 bc3f e0fd bc3e
000002c0: a8ad e83d 4a2d b1bd b0a1 053e eaa9 b0bf
000002d0: 61db 2ebf 79f0 653f dde5 af3e 0408 363f
000002e0: c3d7 313f cef4 aa3f 0dd0 a03e 74f8 a8bd
000002f0: a5ec 74bf 17f0 d6be 818f 603f 1082 853f

net.gru.bias_ih_l0 f4 [24]
0.0024265612 0.22482532 0.18389942 -0.20904045 -0.1911974 -0.17213145 0.03307512 0.925091
-0.47666678 0.052339394 -0.9539107 -1.0166274 -0.8310338 -0.3392156 -1.1886481 -1.9868195
0.45229572 0.2591204 -0.0023913889 -0.66075027 -0.70400596 -1.143715 0.57965887 1.024342
00000000: f106 1f3b 9c38 663e 2150 3c3e b30e 56be
00000010: 40c9 43be 3a43 30be c779 073d c4d2 6c3f
00000020: ab0d f4be d561 563d 7e33 74bf d920 82bf
00000030: a2be 54bf abad adbe 9f25 98bf 1a50 febf
00000040: 4e93 e73e 6eab 843e d9b8 1cbb ee26 29bf
00000050: bc39 34bf 4165 92bf 8664 143f a31d 833f

net.gru.bias_hh_l0 f4 [24]
-0.0029138778 0.22410198 0.12881319 -0.11481681 -0.4674894 0.07106835 -0.02684338 1.088378
-0.05222982 0.1645861 -1.4158819 -0.7035025 -0.3026964 -0.3758525 -1.4486343 -1.8689585
1.1785983 0.49407282 0.2839017 0.48708174 -0.75369024 0.6195536 0.37256056 0.9630639
00000000: c2f6 3ebb fd7a 653e 9be7 033e 1325 ebbd
00000010: c55a efbe 488c 913d a6e6 dbbc f84f 8b3f
00000020: f0ee 55bd 4289 283e 9e3b b5bf bd18 34bf
00000030: 06fb 9abe bd6f c0be d96c b9bf 083a efbf
00000040: 4fdc 963f 1df7 fc3e 905b 913e c762 f93e
00000050: d8f1 40bf 119b 1e3f 42c0 be3e 5b8b 763f

net.fc_nn.fc_in.weight f4 [13, 9]
0.76208264 0.0852939 -0.07034655 1.1635742 -0.45540687 1.2035134 0.8776032 0.3274572
-0.33727434 0.9850996 0.088639244 0.76995575 1.0172359 -0.003057533 -0.107291885 0.95199174
0.37991902 -0.70478296 0.73750865 0.36548236 0.03610466 0.40604493 -0.5525144 0.6378082
-0.29583076 0.9086344 -0.2201687 -0.5565907 -0.947854 -0.22594358 -1.1378328 0.5313681
-1.3207185 -1.041511 -0.025480697 0.54979885 0.41340584 0.031915314 0.2190328 0.530769
-0.00342838 0.780032 0.5592946 0.2342311 2.093616 0.13235404 0.5251009 1.4377086
0.0892518 -0.5330771 0.5229719 0.5718763 0.068386585 1.011525 -0.46759433 -0.6166124
-0.6564939 -0.20965973 0.8402639 -1.2177666 0.87463355 -0.8921948 -1.0488901 -0.3407931
0.41632658 1.1655989 -0.25040382 -0.31637508 -0.21813393 -0.6033053 -0.009741039 0.46971565
-0.601225 0.46262586 0.36050478 -0.6715817 -0.1624453 -0.9404532 -0.23738712 0.2237412
0.98469985 0.16387787 0.062354032 -0.87680936 -0.35646728 0.45718673 -0.140947 0.18117012
-0.3808727 -0.052102935 0.11511181 -0.47726995 -0.7963656 -0.09493648 0.5080847 -0.43428466
0.19604588 -0.16546781 -0.10726469 -0.36342075 -0.44875145 -1.3893443 -0.6992966 0.34300292
0.220562 -0.6726075 -0.04817528 0.960003 0.43146133 0.20323202 -0.23054636 0.056857187
-0.04627569 0.5072943 0.853899 0.47580102 -0.4630564
00000000: d917 433f 91ae ae3d da11 90bd 00f0 943f
00000010: 172b e9be ba0c 9a3f 9aaa 603f 78a8 a73e
00000020: 39af acbe 7d2f 7c3f 7e88 b53d d21b 453f
00000030: c934 823f e460 48bb d9bb dbbd bbb5 733f
00000040: bf84 c23e a86c 34bf 5ecd 3c3f 8120 bb3e
00000050: 7be2 133d 1fe5 cf3e 9571 0dbf 6647 233f
00000060: 2177 97be 449c 683f e773 61be ba7c 0ebf
00000070: 8fa6 72bf c15d 67be 81a4 91bf bd07 083f
00000080: 4e0d a9bf 3c50 85bf e5bc d0bc 9ebf 0c3f
00000090: eea9 d33e a2b9 023d 224a 603e 7ae0 073f
000000a0: acae 60bb 2db0 473f ee2d 0f3f 47da 6f3e
000000b0: cefd 0540 d187 073e 036d 063f d606 b83f
000000c0: a6c9 b63d be77 08bf 7de1 053f 7c66 123f
000000d0: 440e 8c3d a779 813f 8668 efbe 4fda 1dbf
000000e0: fc0f 28bf 0ab1 56be 891b 573f c7df 9bbf
000000f0: fce7 5f3f e166 64bf 0842 86bf 6f7c aebe
00000100: c228 d53e 5832 953f ee34 80be eafb a1be
00000110: 805e 5fbe 3772 1abf e198 1fbc 927e f03e
00000120: e2e9 19bf 4cdd ec3e 1594 b83e c7ec 2bbf
00000130: 1058 26be 8ac1 70bf 9c15 73be 6a1c 653e
00000140: 4a15 7c3f 9acf 273e f166 7f3d 9476 60bf
00000150: e182 b6be 6114 ea3e 6954 10be a984 393e
00000160: bf01 c3be e369 55bd bebf eb3d ba5c f4be
00000170: 9ede 4bbf 0f6e c2bd d711 023f 8f5a debe
00000180: 40c0 483e 6570 29be 97ad dbbd 4912 babe
00000190: c0c2 e5be 09d6 b1bf 1a05 33bf 149e af3e
000001a0: 01db 613e 0130 2cbf 7153 45bd c2c2 753f
000001b0: 80e8 dc3e 0e1c 503e 5814 6cbe 15e3 683d
000001c0: 948b 3dbd 0ade 013f 2099 5a3f 319c f33e
000001d0: ba15 edbe

net.fc_nn.fc_in.bias f4 [13]
0.3102218 0.46330518 0.59690815 0.025409391 -0.063848376 0.15220277 -0.45718735 0.32081297
0.277344 -0.5613476 -0.72935444 -0.4408909 0.028577052
00000000: 64d5 9e3e 5636 ed3e f9ce 183f 5b27 d03c
00000010: f0c2 82bd 0bdb 1b3e 7614 eabe 9941 a43e
00000020: 0800 8e3e 7ab4 0fbf f9b6 3abf 74bc e1be
00000030: 6c1a ea3c

net.fc_nn.fc_hidden.0.weight f4 [9, 13]
0.11772819 -0.11735055 -0.2520785 0.07057154 0.7108549 0.4381541 -1.260963 0.3702152
0.60097086 -0.18469964 -0.38499135 -0.54233634 -0.02754494 -0.19703422 -0.1550931 0.16635598
-0.63148844 0.5700579 0.63904995 -1.4426129 0.58584386 0.7648778 -0.06516107 -0.31639242
-0.75078005 -0.5208802 -1.1434939 -1.977904 -1.0467901 -1.8589554 -0.87128377 -1.1566464
2.9212208 -0.24257916 -0.30270386 0.8405571 0.8115453 -0.6204076 -0.47209293 -0.01394689
0.25962937 0.41756284 -0.17856519 1.0636619 0.79277074 -1.9406021 0.6368862 0.58035606
-0.5854768 -0.8084869 -0.3129718 -0.25621727 -1.2274863 -3.382378 -0.8560421 -2.0761788
-0.45814747 -1.752229 3.8993192 0.30990395 -1.4160808 1.4530683 0.40682423 -3.4188976
-0.6309349 -0.9507788 -0.95667803 -0.9106819 1.4946297 -2.2199178 -0.29901502 0.017069409
-0.7913162 -0.052986197 0.47974765 2.0546403 -0.40466487 -0.5909109 -0.18594618 -0.17299618
0.23709422 -0.42117837 0.6749012 0.65510404 -1.3666313 0.30286747 0.58335114 -0.52593863
-0.62638825 -0.84277815 -0.58077466 0.103420794 0.099786416 -0.049795292 -2.197247 0.8805456
0.7188903 -1.1425352 0.4104652 0.95561767 -0.27722937 -0.55020005 -1.9837849 -0.14828028
0.9606453 1.0753896 0.8653098 0.10033953 -0.10474451 0.21992916 -0.30353233 -0.39902022
-0.7717861 -0.5321315 -0.44872254 0.024706848 0.5636575
00000000: 7a1b f13d 7c55 f0bd 6f10 81be d087 903d
00000010: 96fa 353f bc55 e03e 3c67 a1bf d98c bd3e
00000020: 3ad9 193f e721 3dbe 961d c5be 8ed6 0abf
00000030: eda5 e1bc 57c3 49be bad0 1ebe 3959 2a3e
00000040: 3aa9 21bf 51ef 113f c798 233f 8aa7 b8bf
00000050: ddf9 153f 08cf 433f 2b73 85bd 30fe a1be
00000060: 1f33 40bf 6858 05bf 025e 92bf f52b fdbf
00000070: 38fd 85bf 40f2 edbf 740c 5fbf fd0c 94bf
00000080: 48f5 3a40 ac66 78be 00fc 9abe c02e 573f
00000090: 6fc1 4f3f 08d3 1ebf 2ab6 f1be 7f81 64bc
000000a0: 24ee 843e ccca d53e cbd9 36be 1326 883f
000000b0: 06f3 4a3f a665 f8bf f90a 233f 3792 143f
000000c0: cfe1 15bf fff8 4ebf d73d a0be e92e 83be
000000d0: 451e 9dbf e278 58c0 9325 5bbf 1de0 04c0
000000e0: 4e92 eabe 0a49 e0bf 728e 7940 bbab 9e3e
000000f0: 2342 b5bf 24fe b93f 444b d03e 38cf 5ac0
00000100: f384 21bf 3d66 73bf dae8 74bf 7322 69bf
00000110: 0750 bf3f 2213 0ec0 7f18 99be 25d5 8b3c
00000120: b393 4abf 0e08 59bd 7ca1 f53e 3a7f 0340
00000130: 3c30 cfbe f045 17bf ad68 3ebe e925 31be
00000140: d4c8 723e b1a4 d7be 53c6 2c3f e6b4 273f
00000150: c6ed aebf 7211 9b3e 8056 153f eaa3 06bf
00000160: fb5a 20bf 4fc0 57bf a6ad 14bf 48ce d33d
00000170: d25c cc3d 26f6 4bbd b29f 0cc0 706b 613f
00000180: 3209 383f 983e 92bf 7f28 d23e 5ca3 743f
00000190: 02f1 8dbe e9d9 0cbf aaec fdbf c9d6 17be
000001a0: daec 753f 5ea6 893f f184 5d3f d07e cd3d
000001b0: 4a84 d6bd 1c35 613e 9768 9bbe 614c ccbe
000001c0: c693 45bf c539 08bf f6be e5be 0466 ca3c
000001d0: dc4b 103f

net.fc_nn.fc_hidden.0.bias f4 [9]
-0.24402933 0.26031128 -1.3608227 0.4354073 -1.6110337 -0.49636114 0.1785193 0.20221032
0.8744042
00000000: d3e2 79be 8547 853e 702f aebf b5ed de3e
00000010: 5a36 cebf 0c23 febe c3cd 363e 3910 4f3e
00000020: f4d8 5f3f

net.fc_nn.fc_hidden.1.weight f4 [5, 9]
0.42595592 0.79810005 -0.3832081 0.78546613 -0.6111395 0.30793467 0.1926961 0.43370044
-0.36399448 0.5370302 0.3503504 -0.16346784 0.65802103 -0.102392204 0.6618394 0.29911494
0.7135098 -0.36092818 0.48079744 0.46259034 -0.61230344 0.9241786 -0.590643 0.36685005
0.77463245 0.5732071 -0.46987936 0.5919227 0.8127335 0.10914217 0.50771374 -0.26907375
0.6757129 0.885456 0.72077554 -0.33216032 -0.5848629 -0.10039116 -0.86967915 0.51891685
-0.9652377 -0.8903375 -0.41640142 0.16927364 1.1859345
00000000: e516 da3e 4950 4c3f da33 c4be 4f14 493f
00000010: a373 1cbf 9da9 9d3e 2052 453e fc0d de3e
00000020: 7c5d babe d07a 093f 2161 b33e 1d64 27be
00000030: 1174 283f 01b3 d1bd 4f6e 293f 9825 993e
00000040: 94a8 363f 94cb b8be 152b f63e a4d8 ec3e
00000050: ebbf 1cbf f896 6c3f 6134 17bf c5d3 bb3e
00000060: 504e 463f b3bd 123f 0794 f0be 3f88 173f
00000070: 4d0f 503f ee85 df3d 87f9 013f 09c4 89be
00000080: 85fb 2c3f 3fad 623f bf84 383f eb10 aabe
00000090: 93b9 15bf e199 cdbd 4ba3 5ebf bcd7 043f
000000a0: d119 77bf 29ed 63bf 9132 d5be 1256 2d3e
000000b0: b4cc 973f

net.fc_nn.fc_hidden.1.bias f4 [5]
-0.02588627 0.01216426 0.5324891 0.37522966 0.724696
00000000: 710f d4bc 9b4c 473c 3551 083f 1a1e c03e
00000010: ad85 393f

net.fc_nn.fc_out.weight f4 [1, 5]
0.5765987 0.59669775 0.83413345 0.8634639 -1.2064421
00000000: f99b 133f 2fc1 183f c589 553f f80b 5d3f
00000010: b26c 9abf
